30/checkpoint.pt (torch_old, 255208 bytes, 16 tensors)

fc1.weight f4 [180, 192]
0	0x3f9359a7	1.1511735
1	0x3fa9d308	1.3267527
2	0x3fd3ea9d	1.6555973
3	0x3f711e70	0.9418707
4	0x3f7bec9e	0.98407924
5	0x3f37f23c	0.71853995
6	0x3f1a231d	0.6020983
7	0x3f17538f	0.59111875
8	0x3f052603	0.52011126
9	0x3f03970e	0.51402366
10	0x3ed62a5c	0.41829193
11	0xbd08c554	-0.03339131
12	0x3e74b1c5	0.23895939
13	0xbe330e89	-0.17486013
14	0x3e833a82	0.25630575
15	0x3e33657a	0.17519179
16	0x3e5124b0	0.20424151
17	0x3dc45c5d	0.095879294
18	0xbdc80434	-0.09766427
19	0xbd2fc472	-0.042911954
20	0x3ed8d6f8	0.42351508
21	0x3f0cac34	0.5495026
22	0x3e603cd8	0.2189821
23	0x3e49ac4d	0.19694634
24	0x3e89700f	0.26843306
25	0x3d52d6b6	0.051474296
26	0x3cedd47b	0.029031983
27	0x3e1a2786	0.1505414
28	0x3ee0ff4c	0.43944776
29	0x3e6bc338	0.23023689
30	0x3e6d2e48	0.23162186
31	0x3e094487	0.13405047
32	0x3cb5b147	0.022179259
33	0x3dc71800	0.097213745
34	0xbc5f45ea	-0.013627509
35	0x3e3b8d0c	0.18315524
36	0x3e5386ba	0.20656863
37	0xbc2c99c7	-0.01053471
38	0xbe763c05	-0.24046333
39	0xbe90ac5e	-0.28256506
40	0xbedaa9d9	-0.42707708
41	0xbe9707c6	-0.29498118
42	0xbe780bed	-0.242233
43	0xbdeb8f7c	-0.11501977
44	0xbe2df3b6	-0.169875
45	0xbe181049	-0.14849962
46	0xbeb4e4b1	-0.35330728
47	0xbef43b34	-0.47701418
48	0xbf02b0ea	-0.510512
49	0xbeeb6120	-0.45972538
50	0xbe89769a	-0.26848298
51	0xbe139195	-0.14411004
52	0xbe75cf10	-0.2400477
53	0xbd3622f2	-0.04446692
54	0xbec6963f	-0.38786504
55	0xbe57d9f9	-0.21079244
56	0xbed946ac	-0.4243673
57	0xbe5ce805	-0.21572883
58	0xbe1ff19d	-0.15619512
59	0xbd6bd165	-0.05757274
60	0xbd674c75	-0.0564694
61	0x3eb9f749	0.36321476
62	0x3d6cd828	0.05782333
63	0x3e82e873	0.2556797
64	0xbd96402e	-0.0733646
65	0x3e2daa83	0.16959576
66	0xbe82ff3e	-0.2558536
67	0x3e28c1e6	0.16480216
68	0xbe3bcb63	-0.18339305
69	0x3d248565	0.040166277
70	0x3e01c135	0.12671359
71	0x3e9ff5e8	0.312423
72	0x3ea99a5c	0.3312558
73	0x3ecf56e0	0.40495968
74	0x3db5aa8f	0.08870422
75	0x3df82321	0.12116075
76	0xbdbae9ab	-0.091266
77	0x3e84066c	0.2578615
78	0x3dc2a600	0.09504318
79	0x3eb033dd	0.3441457
80	0xbd10c3a0	-0.035342813
81	0x3e727efc	0.23681253
82	0x3cc5d5dc	0.024149828
83	0x3e8da3e3	0.27664098
84	0x3e214455	0.15748723
85	0x3e1eae77	0.1549624
86	0xbd958ae1	-0.0730188
87	0x3d2c1481	0.04201174
88	0xbe27d61c	-0.1639027
89	0xbc93eebd	-0.018058175
90	0xbdd810cf	-0.10550081
91	0x3c8bef83	0.017081982
92	0xbdb3de31	-0.08782614
93	0x3dc0cf69	0.0941456
94	0xbe82ec89	-0.25571087
95	0xbc8e3da9	-0.017363386
96	0xbd5f434f	-0.05450755
97	0x3e5fc5a9	0.21852745
98	0xbc823f81	-0.015899422
99	0xbde8f7cc	-0.113753885
100	0xbe94cb79	-0.29061487
101	0xbd8f05a1	-0.069834955
102	0xbe868e10	-0.2628026
103	0xbe0ba1f6	-0.13636002
104	0xbeac1600	-0.33610535
105	0xbec14f82	-0.37755972
106	0xbedff866	-0.437442
107	0xbebc548c	-0.36783254
108	0xbe8682d5	-0.26271692
109	0xbdebe87e	-0.11518954
110	0xbef0f3dd	-0.47061053
111	0xbebd1c1f	-0.36935517
112	0xbefe9df4	-0.49729884
113	0xbe807019	-0.25085524
114	0xbec59d30	-0.38596487
115	0xbefc9148	-0.4932959
116	0xbf04ab82	-0.518242
117	0xbe508f89	-0.20367254
118	0xbead8c7b	-0.3389624
119	0xbe9014c6	-0.2814085
120	0xbee79e99	-0.45238188
121	0xbec725f3	-0.3889614
122	0xbebd8d9d	-0.37022105
123	0xbea6b699	-0.32561186
124	0xbebd14ea	-0.3693002
125	0xbe178a41	-0.14798833
126	0xbe39aa27	-0.18131314
127	0xbeb01f62	-0.34398943
128	0xbdf3ab84	-0.118979484
129	0xbe0ed0d6	-0.13946852
130	0xbb6dac90	-0.0036266185
131	0x3db40bdb	0.08791324
132	0x3df8fc39	0.12157483
133	0x3e2f487b	0.17117493
134	0x3e974a09	0.29548672
135	0x3e2196ca	0.15780178
136	0x3eb18c8c	0.3467754
137	0x3e1db663	0.15401606
138	0x3ea6939f	0.325345
139	0x3e4f9737	0.20272528
140	0xbd9479d9	-0.07249803
141	0xbd15f0a1	-0.036606435
142	0xbc737f86	-0.014861947
143	0x3e35fb18	0.17771566
144	0x3e065141	0.13116933
145	0x3d8b64c3	0.06806328
146	0xbcc6d022	-0.024269167
147	0x3d9e80ee	0.07739435
148	0xbdb5cb95	-0.08876721
149	0xbd3d16cc	-0.04616432
150	0x39b46e20	0.00034414325
151	0x3d1cf5c9	0.038320336
152	0x3dc7f8d2	0.097642556
153	0x3dca0ca6	0.09865694
154	0x3d61a744	0.055091158
155	0xbc9621d6	-0.018326681
156	0xbc24fa69	-0.010069468
157	0xbc005c39	-0.007834488
158	0xbd01d208	-0.031694442
159	0xbd80a937	-0.06282275
160	0xbe09e37c	-0.13465685
161	0xbc18ba33	-0.009321737
162	0xbe6f6a90	-0.23380494
163	0xbdb00364	-0.08594397
164	0xbe2743c0	-0.16334438
165	0xbcdd9252	-0.02704731
166	0xbe1ee8ee	-0.15518543
167	0x3ccccefb	0.02500104
168	0xbdc454e3	-0.09586503
169	0xbdecdecc	-0.11565933
170	0xbe11836f	-0.14210294
171	0xbd117d4c	-0.035519883
172	0xbbfe757f	-0.0077654715
173	0xbc7b370d	-0.015332949
174	0xbe2363f2	-0.15956095
175	0xbd8def35	-0.06930391
176	0xbd997906	-0.074937865
177	0x3d930c8a	0.07180126
178	0x3cb4eeca	0.02208652
179	0x3d10ff42	0.035399683
180	0xbe0ab09c	-0.13543934
181	0xbd2a7444	-0.041614786
182	0xbe034c0e	-0.12821981
183	0xbde1eb9f	-0.11031269
184	0xbe62634e	-0.22108194
185	0xbc21b3d6	-0.009869536
186	0xbd8f9d88	-0.070124686
187	0xbdeacd45	-0.11464933
188	0xbe5b2a8d	-0.2140295
189	0xbe3241bb	-0.17407887
190	0xbe00cb63	-0.12577586
191	0xbe1c68b9	-0.15274324
192	0x3e04105a	0.12896863
193	0x3f27ac55	0.6549733
194	0x3f17b9e4	0.5926802
195	0x3ea3fb95	0.3202788
196	0x3ea25d57	0.31711838
197	0x3e8e545d	0.2779874
198	0x3ba0f46d	0.0049119503
199	0x3d987d80	0.07445812
200	0xbc3f7dfe	-0.011687754
201	0x3d1bfb05	0.038081188
202	0x3ddd306a	0.1080025
203	0xbe91e302	-0.28493506
204	0xbd8e460b	-0.069469534
205	0xbe64d166	-0.22345504
206	0x3e83be55	0.2573115
207	0x3da0d788	0.07853609
208	0xbe8a0286	-0.2695505
209	0xbe2b6520	-0.16737795
210	0xbd97e021	-0.07415796
211	0xbe00365d	-0.12520738
212	0x3dc271e7	0.094943814
213	0x3e8ecb7b	0.27889618
214	0xbe0f2ba3	-0.1398149
215	0x3dc3223c	0.09528014
216	0x3e253e25	0.16136988
217	0x3d80c340	0.06287241
218	0x3e0c50a9	0.13702644
219	0x3d973383	0.07382872
220	0x3e82b84f	0.2553124
221	0x3e382936	0.1798447
222	0x3e532935	0.20621188
223	0x3da1f0f0	0.07907283
224	0x3d83ac72	0.06429376
225	0x3d17dacc	0.037073895
226	0x3d059e63	0.032621752
227	0x3dc48633	0.09595909
228	0xbc09e093	-0.008415359
229	0xbe90b4ed	-0.28263035
230	0xbe81530d	-0.25258675
231	0xbe9cbea5	-0.306142
232	0xbec9e2d7	-0.39430878
233	0xbeb7f11d	-0.35926142
234	0xbe5d7b9a	-0.21629182
235	0xbe6ece83	-0.23320965
236	0xbe5ad4b9	-0.2137021
237	0xbedcbe73	-0.4311405
238	0xbed32a31	-0.41243127
239	0xbf0e53a8	-0.555964
240	0xbed0bdc4	-0.4076978
241	0xbeba12cd	-0.3634247
242	0xbe5721b7	-0.21008955
243	0xbea1d634	-0.31608737
244	0xbd73b655	-0.059500057
245	0xbe9e59b2	-0.30927807
246	0xbe23d74a	-0.16000095
247	0xbe1e38b4	-0.15451318
248	0xbd781c21	-0.0605737
249	0xbe061171	-0.13092591
250	0x3e4629cf	0.19351886
251	0x3e56d5b8	0.20979965
252	0x3ea712a3	0.32631406
253	0x3ebc1d62	0.36741167
254	0x3ee2c2f0	0.4428935
255	0x3e6d130f	0.23151802

fc1.bias f4 [180]
0	0x3e7925ef	0.24330877
1	0x3e975895	0.2955977
2	0x3d7478be	0.05968546
3	0x3e59d572	0.21272829
4	0x3ec7ef6e	0.39049858
5	0xbe546c99	-0.20744552
6	0x3dc1a147	0.09454589
7	0x3d73da37	0.059534278
8	0xbe882e8c	-0.26598012
9	0x3ecd1957	0.40058395
10	0x3e322e2d	0.17400427
11	0x3d5bcbd2	0.053661175
12	0x3e81c953	0.2534891
13	0x3d8e399f	0.06944584
14	0xbe726578	-0.2367152
15	0xbe48b379	-0.19599713
16	0x3d93bd95	0.07213894
17	0x3d593aa9	0.05303446
18	0xbd05c06e	-0.03265422
19	0xbe06bf71	-0.13158967
20	0x3df1ad6f	0.11800658
21	0xbcbe9e26	-0.02326877
22	0x3ed0a464	0.4075042
23	0x3d942235	0.07233087
24	0xbf4e3775	-0.8055337
25	0x3decab70	0.115561366
26	0x3cfae0af	0.030624716
27	0x3bfcd164	0.007715391
28	0x3db32f4c	0.087492555
29	0x3d8d8c25	0.06911496
30	0x3d32a8d2	0.04361803
31	0xbd9084d1	-0.07056583
32	0xbdd5687b	-0.10420319
33	0xbe4e9dec	-0.2017743
34	0xbe37be57	-0.17943703
35	0x3e4d02fe	0.20020673
36	0x3d130324	0.035891667
37	0x3ee553b3	0.4479042
38	0x3ec8c5a2	0.39213282
39	0x3e828805	0.254944
40	0x3e33fea9	0.17577614
41	0x3d7d50b5	0.061844546
42	0x3d1fb8d8	0.03899464
43	0x3d7136a5	0.058890004
44	0xbddcb1ae	-0.10776077
45	0xbc842165	-0.016129205
46	0x3e5e8fee	0.21734592
47	0xbd2a030a	-0.041506805
48	0xbe0bef64	-0.13665539
49	0x3ddba146	0.1072412
50	0xbe6bc5b5	-0.23024638
51	0x3db83abe	0.08995579
52	0x3dc81106	0.09768872
53	0x3d83b237	0.06430476
54	0xbeb50ae6	-0.35359877
55	0xbe21eb4f	-0.1581242
56	0x3dcf0847	0.10109001
57	0x3deb68cb	0.11494597
58	0xbb8df841	-0.0043325727
59	0xbbb48652	-0.0055091763
60	0x3dc5246b	0.09626087
61	0xbca76844	-0.02043546
62	0x3e0baeaa	0.13640848
63	0xbde6b4dd	-0.11264966
64	0xbbd395b9	-0.0064570573
65	0xbc3d89e4	-0.01156852
66	0x3e22936d	0.15876551
67	0xbd225183	-0.039628517
68	0xbfaed0fe	-1.3657529
69	0x3b3d5161	0.0028887617
70	0xbe1165db	-0.14199011
71	0xbe12424a	-0.142831
72	0xbf82f560	-1.0231133
73	0xbd9b6ac7	-0.075887255
74	0xbcb68261	-0.022278966
75	0x3d1ca336	0.038241588
76	0xbdbb2679	-0.091381975
77	0x3b068531	0.0020526166
78	0x3ea8c785	0.3296472
79	0x3dce5389	0.10074527
80	0x3ce57e9d	0.028014475
81	0x3d137574	0.036000684
82	0x3d76c940	0.06025052
83	0x3ccb1dbe	0.024794456
84	0x3e16df91	0.14733721
85	0x3c2c244d	0.010506702
86	0x3e96baa8	0.29439282
87	0x3de1318b	0.10995778
88	0x3e38187d	0.17978092
89	0x3debf8c0	0.11522055
90	0x3acf1e37	0.0015801851
91	0xbde9d8ca	-0.11418302
92	0xbc1c58a6	-0.00954262
93	0xbe53a768	-0.20669329
94	0x3e7864e2	0.24257234
95	0x3ce50db2	0.027960632
96	0xbe093ed1	-0.13402869
97	0xbc6f4f5e	-0.014606325
98	0x3d11922a	0.035539784
99	0x3e2e1230	0.16999125
100	0x3dc5237f	0.09625911
101	0x3e418b0e	0.18900701
102	0x3dca3763	0.098738454
103	0x3e29b979	0.16574658
104	0xbe68f69f	-0.22750328
105	0xbcada2a5	-0.021195719
106	0xbbc52758	-0.006016653
107	0x3d4db2f2	0.050219484
108	0xbe1ca7ed	-0.15298434
109	0x3ee108f2	0.43952137
110	0x3cbbec6d	0.022939885
111	0x3bd7721d	0.0065748827
112	0xbccb1f63	-0.02479524
113	0xbd8041ff	-0.06262588
114	0x3df943f3	0.121711634
115	0xbe055392	-0.13020161
116	0xbe822ec5	-0.25426307
117	0xbbb70c0a	-0.005586152
118	0x3eb7c0cd	0.35889283
119	0xbd5248d1	-0.051338974
120	0x38eac8b8	0.00011195376
121	0x3bc4ccdb	0.006005866
122	0xbe686b5c	-0.22697204
123	0xbdddcf09	-0.108305044
124	0xbd974a49	-0.07387216
125	0x3ee74e8f	0.45177123
126	0xbe1b3be9	-0.15159573
127	0xbdf99507	-0.12186628
128	0x3e7d94a4	0.24763733
129	0xbc928d52	-0.017889652
130	0xbdbd43be	-0.092414364
131	0xbdef04c5	-0.116708316
132	0x3cf47efa	0.029845703
133	0x3ef4f533	0.47843322
134	0xba1a6952	-0.0005890328
135	0xbbbc04f5	-0.0057378956
136	0x3cae9b4f	0.021314291
137	0xbc5080c8	-0.012726016
138	0xbe194ebd	-0.14971443
139	0x3ea02928	0.312814
140	0x3d6b3303	0.057421695
141	0x3e5b51e5	0.21417959
142	0xbec575c6	-0.38566417
143	0xbdbe16f0	-0.09281719
144	0xbc95ab2d	-0.0182701
145	0x3daf17e0	0.08549476
146	0xbe66b76f	-0.22530912
147	0xbe048404	-0.12940985
148	0xbe34d3f6	-0.17658982
149	0xbaa551f6	-0.0012612927
150	0xbaf1fe5c	-0.0018462646
151	0x3d9b2fe3	0.07577493
152	0xbea43751	-0.32073453
153	0x3d1b07f4	0.03784938
154	0x3e5d5a89	0.21616568
155	0x3ec524f5	0.38504758
156	0x3d8093b1	0.0627817
157	0x3e1242b3	0.14283256
158	0x3de79751	0.11308158
159	0xbebc3b93	-0.36764202
160	0x3d48648b	0.04892401
161	0x3ec4e38d	0.38454857
162	0x3d7b9b1d	0.061427224
163	0x3d7e388e	0.062065654
164	0x3e93db8d	0.2887844
165	0xbd1f07ff	-0.038825985
166	0xbdfe2390	-0.12409127
167	0x3ccdd956	0.025128048
168	0x3f115fb4	0.56786656
169	0x3d65b0f0	0.056076944
170	0xbca01b3b	-0.019544234
171	0xbc801a15	-0.015637437
172	0x3dfef1e8	0.12448484
173	0xbc67690d	-0.014124167
174	0x3e9c3984	0.3051263
175	0xbd7981f7	-0.06091496
176	0x3ed5ac47	0.41733
177	0xbd87949c	-0.06620142
178	0x3ed944dd	0.4243535
179	0x3e081ff4	0.13293439

fc2.weight f4 [110, 180]
0	0xbe047e9f	-0.12938927
1	0xbc638610	-0.013886943
2	0xbe7a7404	-0.24458319
3	0x3d98c2b9	0.074590154
4	0x3e9634b3	0.2933708
5	0xbd5e160d	-0.054220248
6	0x3f1bdc1b	0.6088273
7	0x3d3bf5bc	0.045888647
8	0xbea3c136	-0.31983346
9	0xbe1afc75	-0.15135367
10	0xbe8acfd9	-0.271117
11	0x3d30b49c	0.043140993
12	0x3d9ad789	0.07560641
13	0x3c975faf	0.018478243
14	0xbd88d6f4	-0.06681624
15	0xbcf03ebd	-0.029326791
16	0xbd9fa84b	-0.07795771
17	0x3ebb56f3	0.36589774
18	0xbd32dc67	-0.043667223
19	0xbde0cfaa	-0.10977109
20	0x3de92f0f	0.11385929
21	0xbb07f3b8	-0.0020744633
22	0x3e1fdd73	0.1561182
23	0xbe944b4b	-0.28963694
24	0xbe0a4a1c	-0.13504833
25	0xbcd6ce29	-0.026221352
26	0xbe76d821	-0.24105884
27	0xbba97719	-0.0051716683
28	0xbe2685bd	-0.16261955
29	0xbdbef183	-0.093234085
30	0x3d5768df	0.052590247
31	0xbe895bee	-0.2682795
32	0xbeb26f26	-0.34850425
33	0xbce385b4	-0.027773716
34	0x3da808be	0.082047924
35	0x3e0490bb	0.12945835
36	0x3e3ca167	0.18420945
37	0xbe2dacf1	-0.16960503
38	0xbea758af	-0.32684848
39	0x3d02feac	0.031981155
40	0xbeb0f6ed	-0.3456339
41	0x3d425cab	0.047451656
42	0xbe1d2450	-0.15345883
43	0x3b29359e	0.0025819312
44	0xbdd737c7	-0.105086856
45	0x3d2b494d	0.041817952
46	0x3cae0c25	0.021246025
47	0xbcad2349	-0.02113499
48	0x3f035020	0.51294136
49	0x3b0169c0	0.001974687
50	0xbe875feb	-0.26440367
51	0x3d2bd5ae	0.041951828
52	0x3e4607c6	0.19338903
53	0xbe4f9550	-0.20271802
54	0xbe29ee5b	-0.16594832
55	0xbe64fc6f	-0.22361921
56	0x3f024479	0.5088573
57	0xbe78d252	-0.24298981
58	0xbe8e7f8e	-0.27831692
59	0x3d140816	0.036140524
60	0x3e7de72c	0.24795216
61	0xbe98db3f	-0.29854771
62	0xbe67a614	-0.22621948
63	0x3f2183f3	0.63091964
64	0x3db7f64a	0.08982523
65	0xbd5af2df	-0.053454276
66	0x3e21f7fd	0.15817256
67	0xbea5024b	-0.32228312
68	0xbe9e0dcf	-0.3086991
69	0xbec7f1e6	-0.3905174
70	0xbe223c89	-0.15843405
71	0xbe021551	-0.12703444
72	0xbe3822d5	-0.17982037
73	0xbe36562f	-0.17806314
74	0x3e676adb	0.22599356
75	0x3efcf932	0.4940887
76	0x3e54de58	0.20787942
77	0x3dbe1fda	0.09283419
78	0x3e93b66d	0.28850117
79	0x3da8a6dd	0.08234952
80	0x3ea2ad4a	0.31772834
81	0xbccc2216	-0.024918597
82	0xbb9c6b07	-0.004773501
83	0x3d9dc762	0.07704045
84	0x3ea3990f	0.31952712
85	0xbe1f4ac6	-0.15555868
86	0xbe1b025b	-0.15137617
87	0xbdb3c9c9	-0.08778722
88	0xbd2d23f2	-0.04227061
89	0xbebcc339	-0.36867693
90	0xbe35f7b6	-0.17770275
91	0xbe3e5564	-0.18587261
92	0x3da8dc7e	0.082451805
93	0x3d862e3b	0.065517865
94	0x3db340e3	0.087526105
95	0x3df12001	0.117736824
96	0x3d9d36fd	0.07676504
97	0x3ebd6934	0.36994326
98	0x3e31c5ec	0.17360657
99	0xbdae2d74	-0.08504763
100	0x3e9e9b6b	0.3097795
101	0xbed774c3	-0.4208127
102	0x3e189e9e	0.14904258
103	0x3cae0efe	0.021247383
104	0xbdcac0cf	-0.099000566
105	0x3cc4c135	0.02401791
106	0xbc6aedb9	-0.014338904
107	0xbdafe243	-0.08588078
108	0xbe7b2d3a	-0.24528971
109	0x3db24b88	0.08705813
110	0x3e8db60c	0.27677953
111	0xbe02e80e	-0.12783834
112	0xbde62c90	-0.11238968
113	0xbeb646e6	-0.35600966
114	0x3e304575	0.17213996
115	0xbec533b7	-0.38516018
116	0xbe46a0c0	-0.19397259
117	0xbdb0dcd1	-0.086358674
118	0xbe39cad4	-0.18143779
119	0xbe25a7a8	-0.16177237
120	0x3ea1d4ad	0.3160757
121	0xbddac314	-0.106817394
122	0xbec07d61	-0.37595657
123	0xbc472807	-0.012155539
124	0xbe8966d7	-0.26836273
125	0xbe28502a	-0.1643683
126	0x3d88d6f1	0.06681622
127	0x3cbf871d	0.023379857
128	0x3d852bc4	0.06502488
129	0x3d534c6a	0.051586546
130	0xbe420c3b	-0.18949978
131	0xbe7c5dd8	-0.24645174
132	0x3e340fb4	0.17584115
133	0x3d926cab	0.07149633
134	0x3e8f02e9	0.27931908
135	0x3e8522b6	0.26003045
136	0x3c5fb102	0.013653042
137	0xbd2e1556	-0.042500816
138	0xbdbe0848	-0.09278923
139	0xbb385d3c	-0.0028131744
140	0xbda5d351	-0.08096946
141	0xbeb1f916	-0.3476035
142	0xbc4b981d	-0.012426403
143	0xbc54050e	-0.012940658
144	0x3d925f97	0.071471386
145	0x3e8bfeae	0.27342743
146	0xbdfd7d6c	-0.12377438
147	0xbe1765db	-0.14784949
148	0xbe5faab6	-0.21842465
149	0x3ebb5cf2	0.3659435
150	0x3dd64004	0.10461429
151	0x3f1c87c5	0.6114467
152	0xbde4ecfc	-0.11178014
153	0x3f84ffb7	1.0390538
154	0xbd6ee75a	-0.058326103
155	0x3d37a77e	0.044837467
156	0xbef61f78	-0.48070884
157	0x3dfabc3e	0.122429356
158	0xbe670e3a	-0.22564021
159	0xbe87de13	-0.26536617
160	0xbd38b14d	-0.045090962
161	0x3d9fc1c9	0.078006335
162	0x3e6e7f47	0.2329074
163	0xbe591137	-0.21197973
164	0x3e8a0733	0.26958618
165	0x3df66043	0.12030079
166	0xbceef078	-0.029167399
167	0x3e5cd48d	0.21565457
168	0x3ccf7749	0.025325434
169	0xbdae7217	-0.08517855
170	0x3e5e4dcd	0.21709366
171	0x3e3cc7e3	0.18435626
172	0x3e2a030e	0.16602728
173	0xbe8f49f1	-0.279861
174	0xbebe6c57	-0.37192032
175	0xbe90e44f	-0.28299186
176	0x3d81fbd4	0.063468605
177	0x3e513d31	0.20433499
178	0xbdb6eb33	-0.089315794
179	0x3ea7fbe0	0.32809353
180	0xbe355e44	-0.1771174
181	0xbb0d681f	-0.0021576954
182	0xbd470f72	-0.048598714
183	0x3de4532c	0.11148676
184	0x3e545da0	0.2073884
185	0xbd146256	-0.036226593
186	0xbb2faa6f	-0.0026804467
187	0x3e39dc57	0.18150459
188	0xbd117c36	-0.035518847
189	0x3e5123d4	0.20423824
190	0xbbdd2430	-0.0067486987
191	0xbe5c4e16	-0.21514162
192	0xbe7ffe42	-0.24999335
193	0x3da824ce	0.08210145
194	0xbdafc845	-0.0858312
195	0x3d379d2e	0.044827633
196	0x3d3bed18	0.045880407
197	0x3eb36ee2	0.35045534
198	0x3d417f85	0.047240753
199	0x3e3b5d6a	0.18297353
200	0x3d5c3790	0.053763926
201	0xbbc90ee0	-0.0061358064
202	0xbefc60bd	-0.49292555
203	0xbfb5f3ba	-1.4215004
204	0xbdb22f26	-0.08700399
205	0x3e2a4c58	0.16630685
206	0xbc1859a7	-0.009298719
207	0x3e23337c	0.15937608
208	0xbe52ecda	-0.20598164
209	0x3df01c1f	0.11724114
210	0x3d8c313d	0.06845329
211	0xbd69eaa6	-0.057108544
212	0x3e00175b	0.1250891
213	0xbf26382b	-0.64929456
214	0xbe6817b6	-0.22665295
215	0xbed60f15	-0.41808382
216	0xbdb71bf3	-0.08940878
217	0xbf39dfe3	-0.7260725
218	0x3c15415c	0.009109821
219	0x3d8774b0	0.06614053
220	0x3ddf20bb	0.10894915
221	0xbc7e317a	-0.015514726
222	0x3cad4490	0.021150857
223	0x3d3d876e	0.046271734
224	0xbd63b0e3	-0.055588614
225	0x3da47247	0.08029609
226	0xbdf03cc8	-0.11730343
227	0xbd96c1ed	-0.07361207
228	0xbea824d2	-0.32840592
229	0x3e921d39	0.2853792
230	0x3b89aace	0.0042012697
231	0x3c84b01a	0.016197253
232	0xbe1bc1a2	-0.15210584
233	0x3ee83b8b	0.45357928
234	0x3ea5cc61	0.3238249
235	0xbebd0ecb	-0.3692535
236	0xbda088e6	-0.07838611
237	0xbdda883b	-0.10670515
238	0x3c9c0a99	0.019048022
239	0x3df9442e	0.12171207
240	0x3dc9d130	0.098543525
241	0x3daa0b0e	0.0830289
242	0x3e21b32e	0.15791008
243	0x3db0638b	0.08612736
244	0x3de74739	0.112928815
245	0xbe521812	-0.20516995
246	0xbf063f78	-0.52440596
247	0x3cbb61f9	0.022873865
248	0xbea07b8d	-0.31344262
249	0xbe7b5e27	-0.24547635
250	0x3d1d2964	0.03836955
251	0x3db21cf4	0.086969286
252	0xbea58af6	-0.3233258
253	0x3dfad97b	0.12248512
254	0x3e1db8ad	0.1540248
255	0xbd287ad6	-0.04113277

fc2.bias f4 [110]
0	0xbea02d9f	-0.31284806
1	0x3dfb1003	0.12258913
2	0x3e335b0b	0.17515199
3	0x3df69b88	0.12041384
4	0xbca6dbee	-0.020368543
5	0xbe935c77	-0.28781483
6	0xbd0d44dd	-0.0344895
7	0x3c38ab48	0.011271305
8	0x3de33fcc	0.11096153
9	0x3db5fb5f	0.08885836
10	0xbefdc3d8	-0.4956348
11	0xbdadc88d	-0.08485518
12	0xbee61b20	-0.4494257
13	0xbe90f510	-0.28311968
14	0xb8536bec	-5.040683e-05
15	0x3dda7778	0.10667318
16	0xbecc9e01	-0.39964297
17	0xbcdbd47f	-0.026834724
18	0xbe81f598	-0.25382686
19	0xbb8919b7	-0.0041839737
20	0x3d1e7209	0.03868297
21	0xbeb3413d	-0.3501071
22	0xbea98a7e	-0.33113474
23	0x3e05d84a	0.13070789
24	0xbeb68972	-0.35651737
25	0xbe68a29b	-0.22718279
26	0xbe3977c5	-0.18112095
27	0xbe899072	-0.26868016
28	0xbdce813c	-0.10083243
29	0xbd47699e	-0.04868471
30	0x3dc0120e	0.09378444
31	0x3db811be	0.08987759
32	0xbd307f10	-0.043089926
33	0xbd025271	-0.031816904
34	0xbd654401	-0.055973057
35	0xbc978cd3	-0.018499767
36	0x3e6d5e5e	0.2318053
37	0x3c46e8a4	0.012140427
38	0xbe0cc5b0	-0.13747287
39	0x3dc9119c	0.09817812
40	0x3dad20bb	0.084535085
41	0xbdcdcafa	-0.1004848
42	0x3c35be5e	0.01109275
43	0xbe713ad5	-0.23557599
44	0xbee84bfb	-0.45370468
45	0xbc7201b9	-0.0147709185
46	0xbe583004	-0.21112067
47	0x3d1aa96b	0.037759226
48	0xbe868ed9	-0.2628086
49	0xbdde6d4a	-0.10860689
50	0xbdc951c5	-0.098300494
51	0xbc825073	-0.015907502
52	0xbe3e5461	-0.18586875
53	0xbe364c2c	-0.17802495
54	0xbeaee9e4	-0.3416282
55	0x3ddc4b6e	0.107565746
56	0xbe7249a5	-0.23660906
57	0xbf34f891	-0.7069178
58	0xbe7babde	-0.24577281
59	0x3c899e88	0.016799226
60	0xbea425b1	-0.32060006
61	0xbd8f275d	-0.0698993
62	0xbe9246c8	-0.28569627
63	0x3c397328	0.011318959
64	0x3cc21607	0.023692144
65	0x3ddfd86a	0.109299496
66	0xbe1cd025	-0.15313776
67	0x3e85869b	0.26079258
68	0x3b11309f	0.0022154225
69	0xbe88f43c	-0.26748836
70	0xbf1600de	-0.58595073
71	0xbe16f778	-0.1474284
72	0x3e05b114	0.13055831
73	0x3da052ad	0.07828269
74	0xbea757e0	-0.3268423
75	0x3e40d469	0.18831028
76	0xbedec221	-0.43507484
77	0xbe7aed0d	-0.2450449
78	0x3d60647d	0.054783333
79	0xbebc321f	-0.3675699
80	0x3daad252	0.08340897
81	0xbe79862f	-0.24367593
82	0xbd09bf98	-0.033629984
83	0xbeb143dc	-0.34622085
84	0x3e3180d4	0.173343
85	0xbdb1b118	-0.08676356
86	0xbe73c5c3	-0.23805909
87	0x3d649ca9	0.055813465
88	0xbeb38b61	-0.35067275
89	0xbe1225ef	-0.14272283
90	0x3dc13cab	0.094353996
91	0xbebec591	-0.37260106
92	0xbe1db201	-0.15399934
93	0xbd5c108b	-0.053726714
94	0x3e470b46	0.19437894
95	0xbefa1ce9	-0.48850182
96	0x3de9862a	0.11402543
97	0xbe4b06e3	-0.19826846
98	0x3d9a66c4	0.07539132
99	0xbe292427	-0.16517697
100	0x3d769baf	0.060207065
101	0xbeb6930b	-0.3565906
102	0x3e306e3c	0.17229551
103	0xbed6fa96	-0.41988057
104	0xbdf95d6e	-0.121760234
105	0xbf0c2e9b	-0.54758614
106	0x3d9e83d6	0.077399895
107	0xbee2826c	-0.4424013
108	0xbd40946e	-0.047016554
109	0x3d9b0ea8	0.07571155

fc3.weight f4 [55, 110]
0	0xbdf608a9	-0.120133705
1	0xbca8eb02	-0.020619873
2	0xbd38f460	-0.04515493
3	0xbdb8ea62	-0.0902908
4	0xbcf5eb14	-0.03001932
5	0x3e1d3cd0	0.1535523
6	0x39f69342	0.00047030492
7	0xbb399845	-0.002831952
8	0xbb78d8fd	-0.0037971132
9	0xbcc5e7cf	-0.024158387
10	0xbe93bae9	-0.2885354
11	0x3e9e92bb	0.3097132
12	0xbe82e512	-0.25565392
13	0xbd27b35a	-0.040942527
14	0xbc2c1b9c	-0.010504629
15	0xbdd986ae	-0.10621391
16	0xbee899bf	-0.454298
17	0xbe6f44ce	-0.2336609
18	0x3c18cc87	0.009326107
19	0x3eee11eb	0.46498045
20	0xbac65935	-0.0015132787
21	0xbd23b37b	-0.039966088
22	0xbdb8cce9	-0.090234585
23	0xbcf9875d	-0.030460054
24	0xbcb931ee	-0.022606816
25	0xbd8a131d	-0.06741927
26	0xbd34c2e5	-0.04413118
27	0xbdcf444e	-0.1012045
28	0x3e106b6a	0.14103475
29	0x3e077a2e	0.13230202
30	0x3e0df8be	0.13864419
31	0xbcfda635	-0.030963043
32	0xbf4bc2cc	-0.7959411
33	0xbe815184	-0.25257504
34	0xbcc5cb4f	-0.024144797
35	0xbb2b7282	-0.0026160781
36	0x3d67a7ac	0.05655639
37	0x3c868337	0.01641999
38	0xbd264e0f	-0.040601786
39	0x3d0e34d8	0.034718364
40	0xbd930945	-0.071795024
41	0xbdc8bf2e	-0.0980209
42	0xbd175083	-0.036942016
43	0x3d7185d3	0.058965515
44	0xbc8ff290	-0.017571718
45	0x3ca176ab	0.019709906
46	0x3de1a6a4	0.11018112
47	0x3e46e135	0.19421847
48	0xbce099c0	-0.027417064
49	0x3e68dc4e	0.2274029
50	0xbeb8c251	-0.36085752
51	0xbcaa391a	-0.020779181
52	0xbdf2f12b	-0.118624054
53	0xbd64cd64	-0.05585994
54	0xbdc1e8ec	-0.094682544
55	0xbd24d0dc	-0.040238246
56	0x3d67421e	0.05645954
57	0xbbe92cb2	-0.007115924
58	0xbd8ab9a1	-0.06773687
59	0x3c022140	0.007942498
60	0xbc8cd0ee	-0.01718947
61	0x3e26f31f	0.16303681
62	0xbe995aa5	-0.2995197
63	0xbf0e0b20	-0.55485725
64	0xbd28b8ee	-0.041191988
65	0x3d5eee74	0.054426625
66	0x3d5ff11c	0.0546733
67	0xbd03bf65	-0.03216495
68	0xbecf2755	-0.40459695
69	0xbe014d95	-0.12627251
70	0xbe06c481	-0.13160898
71	0xbdf76c4a	-0.120812014
72	0x3dda797b	0.10667702
73	0x3b6646f2	0.0035137502
74	0xbdb0f0db	-0.086396895
75	0x3cba8e46	0.02277292
76	0xbcb38da3	-0.021918124
77	0x3e343d80	0.17601585
78	0xbd4ffb38	-0.05077669
79	0x3ea1807b	0.31543335
80	0xbcabe247	-0.02098192
81	0x3df4b401	0.119483955
82	0xbc00f44c	-0.007870745
83	0xbebcc9a8	-0.36872602
84	0xbe82f203	-0.25575265
85	0x3da247ac	0.079238266
86	0x3e207ffa	0.15673819
87	0xbd87c791	-0.06629861
88	0xbe19e573	-0.15028934
89	0xbf047577	-0.5174174
90	0x3b0539dc	0.0020328676
91	0xbe8c3951	-0.2738748
92	0xbe18a0fd	-0.14905162
93	0xbb8536a4	-0.0040653516
94	0xbd394547	-0.045232084
95	0xbf157ad0	-0.5839052
96	0x3906fde7	0.00012873822
97	0x3ddfd6f2	0.109296694
98	0x3e25b973	0.16184025
99	0x3c5626db	0.013070787
100	0x3e1356ea	0.14388624
101	0xbdc7630d	-0.09735689
102	0xbd39c612	-0.04535491
103	0x3e3ab617	0.18233524
104	0x3cfb8483	0.030702835
105	0xbe384b1e	-0.17997405
106	0xbd030ed2	-0.031996556
107	0x3cadd4c2	0.021219615
108	0xbd9d28ed	-0.076738216
109	0xbd0c8f4b	-0.034316342
110	0xbc2f7420	-0.010708839
111	0x3c4b5930	0.012411401
112	0xbf11a3e6	-0.56890714
113	0xbe5aa423	-0.21351676
114	0xbcd18d67	-0.025580121
115	0xbe2a05f8	-0.1660384
116	0x3cf577d5	0.029964367
117	0x3f2a6639	0.6656223
118	0xbcb5b077	-0.022178872
119	0xbf3680d4	-0.71290326
120	0xbd36fce9	-0.044674788
121	0x3e096c12	0.13420132
122	0xbd91dd62	-0.071223035
123	0xbeb98555	-0.36234537
124	0x3bd0c3b7	0.0063709873
125	0x3d56e498	0.052464098
126	0x3aa948a4	0.0012915325
127	0xbd6cae67	-0.05778351
128	0xbe44dfac	-0.19225949
129	0x3dc7ce13	0.097561024
130	0x3dc02864	0.09382704
131	0xbd0445cc	-0.032293126
132	0xbcb72be8	-0.022359803
133	0xbf0f728f	-0.5603418
134	0xbea609c3	-0.32429323
135	0x3d078a2c	0.033090755
136	0x3c43fb0d	0.011961711
137	0x3d566d3e	0.052350275
138	0xbd498189	-0.0491958
139	0x3c1e6fee	0.009670241
140	0x3d49908d	0.04921012
141	0x3b8552ed	0.0040687234
142	0xbefee8eb	-0.49787077
143	0xbd42802b	-0.04748551
144	0x3db4102e	0.087921485
145	0xbe21fafa	-0.15818396
146	0xbe80bf8d	-0.25146142
147	0x3b9edae6	0.004847872
148	0xbf431593	-0.76204795
149	0xbef7be92	-0.4838758
150	0xbc5d40df	-0.013504236
151	0xbd968b4b	-0.07350787
152	0xbf171604	-0.5901797
153	0x3d74e16c	0.05978529
154	0xbd61a1fb	-0.055086117
155	0xbc4e49fe	-0.012590883
156	0x3e41237f	0.18861197
157	0x3ef71fcd	0.4826645
158	0xbce4c8a4	-0.027927704
159	0xbe956803	-0.29180917
160	0xbd71e9ff	-0.059061047
161	0x3cad2913	0.02113775
162	0xbcc145c1	-0.023592832
163	0xbbdefd28	-0.006805081
164	0xbf0bc95d	-0.5460413
165	0xbf174044	-0.59082437
166	0xbde2a39e	-0.11066364
167	0xbe0daba0	-0.13835001
168	0x3c3dbe90	0.011581078
169	0x3c32501d	0.010883358
170	0x3986ce2b	0.0002571208
171	0x3e35fb2c	0.17771596
172	0xbd2c1f18	-0.04202184
173	0x3c969ef4	0.018386342
174	0x3e3c1b5e	0.18369815
175	0xbdef06b1	-0.11671198
176	0x3c0d1e24	0.008613143
177	0xbef3c8ec	-0.4761423
178	0xbcf4d698	-0.029887483
179	0x3c00da6c	0.007864576
180	0xbf81c011	-1.0136739
181	0x3d597108	0.05308631
182	0x3c560ad0	0.013064101
183	0xbc808002	-0.015686039
184	0xbbe622f2	-0.007023209
185	0xbef9b706	-0.48772448
186	0xbf3bb2e8	-0.73319864
187	0x3f1d4030	0.6142607
188	0xbed131c0	-0.4085827
189	0x3ce852e9	0.028359847
190	0xbd8decf2	-0.06929959
191	0x3e5baf1a	0.21453515
192	0x3c8fd6c5	0.017558465
193	0xbcdf152a	-0.027231771
194	0xbf11e79a	-0.5699402
195	0xbe12103e	-0.14264008
196	0x3ed3e639	0.41386583
197	0x3c8a28ea	0.016865212
198	0xbcfeedf5	-0.031119326
199	0xbe93b175	-0.28846326
200	0xbd24e895	-0.04026087
201	0xbf277f2b	-0.6542842
202	0xbdaded43	-0.0849252
203	0x3d88299c	0.06648561
204	0xbe094838	-0.13406456
205	0x3cb61cf7	0.022230608
206	0xbd888aee	-0.06667124
207	0x3d5d950d	0.054097224
208	0xbe227fce	-0.15869066
209	0xbc1162a7	-0.008873618
210	0x3dbdbc0f	0.09264385
211	0xbf0c7282	-0.54862225
212	0xbf2ba8f8	-0.670547
213	0xbea95987	-0.33076116
214	0xbea35bdb	-0.31906018
215	0xbe328471	-0.17433335
216	0x3b81c340	0.003960043
217	0xbecce845	-0.40020958
218	0xbea5580d	-0.3229374
219	0xbf072f1f	-0.52806276
220	0xbc642515	-0.013924857
221	0x3db586bd	0.0886359
222	0xbe118745	-0.14211757
223	0xbe5d0dd2	-0.21587303
224	0x3cd6f1e6	0.026238393
225	0xbe117acf	-0.14207004
226	0x3d382f71	0.04496712
227	0x3f3935d4	0.7234776
228	0xbe091c3d	-0.13389678
229	0x3c3eaf8f	0.011638536
230	0x3daf5f52	0.08563103
231	0x3e121590	0.14266038
232	0x3d9b267e	0.07575701
233	0x3d97019f	0.07373356
234	0xbb8eb119	-0.004354608
235	0xbd2d0286	-0.042238735
236	0xbeeaf201	-0.4588776
237	0xbea4c3c4	-0.32180607
238	0xbee9ee4e	-0.45689625
239	0x3d023d60	0.031796813
240	0xbeaad883	-0.3336831
241	0xbc87aea4	-0.016562767
242	0x3d0134c7	0.031544473
243	0xbec80482	-0.3906594
244	0xbf0e2f88	-0.55541277
245	0xbee0aefa	-0.43883497
246	0xbda8dc31	-0.08245123
247	0xbdb2bec7	-0.08727794
248	0xbd599c52	-0.053127594
249	0x3c0e554a	0.008687327
250	0xbf18d70c	-0.59703135
251	0xbc8c3909	-0.01711704
252	0xbd9ab248	-0.07553536
253	0xbf3dfb2d	-0.7421139
254	0xbd4a07f4	-0.04932399
255	0xbe9f2ade	-0.31087393

fc3.bias f4 [55]
0	0x3e7cad60	0.24675512
1	0xbe8054b7	-0.25064632
2	0x3e89e7e4	0.2693473
3	0x3e81308e	0.25232357
4	0xbe37bfa1	-0.17944194
5	0x3e4face7	0.20280801
6	0x3e73ed25	0.23820932
7	0x3e0444c8	0.12916863
8	0x3e86178d	0.26189843
9	0x3e80ad34	0.25132143
10	0x3eb586c9	0.35454395
11	0xbe37d377	-0.17951761
12	0x3e40597f	0.1878414
13	0x3eb63f92	0.35595375
14	0xbe8b3d35	-0.27195135
15	0x3e6c8674	0.23098165
16	0x3e862f03	0.26207742
17	0x3e78f5db	0.24312536
18	0xbe3074bd	-0.17232032
19	0x3e58ff4a	0.21191135
20	0xbe9289ac	-0.2862066
21	0x3e77c9da	0.24198094
22	0x3e84617e	0.2585563
23	0x3e4940f9	0.19653691
24	0x3e76bd9a	0.24095765
25	0x3e4b7e84	0.1987248
26	0x3e900324	0.28127396
27	0xbe8b61d9	-0.2722309
28	0x3e81c2e9	0.25344017
29	0xbeb5bc96	-0.35495442
30	0x3e3528c5	0.17691334
31	0xbe6123a9	-0.2198626
32	0xbe6dacc3	-0.23210435
33	0x3e8d7102	0.2762528
34	0x3e3ffbfa	0.18748465
35	0xbe967174	-0.29383433
36	0x3e28e0f9	0.1649207
37	0x3e5c7293	0.21528082
38	0x3e5738bf	0.2101774
39	0x3e853cca	0.2602294
40	0x3e8851f2	0.2662502
41	0xbea746fa	-0.32671338
42	0x3e4c97e1	0.19979812
43	0x3ea60996	0.32429188
44	0xbe84975f	-0.25896737
45	0xbea57457	-0.32315323
46	0x3e58540c	0.21125811
47	0x3e32cec8	0.17461693
48	0x3e61617c	0.22009844
49	0x3e106369	0.14100422
50	0x3e06c853	0.13162355
51	0x3e45809c	0.19287342
52	0x3ea85d4b	0.32883677
53	0x3e5437e3	0.20724444
54	0x3e1e5574	0.15462285

fc4.weight f4 [30, 55]
0	0x3cc42145	0.023941645
1	0xbd8b3196	-0.06796567
2	0xbb247a56	-0.0025097332
3	0xbd157acf	-0.036494073
4	0xbd4b374f	-0.049613293
5	0xbd0ce6ac	-0.034399673
6	0xbbb01dba	-0.0053746374
7	0xbd5d0859	-0.05396304
8	0x3cad7e17	0.021178288
9	0xbdc30da4	-0.09524086
10	0xbaa926f5	-0.0012905287
11	0x3d06e5b8	0.03293392
12	0x3c24c732	0.0100572575
13	0xbdda410c	-0.10656938
14	0x3e0c4143	0.1369677
15	0x3d9623b1	0.07331026
16	0x3d8b4355	0.06799952
17	0x3c74fb59	0.014952504
18	0x3e1ad2a2	0.15119413
19	0x3ce68776	0.028140765
20	0x3e631e3d	0.22179504
21	0xbdcbc01f	-0.099487536
22	0xbc5c2930	-0.013437554
23	0x3d1f6b8b	0.03892092
24	0x3c5a7cab	0.013335387
25	0xbc716750	-0.014734104
26	0x3d96f6d8	0.073713005
27	0x3ea477fc	0.3212279
28	0xbe0855f5	-0.1331404
29	0x3e6ff5fa	0.23433676
30	0xbc8f743a	-0.017511476
31	0x3db8164b	0.08988627
32	0xbe41fc68	-0.18943942
33	0xbd050ddf	-0.03248393
34	0xbd312d03	-0.043255817
35	0xbe75011d	-0.23926206
36	0x3c15b17a	0.009136552
37	0x3a283669	0.0006416799
38	0x3c19a518	0.00937774
39	0xbb9ec6db	-0.0048454828
40	0x3e2b8829	0.1675116
41	0xbf0ce136	-0.55031145
42	0x398e98c4	0.0002719817
43	0xbcf86f01	-0.030326368
44	0xbe7f85f2	-0.2495344
45	0xbc770c76	-0.0150786545
46	0xbde75adf	-0.11296629
47	0x3d455818	0.048179716
48	0xbc251be8	-0.010077454
49	0x3c153566	0.009106969
50	0x3e4542d4	0.19263774
51	0x3da2631b	0.07929059
52	0xbbd300f1	-0.006439321
53	0xbce3b939	-0.027798282
54	0xbd983c9a	-0.07433434
55	0x3df914ec	0.12162194
56	0x3c16c59b	0.009202386
57	0xbc1573fe	-0.009121893
58	0x3dbdd6fa	0.09269519
59	0xbd8e80b4	-0.06958142
60	0x3e0b02d7	0.13575302
61	0xbd4b2425	-0.049595017
62	0xbdcae6e1	-0.09907318
63	0x3cd544e9	0.026033835
64	0x3cbaccb3	0.022802686
65	0xbc701b7f	-0.014654993
66	0x3de794fe	0.11307715
67	0x3b8c7a99	0.0042870757
68	0x3da72001	0.08160401
69	0x3c2e015a	0.010620439
70	0x3c83168e	0.016001966
71	0xbc5ab8f7	-0.013349763
72	0xbbdd8aac	-0.0067609157
73	0xbe37277d	-0.17886157
74	0xbc232692	-0.009957926
75	0x3e9f3188	0.31092477
76	0x3c895007	0.016761793
77	0x3d3efd34	0.046628192
78	0xbded7e6a	-0.11596377
79	0x3d945dbf	0.07244443
80	0x3cab448a	0.020906705
81	0xbd51ca9c	-0.051218614
82	0x3f12609a	0.5717865
83	0x3d0f0a42	0.034921892
84	0xbd1b176b	-0.03786413
85	0xbb8016e4	-0.003908979
86	0x3c310e11	0.010806576
87	0xbe8565b5	-0.2605416
88	0x3d962246	0.07330756
89	0xbcb0a613	-0.021563565
90	0xbe59a9ec	-0.21256226
91	0xbd247973	-0.040154886
92	0xbd70028c	-0.05859618
93	0xbd4e0aaa	-0.05030314
94	0xbe1446bf	-0.14480112
95	0x3dd4dfa4	0.103942186
96	0x3e18821f	0.14893387
97	0x3d1a9bb8	0.03774616
98	0xbd3435c6	-0.043996595
99	0x3c0eefc6	0.008724159
100	0xbe198a5c	-0.14994186
101	0x3c05d076	0.008167377
102	0xbd86209a	-0.06549187
103	0xba889851	-0.001042137
104	0xbc3441cd	-0.011002016
105	0xbdb8b68d	-0.09019194
106	0x3d90d30f	0.07071506
107	0xbc562195	-0.01306953
108	0x3c45d1e3	0.012073967
109	0x3d874327	0.06604605
110	0x3ca618ca	0.020275492
111	0xbc0e0508	-0.008668192
112	0x3be0bd5e	0.006858512
113	0x3e07e206	0.13269815
114	0x3d0a9e87	0.03384259
115	0xbe59966a	-0.21248785
116	0xbdad03a9	-0.08447964
117	0x3dac1c06	0.084037825
118	0x3def2696	0.116772816
119	0xbcfdcceb	-0.030981502
120	0xbb9e4ecf	-0.004831172
121	0xbdfe20ec	-0.12408623
122	0xbac4a0a5	-0.0015001489
123	0xbca7bc4e	-0.020475533
124	0x3c12fe65	0.008971785
125	0xbd23ab9e	-0.03995859
126	0x3cce604b	0.0251924
127	0xbd65a5a2	-0.056066163
128	0x3e327def	0.17430852
129	0xbce22a4e	-0.027608063
130	0xbe96d683	-0.29460534
131	0xbc5c5ef3	-0.013450372
132	0xbe0a3ccb	-0.13499753
133	0x3cbccf08	0.023047939
134	0x3da10778	0.07862753
135	0xbc251d65	-0.010077809
136	0xbd02bbb6	-0.031917296
137	0xbecadfe0	-0.39623928
138	0x3da745b3	0.08167591
139	0x3ddfdf80	0.10931301
140	0xbbdfa958	-0.0068256073
141	0xbe266ed1	-0.1625321
142	0x3d3ac315	0.0455962
143	0xbb69cdc1	-0.0035675617
144	0x3c119329	0.008885183
145	0xbde6dd86	-0.11272721
146	0x3de50796	0.111830875
147	0x3c593cf2	0.013259159
148	0x3d571675	0.05251165
149	0xbd5f8e5d	-0.054579128
150	0x3da9fe4c	0.083004564
151	0x3e6e65da	0.23281041
152	0xbdb29b41	-0.087210186
153	0x3db96ee6	0.09054355
154	0xbdb41deb	-0.08794769
155	0x3ea8c0a8	0.32959485
156	0xbdb2b7b1	-0.087264426
157	0x3a2af325	0.0006521217
158	0xbaaccc51	-0.001318345
159	0xbd0304ff	-0.031987187
160	0xbe17b675	-0.14815696
161	0x3b84e45a	0.004055542
162	0x3b8eb27f	0.0043547745
163	0xbd93f56b	-0.07224544
164	0x3df4e74c	0.11958179
165	0xbd5175ab	-0.051137608
166	0xbcccce4a	-0.02500071
167	0xbc277b5b	-0.010222281
168	0xbd4b6165	-0.04965343
169	0x3eff0ac8	0.49812913
170	0x3e3cb107	0.18426906
171	0xbd56abf4	-0.05241008
172	0x3d16c04a	0.036804475
173	0x3d12840a	0.035770454
174	0x3ce93754	0.028468765
175	0x3c017d9d	0.007903484
176	0xbe03beef	-0.12865804
177	0xbcc412f3	-0.023934817
178	0xbd30a814	-0.04312904
179	0xbe8a2319	-0.26979902
180	0x3cdf622f	0.027268497
181	0x3cd7f2d2	0.026360903
182	0xbd2625ea	-0.0405635
183	0xbe0d28c5	-0.13785084
184	0xbc8a43b3	-0.016877985
185	0xbea5e8bd	-0.32404128
186	0x3d3257ea	0.043540873
187	0xbd845c1b	-0.0646288
188	0xbdb1ecf8	-0.08687776
189	0xbacdc3ce	-0.0015698613
190	0x3cbf2b51	0.023336085
191	0x3b9b9622	0.004748122
192	0xbe88b948	-0.26703858
193	0x3af0ea0b	0.0018380297
194	0x3e1faa58	0.15592325
195	0xbbe70e46	-0.007051262
196	0xbe1fdf45	-0.15612514
197	0xbe0f4d43	-0.13994317
198	0x3ce70149	0.028198855
199	0x3e3ade3a	0.18248835
200	0x3dcd67d9	0.10029573
201	0xbde012b3	-0.109410666
202	0xbd4edebd	-0.05050539
203	0x3d537b37	0.05163118
204	0xbb2fb03b	-0.0026807922
205	0x3c95e941	0.0182997
206	0x3e236edf	0.15960263
207	0x3d302e50	0.043012917
208	0xbd8d82f6	-0.069097444
209	0x3d63d50e	0.055623107
210	0x3f02d9dd	0.51113683
211	0x3cc58cd9	0.024115013
212	0x3c446959	0.011988007
213	0xbc321352	-0.010868864
214	0x3ca9541b	0.020669987
215	0x3dec5dfd	0.11541364
216	0x3d8bc78e	0.068251714
217	0xbc1daaf4	-0.009623278
218	0xbdf8507f	-0.121247284
219	0x3d9d640f	0.076851
220	0xbcd6525d	-0.02616232
221	0x3d7c8b4c	0.06165628
222	0xbaff4e72	-0.0019478335
223	0xbdeee0cb	-0.116639696
224	0xbd27c65a	-0.040960647
225	0x3dd3bd10	0.10338795
226	0xbe3053c4	-0.17219454
227	0x3cdf868b	0.027285835
228	0xbe012543	-0.1261187
229	0x3c0946b3	0.008378672
230	0x39ba9c30	0.00035593053
231	0x3e59d54d	0.21272774
232	0x3d32cf36	0.043654643
233	0x3d1bb04d	0.03800993
234	0xbd7ffb25	-0.06249537
235	0xbcd80453	-0.02636925
236	0x3e01025f	0.12598561
237	0x3cc9e511	0.02464536
238	0xbd3ec70c	-0.046576545
239	0xbaa2ca0a	-0.0012419831
240	0xbec2298a	-0.37922317
241	0x3cdb9d95	0.02680854
242	0x3cccb40e	0.0249882
243	0x3df93f03	0.12170222
244	0x3d49df2c	0.0492851
245	0x3c6a7c82	0.014311912
246	0x3cdd0700	0.026980877
247	0xbee1e199	-0.4411743
248	0xbc9ba8f3	-0.01900146
249	0xbe307d4c	-0.17235297
250	0xbcb11f49	-0.021621363
251	0x3df84ab5	0.12123624
252	0x3cc3ce43	0.023902064
253	0xbd0b61f7	-0.034028973
254	0xbd14acdf	-0.036297675
255	0xbcfbb914	-0.0307279

fc4.bias f4 [30]
0	0x3d72b2a8	0.05925241
1	0x3d0df3ec	0.03465645
2	0xbcfb75a4	-0.030695744
3	0xbcc79ba8	-0.024366215
4	0xbd53e2c0	-0.051729918
5	0xbd1e69be	-0.038675062
6	0xbdefb73a	-0.117048696
7	0x3d396718	0.045264333
8	0xbd5ab63a	-0.05339644
9	0xbdb4769a	-0.08811684
10	0xbdc662c2	-0.09686805
11	0x3db4c30c	0.08826265
12	0x3da298ba	0.079392865
13	0x3ce15640	0.027506948
14	0x3cfb7ce8	0.030699208
15	0x3cdc7cb0	0.026914924
16	0x3db18796	0.08668439
17	0x3dd7177a	0.10502525
18	0x3d9e1aba	0.077199414
19	0xbcadf044	-0.021232732
20	0xbdc877fc	-0.0978851
21	0xbdecd9a0	-0.11564946
22	0xbd0dc7aa	-0.034614243
23	0xb83d7000	-4.516542e-05
24	0x3d125034	0.03572102
25	0x3d9e1ee4	0.07720736
26	0xbdebaeb3	-0.115079306
27	0x3bbd2600	0.005772352
28	0xbe062d78	-0.13103282
29	0xbde4dbae	-0.11174713

fc5.weight f4 [15, 30]
0	0x3e061768	0.13094866
1	0xbe26f82d	-0.16305609
2	0xbe2b0f22	-0.16704991
3	0x3d4a5304	0.049395576
4	0xbe131475	-0.14363272
5	0x3d2e6f74	0.04258676
6	0xbdc1a5d8	-0.0945546
7	0xbe241001	-0.1602173
8	0xbe24bf51	-0.16088606
9	0x3dbaa728	0.09113914
10	0xbd9859bf	-0.07438993
11	0x3de570d4	0.11203161
12	0xbe078257	-0.13233314
13	0xbb3fa280	-0.0029241145
14	0xbe21946f	-0.15779279
15	0xbd3988a8	-0.04529634
16	0xbd610c78	-0.05494353
17	0xbe2c1eea	-0.16808668
18	0xbde5ccaa	-0.11220677
19	0xbe2df205	-0.16986854
20	0x3decd2b0	0.11563623
21	0x3db50cc4	0.088403255
22	0x3d4d350c	0.050099418
23	0x3d5e917c	0.054337963
24	0xbc9f6ab8	-0.019460067
25	0xbd3354a0	-0.043781877
26	0x3d1e8ac8	0.03870657
27	0x3d55dcb0	0.052212417
28	0xbdfb0f10	-0.12258732
29	0xbdc7e043	-0.097595714
30	0xbdbcb876	-0.09214871
31	0x3d45b524	0.048268452
32	0x3e09b8c4	0.13449389
33	0x3dff35ec	0.12461457
34	0xbe3a263e	-0.1817865
35	0xbccdabf0	-0.0251064
36	0x3e357c2e	0.17723152
37	0x3e366db4	0.17815286
38	0x3d6634b0	0.05620259
39	0x3d8693a0	0.06571126
40	0xbcdc9bd0	-0.026929766
41	0xbdb5ab42	-0.088705555
42	0x3cd3d4b0	0.025858253
43	0xbe0012a2	-0.12507108
44	0xb97e0000	-0.00024223328
45	0x3e2b5cbc	0.16734594
46	0x3e1c09e6	0.15238151
47	0xbdd82268	-0.105534375
48	0x3d0a8ba4	0.033824578
49	0x3c274020	0.01020816
50	0xbd871f4b	-0.065977655
51	0x3c2f7560	0.010709137
52	0xbdba9c3c	-0.091118306
53	0xbcd87a10	-0.026425391
54	0xbd90aea4	-0.0706456
55	0x3d59a104	0.053132072
56	0xbe36a6bd	-0.17837043
57	0x3e27504a	0.16339222
58	0xbdc9526f	-0.09830176
59	0xbbabd560	-0.005243942
60	0xbe22f25f	-0.1591277
61	0x3d498564	0.049199477
62	0x3e05c64e	0.13063928
63	0x3df2a354	0.118475586
64	0xbe16bb26	-0.14719829
65	0x3d1cf8a0	0.038323045
66	0x3db614d4	0.088906914
67	0xbbe1cde0	-0.0068909973
68	0x3e316120	0.17322206
69	0x3dd75418	0.105140865
70	0xbdaa75e9	-0.08323271
71	0xbde0b3b7	-0.10971778
72	0xbe2d2bca	-0.16911235
73	0xbd817a5e	-0.06322168
74	0xbe1ff0ca	-0.15619197
75	0x3cfbfb40	0.030759454
76	0xbbdc5c20	-0.0067248493
77	0x3e05cc5a	0.13066235
78	0xbdf34226	-0.11877851
79	0xbe1c52ec	-0.15266007
80	0xbdadafcf	-0.084807985
81	0x3e26d946	0.1629382
82	0xbd83bd7b	-0.06432625
83	0x3ce5daf0	0.0280585
84	0x3d895fda	0.06707735
85	0x3e0b0370	0.1357553
86	0xbddf6800	-0.10908508
87	0xbe0a4fdb	-0.13507025
88	0x3de25d24	0.110529214
89	0x3b9c1c60	0.0047641248
90	0x3ca185d8	0.019717142
91	0xbe094939	-0.13406838
92	0xbd605a34	-0.054773524
93	0x3e1268a8	0.14297736
94	0xbd9d0b3c	-0.076681584
95	0x3e3793fe	0.17927548
96	0x3d390f04	0.045180336
97	0x3cfbe300	0.03074789
98	0xbd6ce906	-0.057839416
99	0x3e0aca2c	0.13553685
100	0xbc2f49a0	-0.010698706
101	0x3e1b6e4a	0.1517879
102	0xbc2d6ac0	-0.010584533
103	0x3e254f26	0.16143474
104	0x3d5c1d5c	0.053738937
105	0xbd3463f8	-0.04404065
106	0xbb564600	-0.0032695532
107	0x3d8d4500	0.06897926
108	0x3e022b54	0.12711841
109	0x3cce7458	0.025201961
110	0x3d7f8714	0.06238468
111	0x3d9dfe90	0.077145696
112	0xbdda3d1d	-0.10656188
113	0x3d808a74	0.06276408
114	0x3dd0c36c	0.10193524
115	0xbe0b123a	-0.13581172
116	0xbe1245c4	-0.14284426
117	0x3dd8f894	0.105942875
118	0x3de151c8	0.11001927
119	0x3e004d54	0.12529498
120	0xbcfe4750	-0.031039864
121	0x3ca0c248	0.01962389
122	0xbd6cb424	-0.057788983
123	0x3e284d76	0.16435799
124	0xbda57e17	-0.0808069
125	0xbe00c6bc	-0.12575811
126	0xbdd23b6f	-0.10265242
127	0x3e2a04c2	0.16603377
128	0xbc974730	-0.018466562
129	0x3d164b98	0.036693186
130	0xbe108394	-0.14112693
131	0x3da7fdfc	0.082027406
132	0xbe3a9ff2	-0.18225077
133	0xbdf9f8a0	-0.122056246
134	0x3e1a420a	0.15064254
135	0xbd77edfa	-0.060529687
136	0x3e2e8acc	0.17045134
137	0x3e3437de	0.17599437
138	0x3d2a3674	0.041555837
139	0xbe0656b2	-0.13119009
140	0x3dc7b248	0.09750801
141	0xbce72668	-0.028216556
142	0xbd501268	-0.050798804
143	0x3d272af4	0.040812448
144	0xbe0b9c56	-0.13633856
145	0x3debe42c	0.1151813
146	0xbe0f5999	-0.13999023
147	0x3e0498be	0.12948892
148	0x3d4bb644	0.04973437
149	0x3b863ba0	0.0040964633
150	0x3daec2c0	0.08533239
151	0xbd92a086	-0.07159524
152	0x3ce1ae10	0.02754882
153	0x3d0358c8	0.03206709
154	0x3e071e1a	0.13195077
155	0x3cdb2028	0.026748732
156	0x3b5e64c0	0.0033934563
157	0xbe1d7541	-0.1537676
158	0xbe2e3d4e	-0.17015573
159	0x3b2cac40	0.0026347786
160	0x3db0be84	0.08630088
161	0x3e23ebc2	0.16007903
162	0xbdaf1244	-0.08548406
163	0xbd83e6f8	-0.06440538
164	0xbcc2b6f0	-0.023768872
165	0xbd678b74	-0.056529477
166	0x3e38a9ee	0.18033573
167	0xbe0bb2c3	-0.13642411
168	0xbd558504	-0.052128807
169	0x3dedaaa0	0.1160481
170	0xbd9596d2	-0.07304157
171	0x3df918b8	0.12162918
172	0x3c924600	0.017855644
173	0x3dbaa198	0.09112853
174	0x3df3db88	0.11907107
175	0x3e12507a	0.14288512
176	0x3e12fde8	0.1435467
177	0xbd646544	-0.055760637
178	0x3d48743c	0.048938975
179	0xbe10fb60	-0.14158392
180	0xbd3bac30	-0.045818508
181	0xb8187000	-3.6343932e-05
182	0xbe109243	-0.14118294
183	0xbe20462a	-0.15651765
184	0x3d84ad88	0.06478411
185	0xbe35eea1	-0.17766811
186	0x3ab3f400	0.0013729334
187	0x3e1434f8	0.14473331
188	0x3dc21350	0.0947634
189	0xbcc18d40	-0.023626924
190	0xbdd8ed02	-0.10592081
191	0x3d9f26ec	0.07771096
192	0x3dd5b868	0.10435563
193	0x3dd85030	0.105621696
194	0xbdd99d17	-0.10625666
195	0x3e20df9c	0.157103
196	0xbdb3119e	-0.087435946
197	0x3e137a9c	0.1440224
198	0x3e18b658	0.14913309
199	0x3dd12f84	0.10214141
200	0x3e2042b2	0.15650442
201	0x3cdc28b0	0.02687487
202	0x3d9f13b4	0.0776743
203	0xbd3e060c	-0.046392485
204	0x3dce1abc	0.10063693
205	0xbe1526fe	-0.14565656
206	0xbcb9fb58	-0.022702858
207	0xbe3912e8	-0.18073618
208	0xbe356aef	-0.17716573
209	0xbdae4a24	-0.08510235
210	0x3e1c4b0e	0.15263006
211	0x3e0d69ae	0.13809845
212	0xbd04a65c	-0.032385215
213	0xbe2dbae9	-0.16965832
214	0xbd091124	-0.033463612
215	0xbdd88c27	-0.10573607
216	0x3e0e2502	0.13881305
217	0xbdd45dc7	-0.10369449
218	0x3e14aeba	0.14519778
219	0x3e22c468	0.15895236
220	0x3e330f50	0.1748631
221	0xbe2f6384	-0.17127806
222	0x3e24a01a	0.16076699
223	0x3d8e577c	0.0695028
224	0x3e28eda6	0.16496906
225	0xbd96906f	-0.07351767
226	0x3d911478	0.07083982
227	0xbde371fd	-0.11105726
228	0xbd883a02	-0.06651689
229	0x3e035ae6	0.12827644
230	0xbe388d2e	-0.18022606
231	0x3d9069dc	0.07051441
232	0xbe38c68f	-0.18044494
233	0xbcf3aad8	-0.02974455
234	0xbcaaccc8	-0.0208496
235	0xbdea7acc	-0.11449203
236	0x3e320bb8	0.17387283
237	0xbe23efca	-0.16009441
238	0x3d2cf5fc	0.042226776
239	0xbd5bf5a0	-0.053701043
240	0x3ddbf778	0.1074056
241	0x3c95cec0	0.018287063
242	0x3d37c9d8	0.044870228
243	0xbded8672	-0.11597909
244	0x3e2258b6	0.15854153
245	0x3d764fac	0.060134575
246	0x3e13e7a4	0.14443833
247	0xbd712c5c	-0.058880195
248	0xbc1cc9d0	-0.0095696
249	0x3dd812bc	0.10550448
250	0x3cc69be8	0.024244264
251	0xbd049e7c	-0.032377705
252	0xbbf14ec0	-0.007364124
253	0x3e13c5c8	0.14430916
254	0xbc54c410	-0.012986198
255	0xbdb20816	-0.086929485

fc5.bias f4 [15]
0	0x3b78f4c0	0.003798768
1	0x3ddd05d0	0.10792124
2	0x3db3e668	0.08784181
3	0xbc095e00	-0.008384228
4	0x3dfa35a0	0.122172594
5	0xbb7369c0	-0.003714189
6	0xbb99aae0	-0.0046895593
7	0x3d75bfd8	0.05999741
8	0xbde1a47f	-0.11017703
9	0x3e348a1c	0.1763081
10	0xbdee5adf	-0.11638426
11	0x3b7b5380	0.003834933
12	0xbd861aab	-0.06548055
13	0xbce88b38	-0.028386697
14	0xbd8b071d	-0.06788466

fc6.weight f4 [8, 15]
0	0x3d587338	0.052844256
1	0xbc1906f0	-0.009340033
2	0xbe065acb	-0.13120572
3	0xbd9a4c24	-0.07534054
4	0x3e13ab10	0.14420724
5	0xbe623de4	-0.22093922
6	0xbe526a04	-0.20548254
7	0xbdc5b478	-0.09653562
8	0xbc77f8f0	-0.015135035
9	0x3e6ab6f6	0.22921357
10	0xbe301b64	-0.17197949
11	0xbc44c4f0	-0.012009844
12	0x3e490700	0.19631577
13	0x3c95e6d0	0.018298537
14	0xbe134610	-0.14382195
15	0xbe1b6cbf	-0.15178202
16	0x3e20c622	0.15700582
17	0xbdefaece	-0.11703263
18	0xbd181dc8	-0.037137777
19	0x3e3b5c6e	0.18296978
20	0xbe06ded9	-0.13170947
21	0xbe1bca39	-0.1521386
22	0xbc9e2ec0	-0.019309402
23	0x3e7587a2	0.23977521
24	0xbd8fa0a2	-0.0701306
25	0xbd9e9980	-0.077441216
26	0xbdd5d6fa	-0.10441394
27	0xbe2bfdda	-0.16796055
28	0xbe55e1a0	-0.2088685
29	0x3d57fcf0	0.052731454
30	0x3cdd1800	0.026988983
31	0x3e0d4fd2	0.1379998
32	0x3e4d4b7e	0.20048329
33	0xbe64533e	-0.2229738
34	0x3e2e9bee	0.1705167
35	0xbddb1328	-0.10697013
36	0x3e279e40	0.16368961
37	0x3d3892d0	0.045061886
38	0xbe713fcd	-0.23559494
39	0xbca96318	-0.020677134
40	0xbe768f0b	-0.24078004
41	0x3bfe18c0	0.0077544153
42	0x3e7af0a2	0.24505857
43	0x3de6c230	0.11267507
44	0xbe03bbbc	-0.12864584
45	0x3e819223	0.25306806
46	0x3d9c2ad4	0.07625356
47	0xbe7712c4	-0.24128252
48	0xbe5c514e	-0.2151539
49	0xbdb619aa	-0.08891614
50	0x3d9a7a74	0.07542887
51	0x3c3dee80	0.011592507
52	0xbcd15e58	-0.025557682
53	0xbdab3d1a	-0.083612636
54	0x3db71cac	0.089410156
55	0xbd464d38	-0.048413485
56	0xbe02dae7	-0.12778817
57	0x3da6e794	0.08149639
58	0xbc1753c0	-0.009236276
59	0xbcfa52c8	-0.030557051
60	0xbe442f61	-0.19158699
61	0xbd8fa202	-0.070133224
62	0xbe1ecb32	-0.155072
63	0xbe6152de	-0.22004268
64	0x3e7619d0	0.24033284
65	0x3e279ca6	0.1636835
66	0x3e0f770e	0.1401026
67	0xbae27b00	-0.0017279088
68	0xbe647ffe	-0.2231445
69	0x3e2b5666	0.16732177
70	0x3e623058	0.22088754
71	0x3d763568	0.060109526
72	0x3dae63c0	0.085151196
73	0x3dfce1fc	0.123477906
74	0xbd6046e8	-0.05475512
75	0x3d45b9c0	0.048272848
76	0xbdced89c	-0.10099909
77	0xbd2df7a8	-0.04247251
78	0xbd74b9d4	-0.059747532
79	0xbe0af490	-0.13569856
80	0xbe73314e	-0.23749277
81	0xbdddb62e	-0.10825764
82	0x3c8e51a0	0.017372906
83	0xbd600c80	-0.05469942
84	0xbdb2b96c	-0.08726773
85	0x3dff656c	0.124705166
86	0xbe5a03a8	-0.21290457
87	0x3e38301a	0.179871
88	0xbe028265	-0.12745054
89	0xbe5e8e1a	-0.21733895
90	0xbe802113	-0.25025234
91	0xbdc5fd7e	-0.096674904
92	0xbb440a00	-0.0029913187
93	0xbe619396	-0.22028956
94	0xbe3c9b58	-0.18418634
95	0x3d30eae0	0.043192744
96	0xbe6315c1	-0.22176267
97	0xbe0ba770	-0.13638091
98	0xbdf9bc94	-0.121941715
99	0x3e817e29	0.25291565
100	0x3c900c60	0.017584026
101	0x3e8415cb	0.25797877
102	0xbe008a96	-0.12552866
103	0xbcad15a0	-0.021128476
104	0x3c595280	0.013264298
105	0x3da09f50	0.078428864
106	0x3e433944	0.19064814
107	0xbdd03946	-0.10167174
108	0xbe644173	-0.22290592
109	0x3e62258c	0.22084635
110	0x3db78ab4	0.089620024
111	0x3d8d4700	0.06898308
112	0xbdd2e9e4	-0.10298517
113	0x3e25fc40	0.16209507
114	0xbcff5590	-0.031168729
115	0x3dbfaafc	0.093587846
116	0x3d9f3168	0.07773095
117	0x3d444f58	0.04792723
118	0xbe283abe	-0.16428658
119	0x3dd1616c	0.1022366

fc6.bias f4 [8]
0	0x3df2e7e8	0.11860639
1	0x3be0ff80	0.0068663955
2	0xbe5950be	-0.21222207
3	0xbe414d87	-0.1887723
4	0x3e5b312a	0.21405473
5	0xbb282980	-0.0025659502
6	0xbc626460	-0.013817877
7	0xbe17fe82	-0.14843181

fc7.weight f4 [4, 8]
0	0xbe960fcd	-0.2930893
1	0x3e87c507	0.26517507
2	0xbe005f3b	-0.12536328
3	0x3eb0707d	0.34460822
4	0xbe97a6ee	-0.29619545
5	0x3d91b038	0.07113689
6	0xbdaaa458	-0.08332127
7	0x3e3d9346	0.18513212
8	0x3e8d9315	0.27651277
9	0xbdcc57a0	-0.09977651
10	0xbd3e2fb8	-0.046432227
11	0xbe77a288	-0.24183095
12	0x3dde6158	0.108584106
13	0xbe357575	-0.17720588
14	0x3e75cece	0.24004671
15	0xbe9e4b68	-0.30916905
16	0x3d880fdc	0.0664365
17	0xbe0fc660	-0.14040518
18	0x3cc71c20	0.024305403
19	0xbdeb29a2	-0.1148255
20	0xbd2dd5b8	-0.042440146
21	0xbdd4ea06	-0.10396199
22	0x3c158f00	0.009128332
23	0xbe8c5d7b	-0.2741507
24	0xbe7b19aa	-0.24521509
25	0x3e01a8d4	0.12662059
26	0xbe5e27f5	-0.2169493
27	0x3ea56835	0.32306066
28	0x3e9ecf4d	0.31017533
29	0xbcc1c7d0	-0.023654848
30	0x3e8cf53d	0.27530852
31	0xbe95d2f2	-0.292625

fc7.bias f4 [4]
0	0xbe8d9ed0	-0.27660227
1	0xbdf1565a	-0.117840484
2	0x3ea34abb	0.31892952
3	0xbeaade0b	-0.3337253
