30/checkpoint.pt (torch_old, 255208 bytes, 16 tensors)

fc1.weight f4 [180, 192]
00000000: 58fe 7ebe 7797 03bf d7eb 273e 6acc ee3e
00000010: 0701 343e 2b80 cdbe a245 c8be 27b3 043f
00000020: 161e 393e 1a99 d5be 3e61 b9be 7110 05bf
00000030: aa87 24bf ad94 3ebf b52a 4bbf ce46 3ebf
00000040: b876 c33e 349a de3d 3b7f 9bbf b687 7c3e
00000050: 9f1d 3b3f efd3 803f a108 f83e b42b 6a3e
00000060: 7e55 503e d3e9 4cbe 7ce8 f33e 9080 843f
00000070: 7dae a03f 3dfb a33f ad00 213f 1df7 d53f
00000080: 9421 293f da71 4c3f 195f ba3f 3824 fc3f
00000090: 1063 c03f d753 a03f c857 453f 8cd9 243e
000000a0: bdf2 023e 5467 223f 8ca5 363f a431 df3f
000000b0: e93e 143f 2a7d 913f b4af 9cbe 6d17 893e
000000c0: 8ce2 acbf 1e58 353f b8f7 96be aa5e 353f
000000d0: 5bbb 2cbf 41c0 4b3f ad84 8fbf bc80 e7be
000000e0: b04c edbf 5036 08bf afe3 debf 5418 01be
000000f0: 2ee7 a7bf 168e 493f b87c 52bf 9827 d8be
00000100: 6cbc 24c0 6525 14bf 45b3 1cc0 f3fd 09bf
00000110: 98d1 05c0 cab8 e0be 45d8 b4bf ece2 273d
00000120: fc1b f9be 23b2 173f 1d51 bcbf b816 1e3e
00000130: 230c 98bf f5f8 2d3d e2b7 47bf 5128 b93e
00000140: 3d85 0ebf 22c3 463f 304a 5dbf 9799 c63f
00000150: 4876 4abc 2d72 4c3e 9375 61bf 8497 bb3b
00000160: c9ff 40bf 02cd af3e bf34 85bf b7cd b23e
00000170: f80a 8cbe 1e62 1a3e 4f5f c9be 7cd8 2a3f
00000180: 9f30 08be 9228 383f cf7b bcbe 400f 2e3e
00000190: ef8e fc3d 3c9d 033f 6560 b53e 2c50 413f
000001a0: 8700 333f c7a1 5d3f 20c3 3b3f 7bd9 7e3f
000001b0: ca58 0c3f d57b b83e 2e1e 7d3e 7508 a43e
000001c0: da70 14bf ae0c 49bf 59f6 cbbf 3cc4 fbbf
000001d0: 4fd6 d6bf a278 9abf d352 08c0 9537 b8bf
000001e0: 0556 60bf d091 09bf 63f5 1abe 6f95 7a3e
000001f0: 809c 2c3f bcb9 d83f 12b4 bc3f af7e 9b3f
00000200: 5b1d f93f dd46 d73f 954d ca3f 9aac d43f
00000210: 8632 e63f 0ec8 8b3f f7b0 ac3f 6d74 6a3f
00000220: 0827 7a3f bbe0 b7bd 74c4 a93e 202f 663e
00000230: 5b17 14c0 5295 a8bf dd87 e8bf 84e1 60bf
00000240: f6c0 80bf 6c14 02bf b80c 43bf 5b82 2dbf
00000250: 6598 7fbf 02ce dfbe 853b 36bf 7918 1abe
00000260: 559e 44be e97b d6be 9d14 1abf d28f e83d
00000270: 3821 13bf 6f4c 91be e362 43bf 3a72 44be
00000280: 7a91 a2be 2d15 4dbd 2b86 f9be 96c3 80be
00000290: f4d7 c43e 566f 21be d811 8ebd d9ee 33be
000002a0: 24a0 28be cb61 45be 3def ba3d 860e 7abe
000002b0: 84e7 a73e a940 6a3e 186f 963e 2ca0 ae3e
000002c0: caf8 fa3d 4ac8 463e 461a 233f 872a 853d
000002d0: 2195 803e 27d2 1d3d 92bd 7e3d 5fde b13e
000002e0: 12ad 7f3e e97e 44bd d4df 113e a498 873e
000002f0: 3b77 873e 29fc 1d3e 622d 29bd dc75 5f3c
00000300: 12a4 2fc0 f789 01c0 5c75 63c0 0cd7 1bc0
00000310: 4c9b b5bf 6ac2 03c0 4472 17be 1a27 8bbf
00000320: a47d 6abf 8b06 44bf 4c42 abbe 1a8f f83c
00000330: 541d ea3d 14a2 aebe fd0e 93bf da6e d1be
00000340: df09 b3b9 034a 29bf ddb1 3e3e 4598 adbf
00000350: 2638 16c0 2b93 0fc0 c86b 54bf 22b3 ffbf
00000360: 146f 25c0 b139 87bf 4201 efbf 2028 32c0
00000370: c24f 2fc0 83ed 34c0 7667 0ec0 a649 2ac0
00000380: b99a ebbf 8f59 e1bf feeb 49c0 4a2f 45c0
00000390: f007 02c0 9216 75bf 6c66 98be 2234 593e
000003a0: 5693 6dbe e227 793d e426 4cbe ea57 6bbf
000003b0: a1c6 cdbc 6b84 d1be 92f3 403f 06d9 273f
000003c0: 544c 9e3f 6acf 8c3d ae12 5f3f ef69 a33d
000003d0: fe2b 6f3f 2b96 8d3b 6121 7d3f 4b7c 173f
000003e0: 08ef b93f 223e 083e 74c8 903f f4f9 eabe
000003f0: 7e41 9c3e 6b94 b2bf 1865 85be daac 1abf
-0.24901712 -0.5140299 0.1639856 0.4664033 0.17578517 -0.40136847 -0.39115626 0.51835865
0.18077883 -0.4171837 -0.36207002 -0.5197821 -0.64269507 -0.7444561 -0.7936204 -0.7432679
0.38176513 0.10869256 -1.2148203 0.24661145 0.73092073 1.0064677 0.48444083 0.22868234
0.20345113 -0.20011072 0.4763831 1.0351734 1.255325 1.2811047 0.62891656 1.6716038
0.6606686 0.79861224 1.4560272 1.9698553 1.5030231 1.2525586 0.7708707 0.16098613
0.1278791 0.63438916 0.71346354 1.7437024 0.57908493 1.1366322 -0.306028 0.26775685
-1.3506637 0.7083758 -0.2948587 0.7084757 -0.6747338 0.7959023 -1.1212364 -0.45215404
-1.8539028 -0.53207874 -1.7413234 -0.12606937 -1.3117425 0.7873243 -0.82221556 -0.42217708
-2.5740004 -0.5786956 -2.4484417 -0.5390312 -2.0909176 -0.43890983 -1.41285 0.040987894
-0.48654163 0.5925619 -1.4712254 0.15438354 -1.1878704 0.042473752 -0.7801496 0.3616357
-0.55672055 0.776415 -0.86441326 1.5515622 -0.012357302 0.1996543 -0.8807003 0.005724849
-0.753903 0.34336096 -1.0406722 0.34922573 -0.27352118 0.15076491 -0.39330527 0.6673658
-0.13299797 0.71936905 -0.36813208 0.16998005 0.1233195 0.51411796 0.35425106 0.7551296
0.6992268 0.8657498 0.7334461 0.995506 0.5482298 0.36031976 0.24718544 0.32037702
-0.579847 -0.7853497 -1.5934554 -1.9669261 -1.6784152 -1.2068064 -2.1300552 -1.4391962
-0.87631255 -0.5373812 -0.1513267 0.24471067 0.674263 1.6931682 1.4742453 1.2148036
1.9462084 1.6818501 1.5804926 1.6615174 1.7984169 1.0920427 1.3491505 0.915839
0.97715807 -0.08978411 0.33157694 0.22478914 -2.3139255 -1.3170569 -1.8166462 -0.8784411
-1.0058887 -0.5081241 -0.7619128 -0.6777703 -0.9984191 -0.4371186 -0.7118457 -0.15048398
-0.19201024 -0.4189141 -0.60187703 0.113555565 -0.5747256 -0.28378627 -0.76322764 -0.19184199
-0.31751615 -0.050069023 -0.48735175 -0.2514922 0.3844601 -0.15765128 -0.06936997 -0.17571582
-0.16467339 -0.19275586 0.09127662 -0.24419603 0.3279382 0.22876228 0.29381633 0.34106576
0.12254484 0.19412342 0.63711965 0.06502252 0.25113776 0.038530495 0.062192507 0.34739968
0.24968365 -0.047972593 0.1424554 0.26483643 0.26458153 0.15428223 -0.041303046 0.01363894
-2.744389 -2.0240457 -3.554038 -2.4350004 -1.4188018 -2.058741 -0.14789683 -1.0871308
-0.9159796 -0.76572484 -0.33449018 0.030341674 0.11431375 -0.3410803 -1.1488949 -0.40904886
-0.00034148895 -0.6612856 0.18622537 -1.3562094 -2.347177 -2.2433574 -0.8297696 -1.9976542
-2.5849047 -1.0564481 -1.8672259 -2.783699 -2.739243 -2.8269966 -2.2250648 -2.6607451
-1.8406593 -1.7605456 -3.1550288 -3.0810113 -2.0317345 -0.95737565 -0.29765642 0.21211293
-0.23200735 0.06082905 -0.1993671 -0.9193102 -0.025119128 -0.4092134 0.7537166 0.65565526
1.2367043 0.068754986 0.8713788 0.079791896 0.934265 0.00432088 0.9887906 0.5917403
1.4526072 0.13304952 1.1311173 -0.45893824 0.30518717 -1.3951544 -0.2605369 -0.6042

fc1.bias f4 [180]
00000000: a0f2 d63d cadd dcbe 1a08 f53c 575e 153e
00000010: ee9d 91bb 68d3 693d 6a8e ae3e ae14 033d
00000020: 9272 52bf 46b0 003f 9f51 0bbe b5f5 1bbe
00000030: 6f79 97bc ded8 c83e 376e 19bd 47c4 52bf
00000040: ae3d 1dbe bf7f e93e 0935 213e 0faf c8bd
00000050: f5cb 853f 7d29 1cc0 5915 603d 4a3d 7ebd
00000060: 95dc 7c3e 3b73 1b3f c90b 84be 14f3 61be
00000070: 3f46 5c3b 17ce 3abd a85c 32bd 51da ac3c
00000080: 07b5 313e ee8b 273d 2277 5cbe d188 f03e
00000090: 7b19 93bd d8c2 e7be 02a7 eabe 3586 a2be
000000a0: 4d16 253f 7dab 5b3f ddb9 61bc 49c9 183d
000000b0: 2e97 cfbe 7a9c 5abe ab37 19c0 3d32 423e
000000c0: f6ed 09bd 2bac b33e 1d3c 4fbe c375 103b
000000d0: 599c 403b 89ac a43d d7b0 d8bc 70d6 b3bd
000000e0: dcca 2a3e 1b27 903c ac0a f8bc 7786 09bd
000000f0: 49ab dfbc c05d 7ebe 7021 c33e b510 863e
00000100: b3ce 8d3d d2f5 3e3e 0cf5 eebe e1eb 9d3d
00000110: 94de 7bbf fc1a b4bd 2a2f 0abd f768 d5bc
00000120: 7579 ca3e 3842 013e a6fe cdbd 5a00 353f
00000130: 0d7e 79bd d5be 6ebe 900b 54be 3362 963f
00000140: 2872 2a3f 2605 28bb 1ed2 abbe 7974 e53e
00000150: 042d 6abf 84fb b9bd dfaa 99bf 96f2 d3bd
00000160: 1eff 4cbc 95d1 45bf 7c30 913d 7f3f 31bc
00000170: 5776 443d 5dea 09bd 7858 91be 7694 b0be
00000180: 8dd2 85be 5425 2e3e d170 5fbc 4654 e13e
00000190: 8e21 063d ddf0 65bd a3cd 1fbd cf37 753e
000001a0: d8a3 6fbc 26f2 34bd 21e4 fdbe 5e7f 07be
000001b0: 598f 8dbe 6f1e 32bd 01be 203e 133f 00bf
000001c0: dfa5 78be e513 c2bd 6185 ef3b cecf 5e3e
000001d0: 7831 8bbd f3c5 9bbc 0f02 6b3c ddf2 713e
000001e0: dff5 183f 038d 9ebe 403f 1a3f 04eb 553e
000001f0: 7721 2fbe d518 cfbe efc7 a5be 6829 263d
00000200: 41fc 07be eab0 6bbc a643 323f 6953 75bd
00000210: fac6 873d d07f 18bc 5095 283b 61db 1fbd
00000220: d65c a6bc b2fb a5be 07f5 2a3d 14b9 4cc0
00000230: d4e4 193f 456f c63e a177 033e afca 6e3c
00000240: 91ec d8bd 2a35 483f 6871 59bd 40d3 4fbc
00000250: 5e7d 8d3e 6649 103e a471 8b3d 1307 ffbe
00000260: c0f6 62bd 0763 9abd b706 ed3e 8db4 09bd
00000270: a510 97be b628 6cbf 76a0 ddbd 1d20 81bd
00000280: e481 27be 676f 7fbc 2934 5cbd 4f84 15bc
00000290: 1d56 e23d 60e7 19bc 5abd b9bf e6a3 eebf
000002a0: d62c b6bc ebcb 32be e93f 743e 90c2 c13d
000002b0: a7db 86bd 9445 bbbd db27 81ba 358b 333f
000002c0: 64b4 36bd 1f3a 903e 630c 763c 33db c4bd
0.10495496 -0.43137962 0.02991109 0.14586769 -0.0044438755 0.05708638 0.34093028 0.032002144
-0.8220607 0.5026897 -0.13605355 -0.15230449 -0.018490521 0.39227957 -0.037458625 -0.82330745
-0.1535556 0.45605275 0.15742888 -0.09799015 1.0452868 -2.4400322 0.05470786 -0.06207017
0.2469352 0.607227 -0.2579024 -0.22065383 0.0033611206 -0.0456067 -0.043545395 0.021100195
0.17354213 0.04090493 -0.2152982 0.46979383 -0.071825944 -0.4526584 -0.45830542 -0.31743017
0.64487153 0.85808545 -0.013777223 0.037301335 -0.40545028 -0.21348754 -2.3940227 0.18964477
-0.033674203 0.3509229 -0.20237775 0.0022042848 0.0029390065 0.08040721 -0.026451511 -0.08781135
0.16678947 0.017596772 -0.030278526 -0.0335755 -0.027303355 -0.2484045 0.38111448 0.2618462
0.0692419 0.1864846 -0.4667133 0.07711006 -0.983865 -0.08794209 -0.033736385 -0.026051028
0.3954579 0.12622917 -0.10058336 0.7070366 -0.060911227 -0.23314984 -0.20707536 1.1748718
0.6658044 -0.0025637834 -0.33558744 0.44815424 -0.9147494 -0.09081176 -1.2005271 -0.10349004
-0.012511997 -0.7727292 0.07089326 -0.010818361 0.04796442 -0.033670772 -0.2838781 -0.34488267
-0.261372 0.17006427 -0.013637737 0.44009608 0.032746844 -0.05613791 -0.03901447 0.2394707
-0.014626466 -0.044176243 -0.4958811 -0.1323218 -0.27648428 -0.043486055 0.1569748 -0.50096244
-0.24282025 -0.09476451 0.007309601 0.21758959 -0.06796545 -0.019015288 0.0143437525 0.23627801
0.5975017 -0.30966958 0.6025276 0.20890433 -0.1710261 -0.40448633 -0.323791 0.04056683
-0.13279821 -0.014385441 0.69634473 -0.059894 0.06629749 -0.009307817 0.0025723763 -0.039027575
-0.02030794 -0.3241859 0.041737583 -3.1987963 0.6011479 0.38756767 0.12838604 0.014574691
-0.105919965 0.7820612 -0.05308667 -0.012684643 0.2763471 0.140905 0.068087846 -0.49810085
-0.0554111 -0.07538419 0.46294186 -0.033619452 -0.29504886 -0.9224962 -0.10821621 -0.06304953
-0.16358143 -0.015590525 -0.05376068 -0.009125783 0.11051581 -0.009393543 -1.451091 -1.8643768
-0.022238176 -0.17460601 0.23852505 0.09460938 -0.06584864 -0.0914413 -0.0009853797 0.7013429
-0.044605628 0.28169343 0.015017602 -0.096121214

fc2.weight f4 [110, 180]
00000000: 8c69 853f 05b1 24be 9b63 153d 869c f6bf
00000010: 1ce6 393f 9ff6 a7be a0bb 923d 009c 3cbd
00000020: 9333 4fbf 3f1d 12c0 cc74 6dbe f7a9 973e
00000030: e8f2 b6be caa5 39bf 062f 183f 0cb9 94be
00000040: dff3 33be d37e bebe 7b99 23bf 0402 19be
00000050: c9e9 493e 461a 83bf 6caa 993e b9ee 3fbf
00000060: 8a26 b93d 8942 e6be 208a 813f f59b 1f3f
00000070: 413a 9a3f b772 6dbe 65ad 243f 84e0 c23c
00000080: 611c dcbe 6a8e 56bd ed79 f33e a083 b9be
00000090: 7d1f 743f 10c7 d93e ca0e 21bf 9b07 633f
000000a0: 92d4 e63d 9016 0ebe 145d 523d ef94 f9bd
000000b0: 8e06 323f afe2 be3e 0e7b c5be c002 6cbf
000000c0: 20ff df3d 166f c7be 5e38 1cbe 69ed 0b3e
000000d0: 681a 913e f219 c2bf 5719 c4bd 35a1 2a3e
000000e0: a37a 74bd bafa e53d d544 84bf ba86 513e
000000f0: c71e 313f e4ab 023f e700 f4bf 8bd0 5dbf
00000100: 00a5 afbc 02f9 20bf cb1c 383f afb6 0dbe
00000110: 0192 3d3f 3cd5 0b3f 715e 06c0 d912 f53d
00000120: 9344 c6be 1f3f 4f3e 95e1 81be 31da 383d
00000130: a517 e3be 84a7 8b3c d18c 6b3f e44b 5dbe
00000140: 7e90 c3be ac72 10bf 3827 723b 1601 c8bf
00000150: a5a3 10be c734 f1bc 7c87 f93e 0148 853f
00000160: 4310 303f 76d3 b73e f55f a5bf 10c8 a33e
00000170: a294 2e3d b3ad 073f 8814 003f daa3 54be
00000180: 67a3 5ebf ecb9 913d d948 873d 92ca 70c0
00000190: 60ef df3d 1518 243c bf79 2b3d 8ab5 57bf
000001a0: 8172 5abf 5a31 163f c84c 13be f24d 50be
000001b0: e14b 87be 9c50 673e 83ea e1bd 6511 cdbf
000001c0: 1eb2 0a3f bf19 a2bd a17c fcbe e278 84bf
000001d0: f2e3 74bf 1cc2 503e f266 04bf 776e 81bd
000001e0: 7a3f fabd f148 553e 0045 c73e bdab a4be
000001f0: d7c9 483f 4497 45bd 34c2 a43e 6db6 f03d
00000200: e16b acbf 6802 993d 6652 3bbb ae17 89be
00000210: adad d8bd e4af 8c3e 9b70 f63b 6c51 bebe
00000220: 29b6 4fbf 3827 633e 3f66 adbe fcc7 9bbd
00000230: a8b6 59be ee54 873d 0371 433f d6aa df3d
00000240: 9e08 33bf 276f 13bf 48c1 10bf 7843 423f
00000250: 1bf0 66bc 9146 453f 11a9 89bc 9ca4 9dbf
00000260: 9007 95bf b5a8 6cbd 8547 003d 61b7 343e
00000270: 65c6 d9bd 4ac9 d63e e85b 37bf cdb2 433e
00000280: 8657 f73e 5ca0 f43e c329 753f f0f5 ce3e
00000290: 8760 3cbe 361b a93f 240b 5dbe f628 20bd
000002a0: 5d63 dbbc 827a ea3d b9c4 6f3e c0c8 cf3d
000002b0: 404e 563e 9799 273f 55c5 4cbf 7358 3cbf
000002c0: ac1b f7bd 548f 62be f237 1b3f bf6f 013e
000002d0: b235 863e d6cb 03c0 616c d43e 58c2 d53d
000002e0: 594e 473f 4d92 7b3e 9e4d d8be a309 063e
000002f0: 5915 813e afe4 523e 1abb 8f3f fa02 923e
00000300: 0f8c bb3e 0015 44be 0f47 9bbd a4ac 03bf
00000310: f3fe aebf 7983 5abf 1f9e 4c3e b4a2 9c3f
00000320: bd7d cfbc 9d91 e6be 57f8 c5bd 0559 1e3f
00000330: bde4 aabd 80f3 6d3e d2a7 f63e 6620 2abd
00000340: b0b4 2b3e f309 9a3e 15f2 043e 8a79 9b3e
00000350: 918f 6539 b705 49bc 5c58 ba3e d4ed d23d
00000360: d98a 853e c8fa 073d 7b60 913e 6fb2 c23e
00000370: 8220 b3be 1c40 7ebe 72cb 25bf 694f 16be
00000380: 7790 50be 51cd b3bd 1394 1cbf fe81 afbe
00000390: e271 efbd 105d 53be b65d 93bd 7446 babe
000003a0: 15e2 be3e 9996 8f3d 9c94 093f 881c 943e
000003b0: b87c b13e 3fae 32c0 0d67 0d3e 127f 073f
000003c0: 9c6b ab3d b4c1 9b3e d0cd 973d 0838 643e
000003d0: 736b 873f f0cd 57be 5fd4 c13e c7eb cd3b
000003e0: 8fc1 06be a3f7 643f f71f 1c3d 7aa4 0e3f
000003f0: 32f9 4bbe 63f8 a13d b57b 133f 4d07 c73e
1.0422835 -0.16083153 0.036471944 -1.9266517 0.72616744 -0.32805344 0.07164693 -0.04604721
-0.8093807 -2.283035 -0.23189086 0.2962186 -0.35732198 -0.725186 0.5944675 -0.2904743
-0.17573498 -0.37206134 -0.6390607 -0.14942175 0.19718088 -1.0242393 0.30012834 -0.74973637
0.09040554 -0.44972637 1.0120277 0.62347347 1.2049028 -0.23188291 0.6432708 0.023788698
-0.429904 -0.05238191 0.4755396 -0.36233234 0.9536055 0.42534685 -0.6291319 0.8868348
0.11271013 -0.13875794 0.051358297 -0.1218661 0.6954125 0.3728232 -0.38570446 -0.92191696
0.10937333 -0.3895194 -0.15255877 0.13664784 0.2834046 -1.5164168 -0.09575146 0.16663058
-0.059687268 0.11229463 -1.0333506 0.2046155 0.6918759 0.51043534 -1.9062775 -0.86646336
-0.021440983 -0.62879956 0.71918935 -0.1383922 0.7405091 0.54622245 -2.0995142 0.119664855
-0.38724193 0.20238923 -0.25367418 0.04512996 -0.44353977 0.017047651 0.92011744 -0.21610981
-0.38196176 -0.56424975 0.0036949646 -1.5625331 -0.14124925 -0.029444112 0.4873618 1.0412599
0.68774813 0.3590352 -1.2919909 0.31988573 0.042622216 0.5299942 0.5003133 -0.2076563
-0.8696808 0.0711554 0.066056915 -3.762364 0.10934329 0.010015507 0.041864153 -0.8426138
-0.8533097 0.58669055 -0.14384758 -0.20342234 -0.2642508 0.22589344 -0.11031058 -1.6020933
0.54178035 -0.07915067 -0.49313834 -1.034939 -0.95660317 0.20386547 -0.5171958 -0.063198976
-0.122191384 0.20828606 0.3891983 -0.32162276 0.78432983 -0.04823996 0.32179415 0.11753545
-1.3470422 0.07471162 -0.002858305 -0.2677588 -0.10580001 0.27477944 0.007520748 -0.37171495
-0.8113733 0.2218293 -0.3386707 -0.07606503 -0.21261084 0.06607996 0.7634432 0.10921256
-0.69935024 -0.5759148 -0.56544924 0.758842 -0.014095332 0.770608 -0.01680425 -1.231586
-1.1642933 -0.05777808 0.031318206 0.17648079 -0.10633544 0.41950446 -0.7162461 0.19111176
0.48308963 0.47778594 0.9576685 0.4042201 -0.18396197 1.3211429 -0.21586281 -0.039101563
-0.026780779 0.11449148 0.23414887 0.10145712 0.20928288 0.65468735 -0.79988605 -0.7357246
-0.12065825 -0.22124988 0.6063224 0.12640284 0.2621284 -2.0593162 0.41488937 0.10437459
0.77853924 0.24567528 -0.42246717 0.13089614 0.252116 0.20595048 1.1228974 0.28517896
0.36630294 -0.19148636 -0.07581913 -0.51435304 -1.3671554 -0.8535686 0.19982193 1.2237153
-0.025328511 -0.4503297 -0.09666508 0.61854583 -0.083444096 0.23237419 0.48174912 -0.041534804
0.16768146 0.30085716 0.12982972 0.30366164 0.00021892624 -0.012269429 0.36395538 0.10299268
0.26082495 0.033198148 0.2839392 0.3802676 -0.3498574 -0.24829143 -0.6476356 -0.1467873
-0.20367609 -0.08779395 -0.61163443 -0.34278864 -0.11691643 -0.2064097 -0.07195608 -0.36381876
0.37281862 0.07011146 0.53742385 0.28928018 0.34665465 -2.7918851 0.13808842 0.5292827
0.08370134 0.3042122 0.074123025 0.22286999 1.0579666 -0.21074653 0.3785734 0.0062842104
-0.13159774 0.89440364 0.03811642 0.5571972 -0.19919279 0.07908704 0.57610637 0.38872758

fc2.bias f4 [110]
00000000: edff 95bd 8503 553e 4040 3dbe dac5 9c3e
00000010: 2965 b33e 2863 8cbf 4780 ccbe 4a15 9fbe
00000020: 9d74 063e 8bcd c6bf 651d 81bf 21ae ad3b
00000030: d627 aa3e 6603 e23e 1e1a 84bf 8e3a 15be
00000040: 9c5d 6bbe 5226 e2bd 2176 0bbe 049b a3bd
00000050: cc1c 7f3d 1621 9f3e 479f ab3e 99a7 bebf
00000060: ea99 f73d 9287 86be 3feb 3d3e 4227 04be
00000070: 6e69 7fbd 3a17 853e 33a6 a5bd 88a4 fa3d
00000080: 83a1 4dbd 9b5d 07bf e70a 2dbf 53a3 a73e
00000090: e07f 20be 6382 ccbe 7ba2 fc3d 89e5 65be
000000a0: 03d1 9cbf b710 553e d698 72bf b80a 973e
000000b0: 83bc 323e 8319 0a3d 65de 5e3d da30 19bf
000000c0: bc03 063f 4be3 f6be 487b 493d 5e6e 363e
000000d0: cbc6 98bf 3209 0fbf a886 d2be e5ef ccbe
000000e0: bd7b a83e 20c9 52be dfca c4be ef3c 403e
000000f0: c6dc fabc b4b3 bdbe 4423 09bd 09df f83e
00000100: 7596 9cbe 6a2d 913c 1de7 d53e 44c0 063d
00000110: a984 d6bf aa77 57bf dffd 28bf 57e1 173e
00000120: 660d 13bf c27b 1fbf 57e3 cbbd 64a2 6e3e
00000130: 9354 913d c5c7 da3d c379 b1be b75e a9be
00000140: 6861 2abe 857c 16bc 8996 1b3d b490 28c0
00000150: d898 97be f0ab e4be 13e4 dfbe 61d6 d9be
00000160: b121 27bf b659 eb3b e386 22bd cffb 94bf
00000170: 2ce2 f93c 728b 59bd 1579 34bf 2592 823e
00000180: ed7c 3f3e 47e9 dfbe db07 06be bb24 62be
00000190: 7ad2 973e ea12 e3be e570 8e3c d3d8 ba3e
000001a0: c17a 053a 27d8 0a3d a9b5 283d bfdc 803e
000001b0: f6dc ebbd 06e3 86be
-0.073242046 0.20802124 -0.1848154 0.306197 0.35038117 -1.096776 -0.39941618 -0.3107093
0.13130422 -1.5531477 -1.0087095 0.005300299 0.33233517 0.44143218 -1.032047 -0.14573118
-0.22984928 -0.11042465 -0.13619281 -0.07988551 0.062283322 0.3107993 0.33519956 -1.4894897
0.12089904 -0.26275307 0.1854677 -0.129056 -0.062356405 0.25994283 -0.080883406 0.12238413
-0.050202858 -0.52877206 -0.6759476 0.32741794 -0.1567378 -0.39943227 0.12335678 -0.22450842
-1.2251285 0.20807157 -0.9476446 0.29500365 0.17454724 0.033715736 0.05441131 -0.59840167
0.5234945 -0.48220286 0.049189836 0.17815539 -1.1935667 -0.55873406 -0.4111836 -0.40026775
0.32906905 -0.20584536 -0.38436028 0.18773244 -0.030622851 -0.37051165 -0.033480898 0.48607662
-0.3058354 0.01772185 0.41777888 0.032898203 -1.6759235 -0.8416697 -0.66012377 0.14832054
-0.5744232 -0.62298214 -0.09955471 0.23304135 0.070962094 0.10682634 -0.3466321 -0.33080074
-0.1663872 -0.009184961 0.03798536 -2.633832 -0.29608798 -0.44662428 -0.43728694 -0.4254637
-0.65285784 0.0071823252 -0.03967942 -1.1639346 0.030503355 -0.0531115 -0.70497257 0.25502124
0.18699999 -0.43732664 -0.13088934 -0.22084324 0.29652768 -0.44350368 0.017387817 0.3649355
0.0005091839 0.033897545 0.04118887 0.25168416 -0.11516754 -0.2634508

fc3.weight f4 [55, 110]
00000000: d125 25be 831c 4e3e 4a01 0d3e 6869 bebe
00000010: 932b 15bc 0a99 1cbe c521 7cbe b59c 8dbe
00000020: 4130 bc3f 862e ffbe 0ff3 773e 36d2 85bc
00000030: d3f0 783f 6863 8ebd 30a2 f7bd 9649 903d
00000040: 843e 063f 0995 04bf 7c0e 523e e319 be3d
00000050: ed7e 8ebf 1584 153d 46dc 34bd c333 92be
00000060: 8420 853d 85d7 2f3e 7646 eebd 4298 303d
00000070: cfe6 e23d 0832 e9bd 1900 48bf 707a 3f3e
00000080: e058 ebbe 3532 b13f a753 b23e f446 80bd
00000090: 70b6 773b 5fab 05be a5c9 b53d a12d 89be
000000a0: bbbf 36be 1ea2 5039 e7bc a0be 62fc 01bd
000000b0: 8544 6b3d 8cb9 36be 63d0 99bd b74b 0140
000000c0: 5e00 43bd 6527 6dbf fcf2 2a3d 0a1b ad3d
000000d0: 00e6 a33d dd6e 18bf 0b4a 5dbc b4e0 32be
000000e0: 0e41 003e 6fe6 ab3d 7add a0be 9618 863f
000000f0: 2d1b a8bd df3e 063f 0c55 483d fa7d 9ebd
00000100: 99a6 d4be 2b44 9b3d ac2f 24be 52f2 18bc
00000110: ed12 78be fb71 e0bd e3cb 22be 49b0 b03f
00000120: 9e0c d5bd e06b fb3f 9aa4 363d 8b44 e3bc
00000130: 155a 6bbe 17e9 b63c 262c 62be 064a bbbf
00000140: e71c 37bf 9cc3 933b 87f2 bc3b 471a b53c
00000150: d405 3bbf 1fdb ee3d 19b6 38bd f38f 96bc
00000160: e1e4 2b3d 2768 813f b792 c3bb 363f 9ebe
00000170: 16af 923e dbdc 98bd 3374 9f3d 9b6f 98bc
00000180: 309a 8c3f 7c11 073b ee54 16bd b3df ddbd
00000190: f5a2 dcbd ccb4 233b fb29 f93c 8b48 4d3c
000001a0: 2ae7 9abd 10b6 cbbe b4c6 c7be c8ea 0d40
000001b0: b874 c2bd d49c b2bd 5714 473e 2c8c a6be
000001c0: 4719 293d 81a3 3cbd c5a1 f6bb d216 09be
000001d0: 6424 40bd d85d 2c3a 8f88 19be eb66 44bd
000001e0: 3862 02be c934 b9bd a602 4cbe 63a4 56bd
000001f0: 3be7 c43d e055 8e3e 462e d1bd 421e 183e
00000200: ba0e bdbe f6d9 cb3b 4fe9 7b3d c527 c73c
00000210: 81d3 87be 5968 04be 6663 1b3c 619f 6ebe
00000220: 6c66 5abd 9580 dfbd 01bb 59be 9eae 91bc
00000230: 6c96 e93c 52ed 683c df82 b23d e4fb 36be
00000240: 127c 49bd 3f8f 4dba 2978 c83e 260a 293d
00000250: ecf9 5cbe 7108 7c3e 618c 143d ead3 3bbd
00000260: 5cba a5bd c3f6 153b 07fe 31bd 0446 ab3e
00000270: 6c95 0b3c ab8b 483e 04ba 14be d841 743e
00000280: 3f22 213c 078d 84be 0077 1abe 8dda d03d
00000290: f6b9 0ebe 288f c43c f1f4 41be 5668 793e
000002a0: 08da 15be 0145 e2bd f40a ce3c 2009 493c
000002b0: 8d60 85bb e85a 923c d107 c53c 40cf e3b9
000002c0: 5d21 02be f70c 083d 56f9 95bd 678a 51bd
000002d0: 183d e33e 7245 66be a17b 143e db00 a73d
000002e0: a7ad c0bd 8d70 0b3d d7e7 c13d 0add 11bd
000002f0: 5a1a 1f3d 84b8 21bd 1cf9 bd3c 0204 b1bd
00000300: d1e9 af3e d181 673e b0a5 a4bc 0732 6cbe
00000310: 08e7 99bd da9f a33e 6990 083c c81c 45be
00000320: 8d2e 8a3d 36d5 c8bd 00d0 023e 0cea 0b3d
00000330: e976 adbd 2447 913c 7ac1 03be f242 23be
00000340: d8eb 81bb e952 a73e 4937 103e 87c4 88be
00000350: ebea f63c fc20 843d 4488 673d a5ff cc3d
00000360: 41b0 c53d dd80 c3bd 8404 77be f597 30bd
00000370: e913 82bd 5acb 1cbe d25e 873d 953c 4b3e
00000380: 30d2 aa3c 2659 63be 62d4 eebb b732 c93a
00000390: 6aca 77be 810e 0ebe 4358 fcbd c23a 62bc
000003a0: 345c 473d 983a e1ba 0f77 fa3d f94b a23d
000003b0: ab08 a23d d772 fb3d 21f1 6dbe 2eef 013a
000003c0: a32e 3e3d 37d4 75bd 413a 8dbe 203a bcbd
000003d0: aa52 09bd 984f 27be 75eb aebd 80e7 c6bd
000003e0: 834b 5fbd 1868 91bc c15f 863b d86f 1abd
000003f0: 11d8 553d 4ac9 4cbe 0c22 6c3d 48cf b9bc
-0.16127707 0.20128064 0.13770023 -0.37189794 -0.009104627 -0.15292755 -0.24622257 -0.2765862
1.4702226 -0.49840182 0.24213813 -0.016335588 0.9724247 -0.06952554 -0.12091482 0.070452854
0.5243914 -0.5178991 0.20513338 0.09282281 -1.1132485 0.036502916 -0.04415538 -0.28555116
0.065003425 0.17172058 -0.11634533 0.043113954 0.110791795 -0.11386496 -0.7812515 0.1869905
-0.45966244 1.3843447 0.34829447 -0.06263533 0.003779795 -0.13053654 0.08876351 -0.26792625
-0.17846577 0.00019896819 -0.3139412 -0.03173483 0.057438392 -0.17844218 -0.0751045 2.0202463
-0.047607772 -0.92638236 0.041735634 0.08452423 0.080028534 -0.59544164 -0.013506423 -0.1746853
0.12524816 0.08393561 -0.31418973 1.0476253 -0.08208308 0.52439684 0.048909232 -0.07738872
-0.41533354 0.075813614 -0.1603381 -0.009335117 -0.2422597 -0.1095924 -0.15898089 1.3803798
-0.10402797 1.9642296 0.04459057 -0.027742645 -0.22983582 0.022327943 -0.22087154 -1.4631965
-0.71528476 0.0045094024 0.005766216 0.022107257 -0.7305577 0.11662888 -0.045095537 -0.018379187
0.041966323 1.010991 -0.0059684175 -0.309076 0.28649205 -0.07464 0.07785835 -0.018607905
1.0984554 0.0020609787 -0.03670209 -0.10833683 -0.10773269 0.002497959 0.030415526 0.012529503
-0.07563622 -0.3978734 -0.39018786 2.217455 -0.094949186 -0.08721319 0.19441353 -0.32528818
0.041283872 -0.046054367 -0.0075266086 -0.13387612 -0.046909705 0.0006575263 -0.14993499 -0.047949713
-0.1273278 -0.09043271 -0.19922885 -0.052402865 0.09614416 0.27799892 -0.10213904 0.14855292
-0.36925298 0.0062210513 0.061501797 0.024310956 -0.26528552 -0.1293043 0.009484148 -0.23302986
-0.053320333 -0.10913197 -0.21262743 -0.01778346 0.02851411 0.014216738 0.08716368 -0.17869526
-0.04919059 -0.0007841475 0.39154175 0.041269444 -0.21579713 0.24612595 0.03626669 -0.045856394
-0.08092186 0.0022882677 -0.04345515 0.33451855 0.008519512 0.19584529 -0.14524084 0.23853242
0.009834825 -0.25888845 -0.15084457 0.10197935 -0.13938126 0.023994043 -0.18941094 0.24356207
-0.14633954 -0.11048318 0.025151707 0.012270242 -0.0040703476 0.017865613 0.024051579 -0.00043451227
-0.1270804 0.03321549 -0.07322948 -0.05115738 0.44382548 -0.22487429 0.14500286 0.0815446
-0.094081216 0.034042884 0.09468048 -0.03561119 0.03884349 -0.03948261 0.023190074 -0.086433426
0.34358075 0.22608115 -0.020098537 -0.23065959 -0.07514769 0.31957895 0.008335211 -0.1924926
0.0674716 -0.09806292 0.12774658 0.03415875 -0.08469946 0.017734118 -0.12866774 -0.15943506
-0.0039648823 0.32680443 0.1408359 -0.26712438 0.030141314 0.06451604 0.056526437 0.10009698
0.096527584 -0.09546063 -0.24122816 -0.043113668 -0.06351454 -0.15311947 0.066098824 0.19847329
0.020852178 -0.22201976 -0.0072885016 0.0015350197 -0.24198309 -0.1387272 -0.12321522 -0.013807954
0.048671916 -0.00171836 0.1222974 0.07924647 0.079118095 0.12277763 -0.23236515 0.00049566
0.046431195 -0.060016837 -0.27583507 -0.09190774 -0.0335261 -0.16338956 -0.085410036 -0.09712124
-0.054515373 -0.017749831 0.00410077 -0.03770432 0.05220801 -0.1999866 0.057649657 -0.022681847

fc3.bias f4 [55]
00000000: 34cf 193f 087c 5a3e efd5 933e 59af 3d3e
00000010: 8fd9 ac3e 0cd6 c1bf c082 853e 4402 983e
00000020: f4c7 cc3e b680 813e ed41 583e 27b6 5e3e
00000030: ae02 9b3e 0f30 e43e 72bc 983e 4595 9e3e
00000040: bec2 ee3e ab00 f03e c0b4 6e3e 7525 9b3e
00000050: 5d81 a73e 27da 1fbf 561f 223f 6a74 8d3e
00000060: 4455 193e d013 a9bf d5aa 233e e39f a7bf
00000070: ac8e 933e c540 a3bf 632f ee3e c922 79bf
00000080: 44c0 af3e 19d6 d53e c213 8a3e 427c a6bf
00000090: a3ae 223f 31da 6bbf b258 a53e 1257 783e
000000a0: 96f5 8b3e fef4 94bf 0fc1 a63e a1a7 acbf
000000b0: 5609 263e c4a1 8d3e 3a8e 9a3e c261 913e
000000c0: df60 973e 71a1 343e 5618 813e 1f8a 183e
000000d0: 788c 793e 0dd9 293e 51a0 7d3e
0.6008179 0.21336377 0.28874156 0.18523921 0.33759734 -1.5143447 0.26076317 0.2968923
0.39996302 0.2529351 0.21118899 0.21749173 0.30275482 0.44567916 0.29831272 0.3097326
0.46632951 0.4687551 0.23311138 0.30302015 0.32715884 -0.6244225 0.63329065 0.2762788
0.14973933 -1.3209171 0.15983136 -1.3095669 0.28819788 -1.2754141 0.46520528 -0.973187
0.34326375 0.41764906 0.269682 -1.300667 0.63547724 -0.9212981 0.32294232 0.24251965
0.27335805 -1.1637266 0.32569167 -1.3488656 0.16214499 0.2766248 0.30186635 0.28394896
0.29566094 0.1763971 0.2521388 0.14896439 0.24369991 0.16586705 0.24768187

fc4.weight f4 [30, 55]
00000000: f3a6 56bc 2b67 96bb e97e c8bc d64f 8d3d
00000010: 7500 1ebc 02a3 7ebc 249b a3bd 12e5 edbd
00000020: 2033 0c3c 3bf5 df3c 77f6 483d ea41 383e
00000030: 619b 963c 1192 47bc 03ec 813c 8bfc 903d
00000040: baa0 9abc 8629 4cbc e8f3 203c b9f0 4dbe
00000050: 29c3 92bb f7b2 dcbb 97eb 18bc 090e 16bd
00000060: 41a9 a03c 8be5 ae3c cd72 54bc 2fed 793d
00000070: 739f 8b3d c126 8f3d f875 813d 5f0b ec3d
00000080: c83d eabd 5162 af39 f31f ffbd 66e5 f0bc
00000090: 42f5 003c 0ae3 053d fef5 283d e06a 933d
000000a0: 9043 863c b6a7 ee3c 8e34 ebbd f456 96bd
000000b0: fc44 c239 2c9c 863d 7a07 9bbc 7271 4e3d
000000c0: 61c2 993d 6651 d53c 81e9 c3bd 7d81 ddb9
000000d0: d350 5abd ed01 2cbd d7a9 1ebc c5ba ffb9
000000e0: fc49 73bd a15d d6bc 993c c4bb 22db ac3c
000000f0: 6686 a23c a413 c3bb f110 0c3e 1880 e7ba
00000100: aa55 cd3d faba 123d 05b9 d13d 3081 91bd
00000110: d5c0 29bc 5835 123d 4d6c 0bbb 0788 ba3b
00000120: 352b c6bc 7c39 b9bc ed7b 903c 48e7 93bc
00000130: 6c35 ae3c 81f5 ebbb e6f7 673b 70dd 2dbd
00000140: d594 913d 1261 2cba b009 09bd 3a67 95bd
00000150: 9e70 4e3d e512 a13c 6dc5 483d d648 64bd
00000160: eda0 09bc 97e9 883c 16b1 deba 853d 8dba
00000170: d707 13be 42ce 83be d0dc 6b3d 1a0d b9bc
00000180: bf19 cbbc e6ab f6bd 4e47 563e 6511 053d
00000190: 870a 993c 08ec be3d 5300 a8bd 1972 283d
000001a0: ca83 ba3c e6e2 93bd 4eb3 633c 88a1 34bc
000001b0: 8e89 dc3d 41b3 bdba 3e9f 8abc 893a f73c
000001c0: c515 013d fa6e 283e f6f9 abbb 0ab3 823c
000001d0: 97b6 d43c 90c8 843d e40a 0cbc 4593 3abc
000001e0: 2f52 753c 50fe ef3c 0f95 b33d f548 deba
000001f0: eb43 3a3d 50a8 c7bb 097a b4bc 82cb 82bb
00000200: 691c 20bc cc85 3cbd 2a4d 7b3c 00c3 8e3d
00000210: 26cc 9abb 1732 a8bd 9118 3bbd 744d 713d
00000220: eb5c bf3d fe82 cc3b 4461 f338 d20f 8b3d
00000230: 53ff d4bd 403c 8c3d 5f2e 3b3d 3eb7 85bb
00000240: 8af8 ea3a 778f 25bd 6775 d93a 3f7d 29bd
00000250: 7e3c cbbc 91f1 9bbd 9601 b1bd 78a8 0f3b
00000260: f293 a13c 85e4 aabc cbb0 ed3c 11d9 90bd
00000270: cc32 3bbd 3fb6 81bd 79f9 aa3d a3e7 1d3d
00000280: f5aa f2bc f2aa 343d d5f2 3dbd 8198 22bc
00000290: c7af d8bd 8dad fbbb 5e5a 993b 2074 0fbc
000002a0: 3307 45bc 6e06 193d d703 da3c 8265 60bd
000002b0: 8551 4c3d f51d 0d3b 2ae3 b13b 7628 2bbd
000002c0: 6b7a 0b3b 8655 263e e07d 6dbc 55c9 7b3d
000002d0: 9436 ca3c 2ee9 08bc c5d3 833c db77 fcbc
000002e0: 5aba 563e 7486 49bb 7bef 94bd 2b57 de3b
000002f0: 9e50 9f3d 4ed3 13bc 9156 43bd 4ac8 8b3c
00000300: facd 5e3d c8b7 f0bc 2b69 783c 197f 1dbd
00000310: 9798 cb3d 3eb6 28bc af36 ecbb 73db 4cbe
00000320: a077 b5bd 45f2 50ba fa7e 4d3d 8526 063e
00000330: eb99 8e3c 22e8 0cbc 12b6 7fbd 24b3 ddbd
00000340: 1769 903d 6883 04bc bbb3 0d3d a704 ae3d
00000350: db29 eebd 9de8 28bd 806e 483c 46d0 3cbd
00000360: e926 67bd c166 8f3c 8c7f 813c afd0 a7bb
00000370: c1e2 a53a 0cfc bbbc 4038 823a 1751 cd3d
00000380: a61b 813c 70b0 47bd 7948 2dbd 1b6f cebd
00000390: 491c b23b 3936 c33c d7da e23c 5d95 783c
000003a0: 4bb3 62bd a8ac f93a 0c0f 483d 9eab 9abd
000003b0: 8825 503b cd16 0fbc f260 913d dc7d b43c
000003c0: a796 583d 3b92 0abd cfc8 653c 815e a9bd
000003d0: 5e62 223b a04b 973c e79d 9fbd a6e1 3abd
000003e0: 54db dc3d bb71 7c3d 94f9 33bc a735 483d
000003f0: 7e51 233e 6302 653b 1713 673d 6f25 c53d
-0.013101327 -0.0045899353 -0.024474578 0.06899993 -0.009643664 -0.015541794 -0.07988575 -0.11615957
0.008557111 0.027338615 0.049063172 0.17993894 0.018384637 -0.012180821 0.01585961 0.07079419
-0.018875469 -0.012461072 0.009823777 -0.2011136 -0.0044788313 -0.0067352015 -0.009333513 -0.03663448
0.019611957 0.021349689 -0.012966824 0.06101721 0.06817522 0.069898136 0.06321329 0.11525606
-0.11437565 0.00033451853 -0.12457266 -0.02940626 0.007870974 0.032687224 0.04125022 0.07198119
0.016389638 0.029132705 -0.114846334 -0.07340804 0.0003705396 0.06572756 -0.018924464 0.05040116
0.07507778 0.02603979 -0.09566022 -0.0004224888 -0.053299736 -0.041994024 -0.009684048 -0.00048776544
-0.05939673 -0.026167693 -0.005988669 0.021100584 0.019839477 -0.005953269 0.13678338 -0.0017662076
0.10026105 0.035822846 0.10240368 -0.07104719 -0.010360916 0.035695404 -0.002127427 0.0056924853
-0.024190525 -0.022610418 0.017637217 -0.01805462 0.021265708 -0.007200897 0.0035395562 -0.042447507
0.071084656 -0.0006575744 -0.033456504 -0.072950795 0.05040037 0.01966233 0.049016405 -0.055733524
-0.008400184 0.016712947 -0.0016990032 -0.001077578 -0.1435846 -0.257433 0.05758363 -0.022589255
-0.02479255 -0.12044506 0.20925638 0.03248729 0.018681778 0.09322363 -0.08203187 0.041124437
0.02276792 -0.07221012 0.01389773 -0.01102484 0.10768424 -0.0014472977 -0.016921636 0.030179279
0.0315149 0.16448584 -0.0052483035 0.015954513 0.025965972 0.06483567 -0.008547518 -0.011387651
0.014973207 0.02929607 0.08768665 -0.0016958999 0.045474928 -0.0060930625 -0.022030847 -0.003991545
-0.0097723985 -0.046026036 0.015338222 0.06970787 -0.0047240434 -0.08212679 -0.045677725 0.058911756
0.093438946 0.0062412014 0.0001160526 0.06790127 -0.10400262 0.06847429 0.04569852 -0.004080682
0.0017926854 -0.04042002 0.0016590775 -0.04137921 -0.024809118 -0.076144345 -0.086428806 0.0021920484
0.019723866 -0.02086092 0.029014966 -0.07072652 -0.04570274 -0.06333589 0.083483644 0.038550984
-0.029622534 0.04410834 -0.04637416 -0.009924055 -0.10580402 -0.007680601 0.004679962 -0.008755714
-0.012025642 0.037359647 0.02661316 -0.054784305 0.04988243 0.0021532748 0.0054286914 -0.041786633
0.0021282684 0.16243562 -0.014495343 0.061471302 0.024684228 -0.008356376 0.01609219 -0.03081887
0.20969525 -0.0030750306 -0.0727224 0.0067852936 0.077790484 -0.009022547 -0.047689978 0.017063279
0.054395653 -0.029384509 0.015161793 -0.038451288 0.099412136 -0.010297356 -0.007208667 -0.20005588
-0.08860707 -0.0007970671 0.050169922 0.13100632 0.017407378 -0.008600267 -0.062429495 -0.10825184
0.07051294 -0.00808797 0.034595232 0.08496981 -0.11629077 -0.041237462 0.0122333765 -0.046097063
-0.056433592 0.017505052 0.01580789 -0.0051213126 0.0012656079 -0.022947334 0.0009934977 0.10025232
0.015760254 -0.04875225 -0.042305443 -0.100797854 0.0054355008 0.023829566 0.027692242 0.01517233
-0.05534677 0.0019048648 0.048842475 -0.07552265 0.0031760652 -0.0087334635 0.07098569 0.02203267
0.05287805 -0.033830862 0.014024927 -0.08269978 0.002477787 0.018468678 -0.07793789 -0.04562535
0.10784021 0.0616319 -0.010984797 0.04887929 0.15949056 0.003494405 0.05641469 0.096262805

fc4.bias f4 [30]
00000000: 2e14 75bd ec95 753d a06e aabb 2ea2 d43d
00000010: 34cd 1ebd 7374 bbbd c055 fcbd 9c5d 353d
00000020: 0878 b0bd 8028 d43a 00fe a03b 703f 2bbc
00000030: f209 ecbd 72e1 b03d e066 003c 5cd5 b53d
00000040: bd1a 84bd c868 5cbd b268 14bd 2aa2 52bd
00000050: 15cf 95bd d0cb 5ebc 8c4a c73d 4074 83bc
00000060: c0a2 773c a941 003e d86b a6bd f019 e73c
00000070: 8201 b53d 700f 253d
-0.059833698 0.05995743 -0.005201176 0.10382496 -0.038769916 -0.0915307 -0.12321043 0.044278726
-0.08616644 0.0016186386 0.0049130917 -0.010452136 -0.115253344 0.0863675 0.007837027 0.08878586
-0.064504124 -0.053810865 -0.036232658 -0.051424183 -0.073148884 -0.013598397 0.097310156 -0.016046643
0.015114486 0.12525047 -0.08126038 0.02821061 0.08838178 0.040297925

fc5.weight f4 [15, 30]
00000000: faa2 803d 6149 0dbe 2c7f 483d b818 163e
00000010: 3a21 05be 385b 813c b813 11bd 9661 093e
00000020: c3f6 d8bd 5009 343c 5024 17bd 70bf db3d
00000030: 6096 0ebe bcb9 7dbd eeff bdbd 6478 7d3d
00000040: 12f3 93bd 2284 f6bd c841 f43d 0494 e73d
00000050: a13c 25be 406e 8b3c 18a8 0b3d beaa 863d
00000060: b948 36be 2c47 ab3d e456 59bd 1023 49bc
00000070: 8f4a debd ecd4 8a3d 025e cabd e01b 133d
00000080: 569c 34be 38fe e93d e63c 09be e47f 5a3d
00000090: 8cc6 733d 30a4 86bc d0f6 3abc 211e aebd
000000a0: 4886 393d 68da 31be fc7c 4d3d 20bb 69bc
000000b0: 2ccd aebd aa31 fbbd c296 17be 38e3 6c3d
000000c0: fa7a 14be 84a3 943d 8c58 263e be2b b1bd
000000d0: e00e c1bd 0016 c5ba 68fd 243e b44c ae3d
000000e0: cfe7 2dbe f801 ebbc 0003 9b3a 485d ed3d
000000f0: ac5e f23d 0026 fcb9 e268 bcbd c0d8 82bb
00000100: cb94 0dbe 2c55 143e b861 f73d cad7 133e
00000110: 333c 26be ca20 1c3e e2d9 b1bd fe3d f2bd
00000120: 3445 f33d 40e3 74bb fbd4 2dbe 001e f33c
00000130: ded2 253e 0ce8 1c3e d03a 9a3d 9e70 71bd
00000140: 8073 15bd 327b 243e 1853 bc3d f486 c8bd
00000150: 2029 3b3d 03eb e7bd 82ed aabd ea4d 353e
00000160: 64e1 b1bd 5de3 18be 366a 233e fcda 04bd
00000170: 85da c2bd 9143 dfbd b051 05bd c84b cf3d
00000180: bfc3 f4bd 0423 a93d 9b6d 07be 22fc 333e
00000190: 3463 5bbd 7cb0 28be 7964 0bbe 4c32 393e
000001a0: 5270 2b3e e021 d83c 9af7 0b3e 77d4 e7bd
000001b0: e820 70bd a2df 823d 029a 333e ef30 19be
000001c0: fe29 1ebe be7e 223e e81b 7a3d 20a6 963d
000001d0: 8081 793c e054 6a3d 50e1 d8bc 4cf1 cf3d
000001e0: a548 31be 995a c8bd 52fc 803d 8eba 1abe
000001f0: d09d ad3d 48d7 063e 18ee 313e 4077 233e
00000200: aa17 813d a0f0 793d 24ee 873d 8790 1cbe
00000210: 2657 003e 703f de3d ac36 23be 1773 82bd
00000220: ce11 123e a898 c83d 3c5e 243d 5d7b bebd
00000230: 5c25 4e3d a8a1 a5bc b069 793d 5c7a 523d
00000240: beef d3bd 4824 b53d 201c 04bc 4049 043b
00000250: 28f8 66bd 4072 f53d e367 b1bd 10af 203e
00000260: 5022 e8bc d6e9 143e a0dc c7bd f068 a83d
00000270: 5c91 f53d 2860 f83c 7d56 abbd d17a bfbd
00000280: 4efc 31be 13bf acbd 9603 2b3e e0a1 53bc
00000290: 58b1 c0bc d489 ad3d e08d 29be 1a4b 353e
000002a0: 7df6 e9bd a891 303e 8c89 b13d ee0f 123e
000002b0: 20b8 cb3c e971 d9bd 54e0 f7bd 483e 413d
000002c0: b0e2 f93d 5041 523c d0c5 4fbc f25f 20be
000002d0: 2094 1abe dada 28be 9c48 dc3d 74b4 3a3e
000002e0: 9678 373e 0828 dbbc 5770 d3bd fbb8 1cbe
000002f0: 0013 333e e09a d7bb c0a1 82bc 1c7a 6fbd
00000300: 40e0 4bbd f808 47bd ae4f 1e3e 68ad 7d3d
00000310: 2c05 1d3e d8dd 80bc e0b4 a73d e8dc e53c
00000320: c8c9 0fbd 84fb 2ebd 50bb 203e 0023 023a
00000330: 005e f93d e440 973d acc4 f1bd 2adf 14be
00000340: b844 d03d 4c76 133d d2d5 0d3e 885f 7c3d
00000350: b833 c1bc 2c9d 283e d8a3 1d3e 8fdb 98bd
00000360: 00c4 aebb 829c eebd 743d c0bd d0a5 0cbe
00000370: ff2f e9bd f67d 9abd 940e 253e f8b1 ab3c
00000380: 4582 9cbd beff 323e 221c cebd 36fc cfbd
00000390: ced7 3abe 08ab 913d 430d bfbd 0040 1b3e
000003a0: ee57 9ebd db8f 14be 7d3b 99bd 27f6 f9bd
000003b0: 44f8 373e 3414 3a3e 1052 3fbd 2e58 e4bd
000003c0: 0ff1 8ebd d738 9cbd c83c 573d 8e17 023e
000003d0: 38a6 f83d 9cdb cebd 5027 6ebd f4dc 583d
000003e0: b8c8 9cbd 3a2d 183e 884e 813c ace6 913d
000003f0: c4fd a93d 40a2 5c3b d222 843d 70c8 37be
0.06281085 -0.13797523 0.048949406 0.14657867 -0.13000956 0.015790567 -0.035419196 0.13416132
-0.10593941 0.010988548 -0.036899865 0.10729873 -0.13924551 -0.06194471 -0.0927733 0.06188239
-0.07224096 -0.12036921 0.11926609 0.113075286 -0.1613641 0.017020345 0.034095854 0.06575535
-0.17801179 0.08363184 -0.05306138 -0.012276426 -0.10854065 0.06778893 -0.09881212 0.035915256
-0.17637762 0.114254415 -0.13402137 0.053344622 0.05951552 -0.016435713 -0.011411384 -0.085018404
0.045294076 -0.17368472 0.050168023 -0.0142658055 -0.08535227 -0.12265332 -0.14803603 0.05783388
-0.14500037 0.07257751 0.16244715 -0.08650921 -0.09426665 -0.0015036464 0.16112292 0.08510724
-0.16982959 -0.028687462 0.0011826456 0.115900576 0.118344635 -0.00048093498 -0.09199692 -0.003993124
-0.13826291 0.14485615 0.12079185 0.14437786 -0.16233902 0.15246883 -0.08684136 -0.1182823
0.11878434 -0.0037366897 -0.16975777 0.029677391 0.1619372 0.15322894 0.07530749 -0.05894529
-0.036487103 0.1606262 0.091955364 -0.09791365 0.045693517 -0.11324122 -0.08346082 0.17705503
-0.08685568 -0.14930482 0.15958485 -0.032435402 -0.095143355 -0.10901559 -0.032548606 0.10121876
-0.11951398 0.08258632 -0.13225405 0.1757665 -0.053561404 -0.16473573 -0.13612546 0.18085593
0.16742066 0.02638334 0.13668671 -0.11319821 -0.05862513 0.06390311 0.17539218 -0.14960073
-0.15445706 0.15868661 0.06106177 0.073559046 0.015228629 0.05720985 -0.026474625 0.101534456
-0.17312868 -0.09782905 0.06298126 -0.15110227 0.08477366 0.13168061 0.17375982 0.15963459
0.06303342 0.061020494 0.066372186 -0.15289508 0.12533244 0.108519435 -0.15938824 -0.06369608
0.14264604 0.09794742 0.04012893 -0.093008734 0.050328597 -0.020218685 0.060891807 0.051386222
-0.103484616 0.08844811 -0.008063346 0.0020185262 -0.056389004 0.11984682 -0.08662393 0.15691781
-0.028336674 0.14542326 -0.09758878 0.0822314 0.11990616 0.030319288 -0.08366106 -0.09349597
-0.17381403 -0.08434882 0.16700587 -0.012917012 -0.023522064 0.08473554 -0.16558027 0.1770443
-0.11423967 0.17243063 0.08668813 0.14263889 0.024868071 -0.1061743 -0.12103334 0.047178537
0.1220144 0.0128329545 -0.0126814395 -0.156616 -0.15095568 -0.16489735 0.10756037 0.182329
0.17917094 -0.026752487 -0.103241615 -0.1530494 0.17487717 -0.006579742 -0.015946269 -0.058466062
-0.04977441 -0.048592538 0.15460083 0.06193295 0.15334004 -0.015730783 0.08188796 0.028059438
-0.035104543 -0.042720333 0.15696454 0.0004964322 0.12176132 0.07385424 -0.1180509 -0.14538255
0.10169357 0.03600149 0.13851097 0.061614543 -0.023584232 0.16466206 0.15394533 -0.074637525
-0.0053334236 -0.11650945 -0.09386721 -0.13735127 -0.11386108 -0.075435564 0.16118842 0.020958886
-0.076420344 0.1748037 -0.1006396 -0.10155527 -0.18246385 0.071127 -0.09328701 0.15161133
-0.07731615 -0.14508002 -0.074820496 -0.12205153 0.179658 0.1817177 -0.04670912 -0.111496314
-0.06979572 -0.07628029 0.0525482 0.12704298 0.12141079 -0.10100481 -0.05814296 0.052945092
-0.076554716 0.14861003 0.015784517 0.07124075 0.08300355 0.0033666044 0.06451954 -0.17947555

fc5.bias f4 [15]
00000000: e159 0cbe 2207 36be 707f 70bd 981f 1cbe
00000010: 78ba 26bd dcf5 17bd 20e2 943d a04c 283e
00000020: 70ee 8f3d 6648 babd 9466 37bd bab9 243e
00000030: c164 abbd 0c16 ab3d 0a00 84bd
-0.13706161 -0.17776158 -0.058715284 -0.15246427 -0.040705174 -0.037099704 0.072696924 0.1643548
0.070279 -0.0909584 -0.04477556 0.16086474 -0.08368827 0.083538145 -0.0644532

fc6.weight f4 [8, 15]
00000000: e03e a43c d6a2 71be 7856 ccbd 3894 523e
00000010: 9214 073e 505c 2ebe 9f24 813e 7499 d0bd
00000020: 98c8 ed3d 1cdc 823d 38d3 563d c2ef 8cbd
00000030: 9808 2d3d 3026 763e e837 623e f44d ea3d
00000040: 7836 45bd b64a c3bd e428 5f3e 20b9 083c
00000050: f6a6 223e 7665 3fbe 2400 41be c671 79be
00000060: 3cd3 11be 3db7 74be 40f9 fc3c 102d 59be
00000070: 7e20 193e 44ba 4a3e 3242 2bbe 5ce9 09be
00000080: e482 b73d 2202 6b3e 9a1a 053e f08b 653e
00000090: 5fc6 1abe e42c 483e 4086 0a3c 8423 7dbe
000000a0: e4e6 e13d 3c73 0bbe cce1 45be 1925 833e
000000b0: 6d63 5ebe 00d2 2b3b e2f2 283e de33 793e
000000c0: 56df 323e 7edd c6bd ac07 b7bd 5891 dabd
000000d0: 70b5 a3bc 5a6b f0bd 3dbf 813e fc29 ac3d
000000e0: 7cec 053e 3854 fabd 489f 42be 0cf4 ba3d
000000f0: d4b5 273e a201 b6bd 500a a9bd 20b5 723c
00000100: 44ba c53d b8af 6a3e 3e7a 7c3e cc68 1c3e
00000110: d005 b9bd 0a37 133e 0330 5cbe 844e 463e
00000120: 74a1 4a3e 4a55 11be b8b2 5c3e 60a6 87bd
00000130: 62cf 3d3e c01e 5e3c 9f5b 83be 1896 853d
00000140: dae0 173e d8ac 73be 7240 a4bd bc9b 10be
00000150: 90b0 81bc 706e 963c e471 ddbd 0a2f 643e
00000160: 2d72 5cbe 2077 74be f0ab 643e e49f 3f3e
00000170: d84f 073e d62f 83be c87e 6d3d 6098 5c3d
00000180: 73d3 6bbe 307e e9bd 1803 403d 005c 1bbb
00000190: 143d 16bd 8093 82be 605e 313c 3409 8fbd
000001a0: 08ab 3cbd a891 523e a81d 7dbe 1cc5 1e3e
000001b0: 7027 2a3d 959b 1ebe f601 b2bd 10d1 d03d
000001c0: 0808 233d 267e 2e3e ed6e 06be 75d3 07be
000001d0: be90 bdbd 2093 7a3d 4011 d23d b2c5 82be
0.020049512 -0.23597273 -0.0997743 0.20564353 0.1319144 -0.17027402 0.25223252 -0.10185519
0.11610526 0.06389639 0.052447528 -0.06881668 0.042244524 0.24038005 0.22091639 0.1144065
-0.04814765 -0.09535734 0.21792942 0.0083449185 0.15884003 -0.18691048 -0.1884771 -0.24359807
-0.14240736 -0.23898025 0.03088057 -0.21208596 0.14953801 0.19797617 -0.1672447 -0.13467926
0.08960512 0.22950032 0.12998429 0.22416663 -0.15114735 0.19548374 0.008454859 -0.2472058
0.11030367 -0.13618177 -0.19324416 0.2561424 -0.21717615 0.00262177 0.16498902 0.24336192
0.17468008 -0.09710215 -0.0893701 -0.10672253 -0.019983977 -0.11739226 0.25341216 0.084064454
0.13078493 -0.12223095 -0.19006073 0.091285795 0.16377956 -0.0888703 -0.0825392 0.014813691
0.09654668 0.22918594 0.24656007 0.15274352 -0.09034312 0.14376464 -0.2150269 0.19365889
0.19788152 -0.14192691 0.21552551 -0.066235304 0.18536142 0.013557136 -0.2565584 0.06522769
0.14831868 -0.23796403 -0.080201045 -0.14121908 -0.015831262 0.018363208 -0.108127385 0.22283569
-0.2152793 -0.23873568 0.22331214 0.18713337 0.13214052 -0.25622433 0.057982236 0.053856254
-0.2302988 -0.114010215 0.04687795 -0.002370596 -0.036679342 -0.2550316 0.010825723 -0.06984177
-0.046061546 0.20563376 -0.24718344 0.15504879 0.041541517 -0.15489037 -0.0869178 0.101961255
0.03980258 0.1704031 -0.13128252 -0.13264258 -0.09256123 0.061175466 0.102571964 -0.25541455

fc6.bias f4 [8]
00000000: 36a8 693e d6b3 01be 39d8 81be b042 51bc
00000010: e93d 3ebe 74dc c0bd 7898 b6bd 301c 423d
0.22818074 -0.12666258 -0.25360277 -0.012772247 -0.18578304 -0.09417048 -0.089158 0.047390163

fc7.weight f4 [4, 8]
00000000: e001 adbe b01d 283d 8006 b03b 7609 6f3e
00000010: f857 043d e468 033e 13b6 ac3e b01f 20bd
00000020: bb6b 8fbe c8dd 013e 6f75 aa3e 2833 a7bd
00000030: 40f3 26bd 6689 3f3e fff2 9b3e 01c2 9e3e
00000040: bf30 89be b93b aa3e 91eb 4abe 3870 553d
00000050: 4fdb 75be dac7 4a3e 15f9 6dbe c003 673d
00000060: a47b ac3d 4b57 a83e 6a33 4a3e d633 dfbd
00000070: 60f3 1abe 8802 39bd 687f 37bd 0089 ef3c
-0.33790493 0.041043937 0.0053718686 0.23343453 0.032310456 0.12832981 0.33732662 -0.03909272
-0.2801188 0.12682259 0.3329272 -0.08164054 -0.040759325 0.18704757 0.3045883 0.31007388
-0.26795003 0.3324869 -0.19816424 0.052108973 -0.24009441 0.198028 -0.23239549 0.05640006
0.0842202 0.328791 0.19746175 -0.10898559 -0.15131903 -0.04516843 -0.04479924 0.029240131

fc7.bias f4 [4]
00000000: 83a6 4abe 7426 a43d 806e 483c 0093 9f3c
-0.19790082 0.08015147 0.0122333765 0.019479275

fc8.weight f4 [30, 4]
00000000: d451 bd3e 0050 fdbe 36f1 903e 9081 923d
00000010: fe38 b9be f206 bc3e 06b2 b73e f63a e7be
00000020: e0a2 adbd d0e4 74bd 1ce2 4dbe 7216 93be
00000030: 76bd b53e 4c7b f53e c699 92be f433 9a3e
00000040: e040 963c 5ed9 95be 00a2 03bc a272 82be
00000050: a49d f73e 2cf0 85be 6090 febd 90db 4f3e
00000060: fc2d 43be a0f2 8e3d 1023 5ebd e461 17be
00000070: 00e0 bfbe 4aff 84be 6a66 fd3e 2820 bcbe
00000080: 60ea b5be 6870 bbbd a095 a53e 707d ec3d
00000090: 30fe 06be 58c9 8fbe d0df 0e3d 94ca dd3e
000000a0: 901f 373d ac72 143e bebd 873e 5036 d4bd
000000b0: 5417 763e 72cf 9abe 9459 963e 88f1 f83d
000000c0: 4cb0 1b3e 103d 3bbd f07a bfbd 4e16 f73e
000000d0: 4afc c23e baea 873e d0ab 543e 32a4 9a3e
000000e0: 183d 593e ee42 b43e 1829 78be a04f c6be
000000f0: 78d3 e2bd 40d6 e6bd ee73 e43e 6e18 953e
00000100: 2a2b 92be 38f2 b8bd 0014 773a 32ce e9be
00000110: e6d6 dfbe b416 7cbe 0097 a9bd 3a3d 823e
00000120: c049 b7bc e69a 983e c0bb 853e ce6f efbe
00000130: 72f0 8ebe 144e d03e ccb6 73be 5037 2dbd
00000140: c0e9 a9bd f038 6e3e 3a39 8d3e e0bf d2bc
00000150: 60b8 83be 58dc 9fbd 78de 8abe a8ec 273e
00000160: 00a9 90bc d005 7c3d 80e1 c23b bc5b 5fbe
00000170: 981a c0bd 945c f9be 3a1c 8c3e 3409 513e
00000180: 087e dd3d bc32 d53e 4671 debe b072 7abe
00000190: 20e0 47be 40a1 4c3d 786c f1be b0c8 4ebe
000001a0: 90f8 2dbe 0013 223c 7aa1 b5be 107d d53e
000001b0: ec8a 17be e469 e33e c4ef 463e 5445 4ebe
000001c0: 7e65 ecbe 50ab 553d aa49 a0be 90de 253d
000001d0: b886 e4bd 9eeb b4be 0c1d 94be c46a f93e
0.36976492 -0.49475098 0.2830903 0.07153618 -0.36176294 0.3672405 0.3587801 -0.4516217
-0.084783316 -0.059788525 -0.20105785 -0.28728062 0.3549611 0.4794563 -0.28632945 0.30117762
0.018341482 -0.292674 -0.008034229 -0.25478083 0.48362458 -0.261598 -0.12429881 0.202986
-0.1906051 0.06979871 -0.054232657 -0.14783436 -0.37475586 -0.2597602 0.49492198 -0.36743283
-0.35530376 -0.09152299 0.32340717 0.11547363 -0.13182902 -0.280833 0.034881413 0.43318617
0.044707835 0.14496869 0.2651195 -0.10361922 0.24032336 -0.30236393 0.29365218 0.121554434
0.1520397 -0.04571253 -0.0934962 0.48259205 0.38083106 0.2654627 0.20768666 0.30203396
0.21214712 0.35207313 -0.24234426 -0.38732624 -0.11075491 -0.11271334 0.44619697 0.291202
-0.28548557 -0.090305746 0.00094252825 -0.45665127 -0.43718642 -0.24618036 -0.08280754 0.25437337
-0.022374034 0.29805678 0.26119804 -0.46764988 -0.2791782 0.4068457 -0.238002 -0.04228908
-0.082965374 0.23263907 0.27582723 -0.025726259 -0.25726604 -0.07805699 -0.27122855 0.16398871
-0.01765871 0.06152898 0.005947292 -0.21812338 -0.09380072 -0.48703444 0.27365285 0.20413667
0.10815054 0.4164027 -0.43445796 -0.24457812 -0.1951909 0.049958467 -0.47153068 -0.20193744
-0.1698935 0.009892225 -0.3547476 0.41696978 -0.14799088 0.44416726 0.19427401 -0.20143634
-0.46171182 0.05216533 -0.313062 0.040495455 -0.11158508 -0.35336012 -0.2892841 0.48714268

fc8.bias f4 [30]
00000000: aa0c f83e 6c42 27be 7057 b5be 782a 9fbe
00000010: 8280 cc3e e0e2 f7bd 8045 d83b fc45 bc3e
00000020: ba74 af3e 3808 babd ee61 f03e 000e 1bbb
00000030: c0f0 17bc d050 cbbd 7c97 0d3e 78d4 e3be
00000040: f838 033e 680a bc3e 00a3 e5bb 6417 b1be
00000050: ba4d abbe 640f ef3e c04d d13d 5cca 833e
00000060: d457 0cbe 9cfb e93e da8c cfbe 32b1 b7be
00000070: 746a c53e 2e61 c13e
0.48447162 -0.16333932 -0.35418272 -0.3108709 0.39941794 -0.1210382 0.006600082 0.36772144
0.34268743 -0.09083599 0.46949714 -0.0023659468 -0.009273708 -0.09927523 0.13827318 -0.44498038
0.128147 0.3672669 -0.0070079565 -0.34588158 -0.33457738 0.4669143 0.10219908 0.25740325
-0.13705379 0.45699775 -0.4053715 -0.35877377 0.3855778 0.37769455
