30/checkpoint.pt (torch_old, 255208 bytes, 16 tensors)

fc1.weight f4 [180, 192]
1.3442435 1.5559897 1.8834628 1.160313 1.1994951 0.91713804 0.74628985 0.6777283
0.6378883 0.63713443 0.5223077 0.00992623 0.30034804 -0.20230387 0.36849198 0.21732719
0.18674055 0.10617951 -0.07067634 -0.096813485 0.48662636 0.63104343 0.22617143 0.22490674
0.2818261 0.031420015 0.022072326 0.1247304 0.49886772 0.21808574 0.24463356 0.07819545
-0.056461107 0.0098883305 -0.06972829 0.19637261 0.13870381 -0.0806868 -0.36280376 -0.40486017
-0.574862 -0.44438022 -0.30732277 -0.16077547 -0.21826585 -0.24159412 -0.46047375 -0.6155014
-0.6408169 -0.56339717 -0.32855222 -0.17298104 -0.2139897 -0.07728117 -0.4523005 -0.23693445
-0.45302162 -0.25620264 -0.13645935 -0.0056338413 -0.051780395 0.4813165 0.106498234 0.32439876
-0.02348659 0.2301123 -0.2566405 0.21891792 -0.13878937 0.099110395 0.21247774 0.38526732
0.47282675 0.50519365 0.1448456 0.16736832 -0.031281605 0.33255163 0.18216836 0.45429674
0.051168427 0.2988749 0.10845326 0.3488103 0.23929942 0.21384318 -0.012532646 0.0826247
-0.12577784 0.023788052 -0.056129158 0.06733745 -0.008499432 0.17624767 -0.20926811 0.08664825
0.06512507 0.30555457 0.043017216 -0.08664709 -0.24350595 -0.027922217 -0.23065734 -0.078362
-0.31299436 -0.38926402 -0.40843704 -0.36111847 -0.19483992 0.010039249 -0.39118668 -0.31824127
-0.53650224 -0.23109463 -0.34906232 -0.51171887 -0.52689624 -0.16708706 -0.32320845 -0.25241372
-0.5010202 -0.37353036 -0.41128972 -0.37116042 -0.3957845 -0.15085025 -0.2234312 -0.43001688
-0.16971497 -0.19519614 -0.032847967 0.07620906 0.118025765 0.20170121 0.3135975 0.18223831
0.38992578 0.18608423 0.37580732 0.25130373 -0.08442728 -0.046411555 0.02763264 0.22564897
0.1719599 0.113212846 -0.003969161 0.096492074 -0.117061704 -0.025458146 0.037099652 0.018803667
0.12838279 0.124778815 0.042319488 -0.03298602 -0.0028819197 0.03771027 -0.004828436 -0.035629462
-0.15409723 -0.0063880403 -0.27212104 -0.08595984 -0.2362312 -0.013797642 -0.17218131 0.09104949
-0.11463133 -0.1277806 -0.14751339 -0.03504682 0.041941427 -0.010489293 -0.17485459 0.0067779864
-0.07329842 0.119331926 0.009352926 0.054133862 -0.16256256 -0.0023239532 -0.13142212 -0.18434584
-0.28148022 0.01520206 -0.059862178 -0.14085118 -0.21814683 -0.2002735 -0.10058291 -0.10228925
0.17694825 0.8260971 0.72372955 0.41304222 0.4340135 0.38567534 0.07212634 0.1480776
0.030942323 0.09942132 0.14868402 -0.31641278 -0.047256395 -0.24084911 0.3569679 0.14605065
-0.3012766 -0.16404916 -0.0689156 -0.12643585 0.105507 0.37550485 -0.19186874 0.13773139
0.1817005 0.05861962 0.18127549 0.07823249 0.28272802 0.20285866 0.24548142 0.07575778
0.025901668 -0.017212795 -0.008983494 0.12026624 -0.053607337 -0.36817247 -0.37089097 -0.40567642
-0.5236599 -0.50261974 -0.28660926 -0.29647917 -0.23961002 -0.5510706 -0.5053178 -0.68550843
-0.49041623 -0.45772 -0.23450072 -0.34334874 -0.018803729 -0.33994317 -0.20443916 -0.16383594
-0.08389823 -0.14391665 0.27536848 0.29502338 0.39610818 0.47648528 0.54881483 0.31838727
00000000: 2c10 ac3f ac2a c73f 4f15 f13f 2385 943f
00000010: 0e89 993f 8fc9 6a3f da0c 3f3f 9a7f 2d3f
00000020: a64c 233f 3e1b 233f f5b5 053f a0a1 223c
00000030: 38c7 993e bf28 4fbe fbaa bc3e 058b 5e3e
00000040: ea38 3f3e a574 d93d c2be 90bd 2646 c6bd
00000050: 1727 f93e 108c 213f 7c99 673e f44d 663e
00000060: 834b 903e 46b2 003d 06d1 b43c a772 ff3d
00000070: 976b ff3e de51 5f3e 3881 7a3e f024 a03d
00000080: c343 67bd aa02 223c b5cd 8ebd e715 493e
00000090: 5f08 0e3e 1f3f a5bd 6ac1 b9be d549 cfbe
000000a0: 282a 13bf ce85 e3be 6959 9dbe 53a2 24be
000000b0: 1581 5fbe 7364 77be 37c3 ebbe 8091 1dbf
000000c0: 940c 24bf cc3a 10bf ff37 a8be f121 31be
000000d0: 1e20 5bbe 9745 9ebd ee93 e7be f29e 72be
000000e0: 73f2 e7be fe2c 83be 00bc 0bbe 169c b8bb
000000f0: ae17 54bd 1e6f f63e bf1b da3d 9817 a63e
00000100: f366 c0bc 8fa2 6b3e 6266 83be 052c 603e
00000110: cd1e 0ebe 64fa ca3d c493 593e c241 c53e
00000120: 5916 f23e 5f54 013f 6852 143e 9a62 2b3e
00000130: 2421 00bd 3544 aa3e 588a 3a3e 9599 e83e
00000140: fc95 513d 2206 993e be1c de3d 4397 b23e
00000150: e80a 753e b5f9 5a3e ba55 4dbc 2437 a93d
00000160: e8cb 00be 29df c23c b0e7 65bd 38e8 893d
00000170: 3441 0bbc 457a 343e 614a 56be a374 b13d
00000180: 4b60 853d a671 9c3e d232 303d 0874 b1bd
00000190: a059 79be 22bd e4bc 7031 6cbe 427c a0bd
000001a0: cc40 a0be 9d4d c7be a91e d1be 85e4 b8be
000001b0: 1e84 47be aa7b 243c 9f49 c8be 85f0 a2be
000001c0: 3658 09bf 12a4 6cbe 4cb8 b2be 0200 03bf
000001d0: ace2 06bf df18 2bbe 947b a5be 5f3c 81be
000001e0: dc42 00bf 5f3f bfbe 9194 d2be bd08 bebe
000001f0: 44a4 cabe 7d78 1abe 26cb 64be 2c2b dcbe
00000200: c3c9 2dbe 7fe1 47be 978b 06bd 7f13 9c3d
00000210: 7eb7 f13d c38a 4e3e da8f a03e ae9c 3a3e
00000220: 5aa4 c73e dd8c 3e3e d169 c03e e2aa 803e
00000230: 36e8 acbd 0b1a 3ebd d95d e23c 8610 673e
00000240: 4216 303e 23dc e73d bc0f 82bb a39d c53d
00000250: 0cbe efbd 9a8d d0bc cef5 173d 260a 9a3c
00000260: c776 033e 098c ff3d 3357 2d3d 591c 07bd
00000270: 97de 3cbb 1676 1a3d db37 9ebb 33f0 11bd
00000280: aacb 1dbe c452 d1bb 7353 8bbe b60b b0bd
00000290: 97e6 71be 810f 62bc 4c50 30be 2878 ba3d
000002a0: d5c3 eabd ebd8 02be c00d 17be 418d 0fbd
000002b0: c6ca 2b3d 49db 2bbc 150d 33be df19 de3b
000002c0: 7b1d 96bd 4c64 f43d 043d 193c 78bb 5d3d
000002d0: cd76 26be 774d 18bb 8593 06be 28c5 3cbe
000002e0: 2d1e 90be 1012 793c 0b32 75bd 4b3b 10be
000002f0: e261 5fbe 7f14 4dbe 6afe cdbd 077d d1bd
00000300: ec31 353e 197b 533f 5746 393f 457a d33e
00000310: 0437 de3e 3d77 c53e f9b6 933d a8a1 173e
00000320: c17a fd3c 689d cb3d a040 183e db00 a2be
00000330: ec8f 41bd 26a1 76be 7fc4 b63e 4d8e 153e
00000340: ed40 9abe 81fc 27be 9f23 8dbd 6678 01be
00000350: 0e14 d83d 2c42 c03e 3d79 44be 7509 0d3e
00000360: b20f 3a3e 201b 703d 48a0 393e 5b38 a03d
00000370: bac1 903e 2eba 4f3e 7b5f 7b3e e526 9b3d
00000380: bc2f d43c d901 8dbc 812f 13bc 254e f63d
00000390: 5e93 5bbd 1a81 bcbe 6ce5 bdbe d2b4 cfbe
000003a0: 930e 06bf b0ab 00bf 73be 92be 1ecc 97be
000003b0: 545c 75be f612 0dbf 825c 01bf 7b7d 2fbf
000003c0: d617 fbbe 475a eabe f520 70be 68cb afbe
000003d0: 470a 9abc 080d aebe 8058 51be 9cc4 27be
000003e0: d6d2 abbd e35e 13be 19fd 8c3e 4e0d 973e
000003f0: b1ce ca3e e1f5 f33e 217f 0c3f a803 a33e

fc1.bias f4 [180]
0.16794838 0.27432677 0.022629868 0.2479027 0.53193295 -0.2497986 0.105622016 0.13606994
-0.28859958 0.37195307 0.22717527 0.057953026 0.21268775 0.17152071 -0.23459457 -0.23629817
0.06742939 0.0120071275 -0.05479607 -0.16890845 0.15442128 -0.00017933163 0.42427447 0.07666879
-0.8751138 0.079802185 -0.021480614 -0.020053789 0.09798228 0.05417921 -0.025061084 -0.0581599
-0.12587054 -0.176676 -0.23493586 0.21347307 0.04094917 0.46844622 0.38284245 0.32460752
0.22532246 0.072755866 0.06711373 0.004129504 -0.17433466 -0.0053264275 0.24369031 -0.059401717
-0.16107982 0.15123866 -0.28413698 0.04312447 0.12817807 0.06469462 -0.44452155 -0.14027344
0.115161456 0.027337028 -0.024079116 0.007975743 0.107270755 -0.05570137 0.1135872 -0.30101532
-0.011619254 -0.022247074 0.15131335 -0.067393675 -1.5814351 -0.02713491 -0.18618381 -0.14062287
-1.1338098 -0.119282894 -0.025596688 0.034372635 -0.1520298 -0.025777744 0.35037947 0.16034427
-0.033018164 0.016910007 0.017856492 0.06633709 0.15312259 -0.021719744 0.29842633 0.09604229
0.1189128 0.036190342 -0.0042104144 -0.15010014 -0.009574785 -0.2087301 0.18748076 -0.012450277
-0.20013751 -0.014775922 0.019382184 0.16149156 0.08924309 0.15218633 0.07828642 0.17408924
-0.27088302 -0.039617043 -0.013897876 0.10859153 -0.20100243 0.55899596 0.020324778 0.04894017
-0.03389793 -0.09875401 0.14793234 -0.16724558 -0.29327753 0.05062369 0.37585315 -0.08332238
0.0012413313 -0.0042114696 -0.2715352 -0.14971949 -0.08600977 0.49902427 -0.20148408 -0.14131126
0.12914789 0.04992961 -0.11467197 -0.1142674 0.06348497 0.51336145 -0.018543173 -0.021598354
0.029753167 -0.045822576 -0.14887653 0.3145485 0.11859545 0.21558978 -0.40750584 -0.15984629
-0.012947466 0.04244514 -0.23181562 -0.13091484 -0.20711091 -0.0244245 -0.02228268 0.10194591
-0.34237343 0.039092463 0.27018186 0.41108802 0.1329579 0.18912327 0.03882766 -0.48583806
0.10515922 0.39594367 0.079584494 0.00038208166 0.23762588 -0.021817146 -0.1295485 -0.02229247
0.59600806 0.03337646 -0.025856495 -0.023505092 0.08807177 -0.047778927 0.276857 -0.08777346
0.42769432 -0.06751517 0.46447602 0.13291739
00000000: a9fa 2b3e 8f74 8c3e 4662 b93c 35da 7d3e
00000010: c22c 083f 34cb 7fbe 5b50 d83d eb55 0b3e
00000020: 53c3 93be a270 be3e a2a0 683e 2760 6d3d
00000030: d1ca 593e 20a3 2f3e 8f39 70be 26f8 71be
00000040: 6c18 8a3d 8bb9 443c d871 60bd 56f6 2cbe
00000050: 9d20 1e3e f80a 3cb9 813a d93e 8704 9d3d
00000060: 7507 60bf 546f a33d 1df8 afbc d847 a4bc
00000070: efaa c83d 05eb 5d3d e74c cdbc 1339 6ebd
00000080: 35e4 00be 8eea 34be 0793 70be af98 5a3e
00000090: 51ba 273d 2fd8 ef3e ed03 c43e f532 a63e
000000a0: eeba 663e 0701 953d ec72 893d ca50 873b
000000b0: c984 32be 5089 aebb f489 793e 374f 73bd
000000c0: 1cf2 24be 4fde 1a3e 677a 91be 49a3 303d
000000d0: 1d41 033e 9d7e 843d 5498 e3be d7a3 0fbe
000000e0: c5d9 eb3d e7f1 df3c 9141 c5bc b1ac 023c
000000f0: c5b0 db3d 1f27 64bd 68a0 e83d ae1e 9abe
00000100: af5e 3ebc 7f3f b6bc e3f1 1a3e b205 8abd
00000110: 776c cabf 084a debc f8a6 3ebe 71ff 0fbe
00000120: ae20 91bf 974a f4bd 25b0 d1bc 52ca 0c3d
00000130: b3ad 1bbe d92b d3bc f064 b33e 4a31 243e
00000140: 0e3e 07bd db86 8a3c c747 923c bedb 873d
00000150: 2bcc 1c3e 9bed b1bc 56cb 983e d2b1 c43d
00000160: 8e88 f33d 533c 143d 84f7 89bb dab3 19be
00000170: 8fdf 1cbc 58bd 55be f5fa 3f3e 3ffc 4bbc
00000180: d9f0 4cbe b516 72bc 63c7 9e3c 0b5e 253e
00000190: 15c5 b63d bcd6 1b3e a154 a03d 7344 323e
000001a0: 2eb1 8abe 7b45 22bd ebb3 63bc 3c65 de3d
000001b0: 95d3 4dbe 5c1a 0f3f 2680 a63c 7d75 483d
000001c0: 8ed8 0abd 8b3f cabd 937b 173e 6d42 2bbe
000001d0: 7928 96be c95a 4f3d d36f c03e eda4 aabd
000001e0: 2bb4 a23a 5e00 8abb a906 8bbe 1150 19be
000001f0: e425 b0bd 1c80 ff3e d851 4ebe e6b3 10be
00000200: 583f 043e fe82 4c3d 23d9 eabd 0705 eabd
00000210: 6804 823d a86b 033f dae7 97bc 08ef b0bc
00000220: eabc f33c 74b0 3bbd 1773 18be 800c a13e
00000230: 2ce2 f23d 91c3 5c3e 9ba4 d0be bfae 23be
00000240: 9c21 54bc f5da 2d3d 1361 6dbe 8a0e 06be
00000250: e214 54be e415 c8bc 2b8a b6bc 04c9 d03d
00000260: 924b afbe 6b1f 203d 4755 8a3e 217a d23e
00000270: 1e26 083e 88a9 413e c109 1f3d c4bf f8be
00000280: b85d d73d 21b9 ca3e 32fd a23d 2252 c839
00000290: 3354 733e dfb9 b2bc 5da8 04be b39e b6bc
000002a0: fc93 183f c1b5 083d 00d1 d3bc c08d c0bc
000002b0: f95e b43d d6b3 43bd 33c0 8d3e 92c2 b3bd
000002c0: c0fa da3e 6545 8abd cdcf ed3e 7f1b 083e

fc2.weight f4 [110, 180]
-0.083571196 -0.29673275 -0.25010934 0.08506051 0.32500604 -0.14982629 0.6161744 0.04711878
-0.37627396 -0.015472166 -0.22583045 0.028974725 0.32592338 0.04176521 -0.10044212 -0.0345895
0.053982265 0.61055356 -0.041750114 -0.14072472 -0.053382263 0.107067935 0.1815715 -0.28383973
0.05051988 0.1108604 -0.3016113 0.038171038 -0.12724732 -0.05445596 0.13630368 -0.20887806
-0.39318562 0.042127185 0.091871776 0.2345204 0.18559526 -0.21292698 -0.24359567 0.058801807
-0.41539198 0.11616452 -0.29988387 -0.06847369 -0.10728264 0.04430206 0.010216258 -0.0822928
0.47365615 -0.11782506 -0.42486063 0.16441992 0.18120687 -0.34419647 -0.24719329 -0.042787183
0.51889056 -0.12334398 -0.3484884 0.13944747 0.24318415 -0.44305325 -0.171335 0.778798
0.11005961 -0.05595259 0.29530832 -0.32994422 -0.46430224 -0.46171343 -0.086868964 -0.18524949
-0.3126543 -0.10343043 0.27698448 0.5682725 0.4166414 0.3178453 0.32287958 0.04171155
0.30169332 0.030999236 0.08641125 0.2929782 0.27464417 -0.03533617 -0.060640704 -0.121308394
0.011275611 -0.26468873 -0.09269487 -0.10446503 0.14458455 0.04867686 0.14226641 0.3429056
0.063503094 0.4325611 0.33911055 0.008673497 0.31604853 -0.49946705 0.28525692 0.10469663
-0.07196019 0.16621765 -0.0037148795 -0.12226085 -0.34042224 0.047282793 0.19578141 -0.15471055
-0.15011209 -0.5582659 0.154723 -0.38067764 -0.10719979 -0.093143806 -0.25870737 -0.1577719
0.31801626 -0.08677867 -0.3512377 0.15701151 -0.106180266 -0.39775082 0.01169727 0.07582295
0.06901726 0.05940613 -0.19364381 -0.11378743 0.16494745 0.094607346 0.23100215 0.44143033
-0.04340199 0.08982985 -0.12588307 -0.028917085 -0.21229266 -0.4236433 0.05704054 0.09030983
0.09505261 0.3322551 -0.19071014 -0.1442806 -0.09809028 0.47701824 0.11162666 0.8195982
-0.08018095 0.85824275 -0.07457521 -0.021089427 -0.48528844 -0.013900929 0.033650782 -0.3602826
0.14171937 -0.18005218 0.10388128 0.013688028 0.17101328 0.18704253 0.09948535 0.20635653
0.03303122 -0.06832595 0.3096013 0.39016926 0.21182488 -0.2654986 -0.5318839 -0.35093185
0.062022485 0.4063039 -0.21848577 0.23442766 -0.29936635 0.058133848 -0.15053901 0.3097924
0.24968743 -0.021650082 -0.16094293 0.29187694 0.0917412 0.096566714 -0.19571802 -0.14642909
-0.3605893 0.066937715 -0.10080936 0.09435869 0.09050516 0.3837568 0.14855139 0.3093715
0.05085357 -0.02371624 -0.6140571 -1.41197 -0.04578596 0.17020902 0.19796057 -0.00062237587
-0.20333578 0.036208108 0.24807319 -0.011079069 0.30392265 -0.46513435 -0.23133837 -0.789031
0.17693965 -0.9325869 0.06671616 0.11196754 0.11261216 -0.05829544 0.14287132 -0.027804544
0.075267375 0.30687988 -0.1525834 -0.21193637 -0.34395555 0.17620097 -0.016441926 -0.0414131
-0.15498869 0.7459561 0.3646944 -0.28778118 -0.10591511 -0.033916704 -0.026311072 0.10083629
0.08119893 0.2551008 0.114935376 0.25649774 0.19767503 -0.2651721 -0.95287824 0.10832034
-0.3461324 -0.19757563 0.098861836 0.024953224 -0.26521277 0.2869023 0.2054998 0.058124617
00000000: 6027 abbd 5bed 97be 550e 80be 3434 ae3d
00000010: 3167 a63e 106c 19be 9bbd 1d3f 9fff 403d
00000020: fba6 c0be f87e 7dbc 1940 67be 675c ed3c
00000030: 6edf a63e ff11 2b3d 99b4 cdbd b8ad 0dbd
00000040: 821c 5d3d 3d4d 1c3f 2b02 2bbd 241a 10be
00000050: 5ca7 5abd 6f46 db3d e1ed 393e 7153 91be
00000060: efed 4e3d c70a e33d cc6c 9abe 3c59 1c3d
00000070: 1f4d 02be 360d 5fbd 3193 0b3e 21e4 55be
00000080: a04f c9be 8e8d 2c3d 4527 bc3d 1e26 703e
00000090: af0c 3e3e 8809 5abe 2571 79be 2ada 703d
000000a0: 42ae d4be aae7 ed3d 618a 99be ef3b 8cbd
000000b0: 00b7 dbbd 1476 353d 1762 273c 2189 a8bd
000000c0: 0f83 f23e 444e f1bd 5587 d9be b25d 283e
000000d0: 4b8e 393e 853a b0be 3d20 7dbe 9d41 2fbd
000000e0: 03d6 043f c59b fcbd 126d b2be 51cb 0e3e
000000f0: 4405 793e e0d7 e2be 7172 2fbe 4e5f 473f
00000100: ef66 e13d 8b2e 65bd a732 973e 73ee a8be
00000110: 06b9 edbe b465 ecbe 5be8 b1bd 0bb2 3dbe
00000120: 3914 a0be 55d3 d3bd e9d0 8d3e 4e7a 113f
00000130: 0652 d53e 9fbc a23e 7950 a53e bbd9 2a3d
00000140: 8c77 9a3e 1cf2 fd3c 62f8 b03d 3d01 963e
00000150: 299e 8c3e a9bc 10bd 6362 78bd 8970 f8bd
00000160: 57bd 383c 4885 87be cfd6 bdbd c3f1 d5bd
00000170: f90d 143e 6361 473d 49ae 113e 5391 af3e
00000180: e90d 823d a678 dd3e e69f ad3e 481b 0e3c
00000190: 1dd1 a13e 25ba ffbe 320d 923e 306b d63d
000001a0: dd5f 93bd f634 2a3e 5675 73bb e663 fabd
000001b0: d34b aebe 9aab 413d ec7a 483e 716c 1ebe
000001c0: fcb6 19be 84ea 0ebf b56f 1e3e 2ee8 c2be
000001d0: 908b dbbd 2ec2 bebd 4b75 84be f58e 21be
000001e0: 07d3 a23e 04b9 b1bd 6ed5 b3be a0c7 203e
000001f0: 0a75 d9bd ffa5 cbbe e8a5 3f3c 1049 9b3d
00000200: ec58 8d3d d853 733d 904a 46be 6209 e9bd
00000210: fce7 283e 7fc1 c13d d48b 6c3e 2803 e23e
00000220: 49c6 31bd b6f8 b73d 7ee7 00be 86e3 ecbc
00000230: 3f63 59be c6e7 d8be 57a3 693d 5cf4 b83d
00000240: f1aa c23d 571d aa3e 8549 43be 4bbe 13be
00000250: 8fe3 c8bd bc3b f43e 859c e43d 30d1 513f
00000260: e935 a4bd ccb5 5b3f e3ba 98bd bcc3 acbc
00000270: ba77 f8be b9c0 63bc 67d5 093d f676 b8be
00000280: e21e 113e 995f 38be b5bf d43d c043 603c
00000290: 1b1e 2f3e 1488 3f3e fabe cb3d 204f 533e
000002a0: bf4b 073d 7aee 8bbd 1084 9e3e 44c4 c73e
000002b0: 9fe8 583e 6fef 87be 8b29 08bf 57ad b3be
000002c0: 4a0b 7e3d 1107 d03e bcba 5fbe ce0d 703e
000002d0: 8c46 99be c21d 6e3d e626 1abe 1c9d 9e3e
000002e0: 10ae 7f3e 835b b1bc 39ce 24be e570 953e
000002f0: cfe2 bb3d c5c4 c53d 4e6a 48be 82f1 15be
00000300: 299f b8be a416 893d 2375 cebd 213f c13d
00000310: c55a b93d c57b c43e db1d 183e f165 9e3e
00000320: d54b 503d 8f48 c2bc d932 1dbf 6fbb b4bf
00000330: 0f8a 3bbd 464b 2e3e 2db6 4a3e f026 23ba
00000340: 4137 50be f44e 143d e606 7e3e fc84 35bc
00000350: c09b 9b3e 1726 eebe f7e3 6cbe f0fd 49bf
00000360: ab2f 353e 04be 6ebf 7ba2 883d 3d4f e53d
00000370: 34a1 e63d 33c7 6ebd dc4c 123e 5bc6 e3bc
00000380: c825 9a3d 5c1f 9d3e d33e 1cbe d905 59be
00000390: f11a b0be 076e 343e 38b1 86bc c8a0 29bd
000003a0: 5bb5 1ebe fbf6 3e3f 39b9 ba3e 0e58 93be
000003b0: 05ea d8bd 3eec 0abd 518a d7bc 4283 ce3d
000003c0: a04b a63d 929c 823e 3d63 eb3d ac53 833e
000003d0: 536b 4a3e a3c4 87be d4ef 73bf 0ed7 dd3d
000003e0: 4438 b1be 4451 4abe 1378 ca3d b46a cc3c
000003f0: f8c9 87be dce4 923e 8a6e 523e 1414 6e3d

fc2.bias f4 [110]
-0.40278873 0.11685908 0.20806596 0.13427569 -0.03678759 -0.2666507 -0.021381512 0.02893039
0.11747185 0.097027 -0.67273414 0.0127287 -0.5648617 -0.29425618 0.015407109 0.07095415
-0.4007545 -0.053197403 -0.24715324 0.024834648 0.026178597 -0.4410722 -0.41634616 0.18392655
-0.45595694 -0.27511826 -0.2465147 -0.2848448 -0.16666743 -0.1459079 0.14748183 0.10406742
-0.025478285 -0.073192656 -0.08670732 -0.037381448 0.2945613 0.018797493 -0.13505033 0.06959318
0.15294865 -0.23648934 0.07300291 -0.24556652 -0.63594586 -0.037626557 -0.21260118 0.059952836
-0.28107533 -0.09716386 -0.016133944 0.010079519 -0.21350867 -0.14028624 -0.32535776 0.085696295
-0.3536306 -0.89954793 -0.30720145 0.043230355 -0.36333048 -0.06921338 -0.39847517 0.05605161
0.013009512 0.1522231 -0.19055578 0.32165796 0.020895887 -0.29492718 -0.6185438 -0.1595321
0.15230685 0.13846909 -0.37414584 0.2021307 -0.41055253 -0.33423162 0.08753869 -0.48800156
0.082666166 -0.24818102 0.01273605 -0.3885608 0.21844679 -0.11486618 -0.36801827 0.06192646
-0.4462843 -0.15991737 0.07972317 -0.41819614 -0.15513583 -0.10756281 0.20693901 -0.5645236
0.1267346 -0.19400027 0.09093832 -0.21288355 0.09419118 -0.39516628 0.24120279 -0.48170793
-0.1834296 -0.64263743 0.08998428 -0.5400797 -0.07810529 0.0633605
00000000: 533a cebe d053 ef3d 3e0f 553e 917f 093e
00000010: 95ae 16bd 7186 88be 4828 afbc 6dff ec3c
00000020: 1595 f03d 17b6 c63d 4e38 2cbf 0a8c 503c
00000030: c79a 10bf bfa8 96be 196e 7c3c 6950 913d
00000040: b22f cdbe 85e5 59bd bd15 7dbe 0872 cb3c
00000050: 7f74 d63c 37d4 e1be 532b d5be 3e57 3c3e
00000060: 3073 e9be 4ddc 8cbe 596e 7cbe 2dd7 91be
00000070: deaa 2abe e168 15be 7a05 173e 4d21 d53d
00000080: d6b7 d0bc 08e6 95bd 9b93 b1bd 4a1d 19bd
00000090: bdd0 963e 33fd 993c a24a 0abe df86 8e3d
000000a0: 929e 1c3e 432a 72be 8d82 953d ca75 7bbe
000000b0: 59cd 22bf 4e1e 1abd 20b4 59be 1b91 753d
000000c0: 1be9 8fbe d9fd c6bd 552b 84bc 9124 253c
000000d0: 04a2 5abe 32a7 0fbe 4b95 a6be 8a81 af3d
000000e0: 120f b5be c648 66bf 8249 9dbe 5012 313d
000000f0: 7406 babe bfbf 8dbd f004 ccbe 5f96 653d
00000100: d925 553c 5fe0 1b3e 0e21 43be 5ab0 a43e
00000110: da2d ab3c b200 97be e358 1ebf 625c 23be
00000120: 54f6 1b3e d7ca 0d3e 0b90 bfbe 5afb 4e3e
00000130: f133 d2be 6820 abbe 7c47 b33d 57db f9be
00000140: e14c a93d 2a23 7ebe deaa 503c 71f1 c6be
00000150: 84b0 5f3e f63e ebbd e46c bcbe 9aa6 7d3d
00000160: 607f e4be 61c1 23be e745 a33d ce1d d6be
00000170: eddb 1ebe e449 dcbd d2e7 533e 9e84 10bf
00000180: b7c6 013e 02a8 46be df3d ba3d 25fe 59be
00000190: 4ee7 c03d 3c53 cabe ddfd 763e 6ca2 f6be
000001a0: f8d4 3bbe e383 24bf ae49 b83d aa42 0abf
000001b0: abf5 9fbd 26c3 813d

fc3.weight f4 [55, 110]
0.010379942 -0.06102778 -0.005608421 -0.100191966 0.05281286 0.10123333 -0.056889202 0.0033467019
-0.05681153 0.03658156 -0.3304587 0.17516929 -0.083952464 -0.09227765 -0.033040993 -0.041166574
-0.1280624 0.11561786 -0.22514287 0.41329044 -0.016548745 -0.08832584 -0.12628052 0.009516116
-0.16605584 -0.04565099 -0.01823864 -0.079792745 0.12540178 0.15074979 0.09979239 -0.008649991
-0.96208405 -0.14671263 -0.07607774 -0.08153076 0.011261451 0.0042432677 -0.03885372 0.037663203
-0.023090025 -0.057886932 -0.101078935 0.20471524 0.024209162 -0.014582872 0.19066 0.040154647
-0.02147493 0.19223638 -0.18111694 -0.03422565 -0.12819535 -0.09567084 0.0046064206 0.016232768
-0.05094712 0.05221702 -0.054413505 -0.03792488 -0.002923778 -0.06383052 -0.26718673 -0.42328623
-0.07583214 0.13150585 0.10721374 -0.004536274 -0.470078 -0.10065091 -0.050232448 -0.07302085
-0.0100055635 0.0037919565 -0.15581861 0.03129223 0.038773593 0.16927102 -0.06369508 0.47840163
-0.062657714 0.23719215 -0.012657827 -0.14852954 -0.39004835 0.12428178 0.26057678 6.64861e-05
-0.15530676 -0.85944366 -0.017797146 -0.43120506 -0.18227974 -0.15727673 -0.15204148 -0.6128307
-0.009737379 0.17731571 0.13660616 -0.20875901 0.2868215 -0.26218647 -0.0684721 0.080537096
0.002532353 -0.25730923 -0.030723678 0.2073154 -0.09947782 -0.042627484 -0.030796973 -0.02723747
-0.47049803 -0.42584693 -0.023518085 -0.10866073 -0.024386387 0.8842999 0.015151948 -0.8700197
-0.022618812 0.16316885 -0.08851886 -0.40606555 0.014249583 0.031392265 0.02485283 -0.028686667
-0.20839216 0.033893794 0.11014037 -0.03435275 0.0024875142 -0.50294864 -0.2605643 0.08032511
0.10977734 -0.039811168 0.050646506 0.020528158 0.16009563 0.019241255 -0.52126884 -0.09019603
0.04609791 -0.1328744 -0.20849402 -0.017412983 -1.1180624 -0.5893061 -0.054802258 -0.086147256
-0.80404043 0.12302272 -0.11626412 -0.073422916 0.3002109 0.7410633 -0.008771573 -0.29545677
0.01306794 0.0045357747 -0.011850497 -0.06155758 -0.5782374 -0.723754 -0.11096337 -0.13826153
0.0114298025 0.0020303742 -0.028028542 0.18959703 0.058298547 0.06498991 0.1735787 -0.015519914
0.0067403656 -0.5410293 0.017541956 0.026587576 -1.112061 0.39401582 -0.045624804 -0.061555937
0.00203368 -0.8580328 -0.71746796 0.7722027 -0.3837888 -0.1553515 0.07170231 0.18724592
-0.010176891 -0.050604574 -0.7964627 -0.06423661 0.49314764 0.033945378 -0.05624341 -0.3238309
0.011740181 -0.76195157 0.03157387 0.118967995 -0.3352435 -0.07630607 -0.0048415763 0.16067599
-0.19990325 -0.051516358 0.06645075 -0.5153546 -0.9428993 -0.14946966 -0.34668267 -0.11292376
0.030031726 -0.2567704 -0.41193724 -0.40138182 0.006362064 -0.07985897 -0.17023757 -0.21239783
0.033926565 0.0125619555 -0.034470797 1.0407377 -0.16554323 0.058230795 0.071134746 0.2720757
0.022172125 0.010257703 -0.0069587617 -0.0336788 -0.35089093 -0.3836131 -0.61052215 0.08770319
-0.18387237 0.0014482497 0.045520645 -0.43151537 -0.53759545 -0.10198987 -0.03202966 -0.1255922
-0.22421403 -0.067978606 -0.6930566 -0.037061848 -0.07246053 -0.69573677 -0.038924 -0.35359964
00000000: a210 2a3c 44f8 79bd d8c6 b7bb 7231 cdbd
00000010: 4c52 583d 6c53 cf3d a704 69bd 5754 5b3b
00000020: 35b3 68bd 8cd6 153d e231 a9be 945f 333e
00000030: 45ef abbd 11fc bcbd fe55 07bd 489e 28bd
00000040: ca22 03be 0ec9 ec3d da8b 66be ce9a d33e
00000050: 3c91 87bc 2ee4 b4bd ae4f 01be 7ce9 1b3c
00000060: 8b0a 2abe 88fc 3abd 3369 95bc 616a a3bd
00000070: 5369 003e 275e 1a3e f45f cc3d b1b8 0dbc
00000080: 244b 76bf d63b 16be a5ce 9bbd 99f9 a6bd
00000090: f381 383c 1c0b 8b3b 1425 1fbd bb44 1a3d
000000a0: 4b27 bdbc d91a 6dbd 7902 cfbd dfa0 513e
000000b0: 4b52 c63c 00ed 6ebc 603c 433e 3379 243d
000000c0: 31ec afbc 9dd9 443e b876 39be 3230 0cbd
000000d0: a445 03be 13ef c3bd 75f1 963b 95fa 843c
000000e0: edad 50bd 84e1 553d b2e0 5ebd 1e57 1bbd
000000f0: db9c 3fbb 93b9 82bd b3cc 88be f9b8 d8be
00000100: e24d 9bbd 78a9 063e e192 db3d 06a5 94bb
00000110: 10ae f0be 1022 cebd 8ac0 4dbd f58b 95bd
00000120: 60ee 23bc 7982 783b ea8e 1fbe 482c 003d
00000130: 0fd1 1e3d 6255 2d3e 9172 82bd 0ff1 f43e
00000140: b052 80bd 80e2 723e c662 4fbc 2118 18be
00000150: 6bb4 c7be 7287 fe3d 526a 853e 746e 8b38
00000160: bc08 1fbe 8004 5cbf 52cb 91bc e9c6 dcbe
00000170: 8aa7 3abe 270d 21be c3b0 1bbe 79e2 1cbf
00000180: 8789 1fbc 4092 353e 7ce2 0b3e ecc4 55be
00000190: 45da 923e 4e3d 86be 1a3b 8cbd a2f0 a43d
000001a0: d5f5 253b 09be 83be 39b0 fbbc 7d4a 543e
000001b0: 07bb cbbd 289a 2ebd ef49 fcbc 1d21 dfbc
000001c0: 1ee5 f0be 9c08 dabe 00a9 c0bc 8489 debd
000001d0: f6c5 c7bc 7a61 623f e03f 783c 9cb9 5ebf
000001e0: 164b b9bc bc15 273e 6049 b5bd d3e7 cfbe
000001f0: 1577 693c 2d95 003d 2a98 cb3c 4d00 ebbc
00000200: c164 55be 38d4 0a3d 4691 e13d 78b5 0cbd
00000210: 9005 233b 3ec1 00bf af68 85be 7e81 a43d
00000220: f1d2 e03d 0911 23bd b672 4f3d ab2a a83c
00000230: 1cf0 233e d69f 9d3c e071 05bf b2b8 b8bd
00000240: 29d1 3c3d 3a10 08be 757f 55be aca5 8ebc
00000250: ab1c 8fbf c4dc 16bf 5578 60bd f96d b0bd
00000260: 98d5 4dbf 56f3 fb3d e21b eebd c15e 96bd
00000270: 3eb5 993e 53b6 3d3f a5b6 0fbc 1c46 97be
00000280: ea1a 563c d6a0 943b 9628 42bc cd23 7cbd
00000290: 5e07 14bf f147 39bf c340 e3bd 6e94 0dbe
000002a0: 1144 3b3c 0710 053b 1d9c e5bc b925 423e
000002b0: 75ca 6e3d 6e19 853d 9dbe 313e 3d47 7ebc
000002c0: 49de dc3b e580 0abf 26b4 8f3c 30ce d93c
000002d0: 0458 8ebf 71bc c93e 13e1 3abd 1422 7cbd
000002e0: 7d47 053b 0aa8 5bbf fbab 37bf 13af 453f
000002f0: f77f c4be 7714 1fbe a9d8 923d 65bd 3f3e
00000300: fabc 26bc be46 4fbd fbe4 4bbf 7c8e 83bd
00000310: d97d fc3e 4f0a 0b3d 7d5f 66bd 2acd a5be
00000320: e359 403c 420f 43bf 9a53 013d 7ea5 f33d
00000330: 09a5 abbe 5b46 9cbd 16a6 9ebb 3f88 243e
00000340: 70b3 4cbe d102 53bd 5517 883d 47ee 03bf
00000350: d961 71bf 930e 19be 6480 b1be 9344 e7bd
00000360: 1805 f63c 6977 83be 70e9 d2be eb81 cdbe
00000370: dc78 d03b 1a8d a3bd c252 2ebe d17e 59be
00000380: 95f6 0a3d a9d0 4d3c 4031 0dbd e536 853f
00000390: 2a84 29be 6a83 6e3d 18af 913d 824d 8b3e
000003a0: 51a2 b53c ed0f 283c 5306 e4bb c8f2 09bd
000003b0: faa7 b3be f068 c4be 2e4b 1cbf bb9d b33d
000003c0: 0a49 3cbe 32d3 bd3a db73 3a3d 95ef dcbe
000003d0: db9f 09bf 11e0 d0bd 8831 03bd 3e9b 00be
000003e0: 5d98 65be 5e38 8bbd 286c 31bf 2ace 17bd
000003f0: 3066 94bd ce1b 32bf c66e 1fbd 030b b5be

fc3.bias f4 [55]
0.25976172 -0.20700559 0.33757424 0.3050692 -0.24503516 0.22965461 0.25960407 0.16736136
0.27161252 0.22579356 0.41613013 -0.21999449 0.21670915 0.3662282 -0.2085336 0.256296
0.26468855 0.21881652 -0.21190903 0.2715772 -0.30797222 0.2520483 0.25718424 0.21752994
0.22451481 0.25669333 0.35630068 -0.25347096 0.30380243 -0.40048483 0.2505869 -0.22385044
-0.29169872 0.29208165 0.22833711 -0.36886093 0.1537382 0.25198805 0.21701115 0.26831418
0.28156322 -0.3790924 0.22842808 0.32280254 -0.26346177 -0.33548528 0.26094472 0.17977807
0.25026658 0.15593536 0.12581202 0.22314258 0.39524215 0.23192593 0.17518371
00000000: 7dff 843e 46f9 53be 88d6 ac3e 0832 9c3e
00000010: 7fea 7abe 942a 6b3e d3ea 843e c760 2b3e
00000020: cc10 8b3e 6d36 673e 020f d53e 3c46 61be
00000030: 01e9 5d3e 4382 bb3e d589 55be 3b39 833e
00000040: 4285 873e 7011 603e aefe 58be 2b0c 8b3e
00000050: 89ae 9dbe 7a0c 813e a7ad 833e 2bc0 5e3e
00000060: 36e7 653e 4f6d 833e 0b6d b63e f2c6 81be
00000070: fe8b 9b3e 590c cdbe ed4c 803e 0d39 65be
00000080: 8959 95be ba8b 953e 34d1 693e 57db bcbe
00000090: 8c6d 1d3e 9404 813e 2c38 5e3e 7a60 893e
000000a0: 0e29 903e 6618 c2be 0de9 693e 6046 a53e
000000b0: 76e4 86be bac4 abbe 8c9a 853e be17 383e
000000c0: f122 803e 85ad 1f3e ded4 003e 7d7f 643e
000000d0: 2e5d ca3e fe7d 6d3e 5c63 333e

fc4.weight f4 [30, 55]
-0.023973236 0.16016504 -0.004447083 -0.008471716 0.010975373 -0.096559264 -0.10585435 -0.06944463
-0.017816005 0.03971024 -0.009579802 0.050472844 0.020339007 -0.038511664 0.15018499 -0.008210237
-0.050101884 0.038992077 0.12464348 0.017207505 0.110822074 -0.11143906 0.081160866 0.07987943
-0.041354384 -0.019524777 -0.02083859 0.44247952 -0.10726227 0.2588096 -0.001014826 0.10888864
-0.5379555 0.0233772 0.057377923 -0.41654283 -0.013995393 0.009227645 0.009484976 0.030876135
0.12981984 -0.5067383 -0.11829143 -0.0028018623 -0.32813755 0.14324991 -0.060632415 0.1649307
-0.011084846 0.018246321 0.085830644 0.04096593 -0.009415043 0.041662283 -0.02717095 0.15737045
-0.052774303 -0.010929207 0.041661143 -0.1090789 0.18865716 0.030086232 -0.11260447 -0.013536698
-0.00029734732 -0.0071066665 -0.050018724 0.015845384 0.03530284 -0.1545103 0.019860204 0.08966661
0.015818328 -0.07559129 0.012392799 0.3778419 -0.038143344 0.046951335 -0.07830484 0.03451742
0.011006005 0.040993657 0.46691427 0.082149595 -0.106772415 0.009836323 -0.0030401384 -0.25125605
0.049673293 -0.076399736 -0.17150886 -0.031895585 -0.091367 -0.07480311 -0.19270341 0.08359608
0.06836258 0.016311835 -0.02682917 0.13678421 -0.12298507 -0.052195765 -0.09108029 -0.0011029617
-0.0035495013 -0.022271257 0.071548976 -0.00935293 0.034237105 0.12574275 0.051203553 0.04416496
0.0036774797 0.037093047 0.053843908 -0.2103576 -0.1340371 0.06221423 0.111273006 -0.0389043
-0.011839935 -0.11163021 0.0030144681 -0.025051301 0.027440857 -0.013578998 -0.0006027893 0.06271121
0.11707909 0.046263188 -0.3716936 -0.023446366 -0.076261975 0.031540237 0.029767606 0.02007882
-0.05558962 -0.39634696 0.10819908 0.09810057 -0.038662177 -0.039331436 0.06332205 -0.0050298073
-0.02707985 -0.12377161 0.11614895 0.024847623 0.03050973 -0.08417442 0.16160642 0.260047
-0.055983048 0.007110329 0.024552632 0.23721841 0.0012468931 -0.0338572 -0.012179811 -0.03270033
-0.1625579 0.059935 -0.014562521 0.03906889 0.10754056 -0.052118964 -0.04369295 0.011762473
-0.047657803 0.48996234 0.18504222 -0.039167717 0.07446088 0.07976912 -0.094192125 0.010039797
-0.40147403 0.02161499 -0.028634734 -0.25527835 0.047128495 0.007864689 -0.06865737 -0.1572212
-0.0041553658 -0.201182 -0.025873832 -0.013933969 -0.021771124 -0.013352561 -0.008052484 0.0007144683
-0.16902693 -0.07952715 0.24007519 -0.0025879026 -0.20007433 -0.03924367 0.087694034 0.19919185
0.13841349 -0.07661649 -0.08866992 0.0038384714 -0.0349641 -0.004060502 0.3116714 -0.04794418
-0.0045752795 -0.12412371 0.25553882 0.03511405 0.06673532 0.00816164 0.017648784 0.11324961
0.043935806 0.0051670307 -0.006531918 0.04037114 -0.038190287 0.027902214 0.006874948 -0.08943291
-0.2935322 0.1342598 -0.081945986 0.025645271 -0.120266914 -0.008672912 0.0014291179 0.28069347
0.024132846 -0.008901991 -0.07347726 -0.10925035 0.08996731 -0.011838109 0.004371928 -0.00991942
-0.20019203 0.06432517 0.0027190584 0.058640167 -0.006502449 0.023856314 -0.021812271 -0.3877412
-0.023116581 -0.24786617 0.019927138 0.022885263 0.13226637 -0.0010975999 -0.0076984353 0.065022714
00000000: 8563 c4bc 4e02 243e d6b8 91bb f4cc 0abc
00000010: 0dd2 333c ddc0 c5bd 2aca d8bd fc38 8ebd
00000020: dff2 91bc 34a7 223d 9af4 1cbc 9dbc 4e3d
00000030: fd9d a63c 68be 1dbd 18ca 193e 3b84 06bc
00000040: a237 4dbd 28b6 1f3d 1545 ff3d c1f6 8c3c
00000050: aff6 e23d 293a e4bd ab37 a63d d497 a33d
00000060: 3763 29bd 6df2 9fbc b1b5 aabc ad8c e23e
00000070: 52ac dbbd b182 843e e903 85ba 0201 df3d
00000080: 74b7 09bf 8b81 bf3c 1d05 6b3d 1a45 d5be
00000090: ef4c 65bc 8c2f 173c df66 1b3c f3ef fc3c
000000a0: 7eef 043e 9ab9 01bf c742 f2bd 739f 37bb
000000b0: a501 a8be 1bb0 123e b259 78bd 98e3 283e
000000c0: 379d 35bc 4f79 953c fac7 af3d e4cb 273d
000000d0: 8d41 1abc 12a6 2a3d 9d95 debc b825 213e
000000e0: de29 58bd 6b10 33bc e0a4 2a3d c264 dfbd
000000f0: 582f 413e 6777 f63c 2c9d e6bd 07c9 5dbc
00000100: 48e5 9bb9 0adf e8bb 6fe0 4cbd 2ece 813c
00000110: b699 103d f337 1ebe deb1 a23c 21a3 b73d
00000120: 7095 813c 9bcf 9abd 2b0b 4b3c 7e74 c13e
00000130: 323c 1cbd 0b50 403d 4a5e a0bd 2362 0d3d
00000140: 8852 343c f7e8 273d 630f ef3e 0c3e a83d
00000150: 7fab dabd 8728 213c 0f3d 47bb a2a4 80be
00000160: 3976 4b3d 7777 9cbd 05a0 2fbe f2a4 02bd
00000170: 9f1e bbbd 5f32 99bd 0b54 45be 6c34 ab3d
00000180: ae01 8c3d 66a0 853c d9c8 dbbc 2911 0c3e
00000190: 99df fbbd 3acb 55bd 4e88 babd 4191 90ba
000001a0: c09e 68bb 3672 b6bc 4588 923d 083d 19bc
000001b0: 353c 0c3d b5c2 003e d1ba 513d 51e6 343d
000001c0: df01 713b e1ee 173d 6e8b 5c3d fc67 57be
000001d0: 0641 09be 59d4 7e3d 1ae3 e33d 1e5a 1fbd
000001e0: 49fc 41bc 619e e4bd 628e 453b 6338 cdbc
000001f0: a6cb e03c 727a 5ebc 8104 1eba bc6e 803d
00000200: 29c7 ef3d 787e 3d3d a04e bebe 9812 c0bc
00000210: 3d2f 9cbd 5630 013d 32db f33c 567c a43c
00000220: f1b1 63bd fded cabe 7b97 dd3d f4e8 c83d
00000230: 3b5c 1ebd 001a 21bd feae 813d 15d1 a4bb
00000240: 90d6 ddbc f87b fdbd 80df ed3d 3e8d cb3c
00000250: 8bef f93c a363 acbd 277c 253e e124 853e
00000260: 7b4e 65bd c3fd e83b 9a22 c93c 62e9 723e
00000270: ca6e a33a d9ad 0abd d48d 47bc c8f0 05bd
00000280: 9475 26be 677e 753d a497 6ebc b306 203d
00000290: 3a3e dc3d b27a 55bd 61f7 32bd 63b7 403c
000002a0: d434 43bd 58dc fa3e b57b 3d3e 546e 20bd
000002b0: f27e 983d fe5d a33d cde7 c0bd f67d 243c
000002c0: 018e cdbe eb11 b13c 6493 eabc d8b3 82be
000002d0: cf09 413d e6da 003c 3c9c 8cbd 98fe 20be
000002e0: bc29 88bb a702 4ebe 5cf5 d3bc 4d4b 64bc
000002f0: 5b59 b2bc b3c4 5abc 91ee 03bc 284b 3b3a
00000300: 6515 2dbe 21df a2bd 45d6 753e cd99 29bb
00000310: 49e0 4cbe f8bd 20bd ee98 b33d f3f8 4b3e
00000320: 44bc 0d3e 1be9 9cbd 9398 b5bd dd8e 7b3b
00000330: 8436 0fbd f60d 85bb 6593 9f3e 1e61 44bd
00000340: 3aec 95bb 9234 febd fcd5 823e c0d3 0f3d
00000350: 87ac 883d 66b8 053c 2f94 903c 69ef e73d
00000360: 08f6 333d 3250 a93b b309 d6bb 355c 253d
00000370: 6b6d 1cbd 2f93 e43c 3e47 e13b 9a28 b7bd
00000380: da49 96be 677b 093e 4cd3 a7bd 0816 d23c
00000390: 804e f6bd d418 0ebc 3d51 bb3a 0eb7 8f3e
000003a0: 3fb2 c53c a8d9 11bc 3f7b 96bd a6be dfbd
000003b0: c840 b83d a1f4 41bc 6442 8f3b 1085 22bc
000003c0: 24ff 4cbe eabc 833d 3b32 323b ac30 703d
000003d0: 7f12 d5bb 516e c33c a6af b2bc 0486 c6be
000003e0: fc5e bdbc a1d0 7dbe 3d3e a33c e079 bb3c
000003f0: d670 073e 57dd 8fba 2843 fcbb a12a 853d

fc4.bias f4 [30]
0.05925241 0.03465645 -0.030695744 -0.024366215 -0.051729918 -0.038675062 -0.117048696 0.045264333
-0.05339644 -0.08811684 -0.09686805 0.08826265 0.079392865 0.027506948 0.030699208 0.026914924
0.08668439 0.10502525 0.077199414 -0.021232732 -0.0978851 -0.11564946 -0.034614243 -4.516542e-05
0.03572102 0.07720736 -0.115079306 0.005772352 -0.13103282 -0.11174713
00000000: a8b2 723d ecf3 0d3d a475 fbbc a89b c7bc
00000010: c0e2 53bd be69 1ebd 3ab7 efbd 1867 393d
00000020: 3ab6 5abd 9a76 b4bd c262 c6bd 0cc3 b43d
00000030: ba98 a23d 4056 e13c e87c fb3c b07c dc3c
00000040: 9687 b13d 7a17 d73d ba1a 9e3d 44f0 adbc
00000050: fc77 c8bd a0d9 ecbd aac7 0dbd 0070 3db8
00000060: 3450 123d e41e 9e3d b3ae ebbd 0026 bd3b
00000070: 782d 06be aedb e4bd

fc5.weight f4 [15, 30]
0.13094866 -0.16305609 -0.16704991 0.049395576 -0.14363272 0.04258676 -0.0945546 -0.1602173
-0.16088606 0.09113914 -0.07438993 0.11203161 -0.13233314 -0.0029241145 -0.15779279 -0.04529634
-0.05494353 -0.16808668 -0.11220677 -0.16986854 0.11563623 0.088403255 0.050099418 0.054337963
-0.019460067 -0.043781877 0.03870657 0.052212417 -0.12258732 -0.097595714 -0.09214871 0.048268452
0.13449389 0.12461457 -0.1817865 -0.0251064 0.17723152 0.17815286 0.05620259 0.06571126
-0.026929766 -0.088705555 0.025858253 -0.12507108 -0.00024223328 0.16734594 0.15238151 -0.105534375
0.033824578 0.01020816 -0.065977655 0.010709137 -0.091118306 -0.026425391 -0.0706456 0.053132072
-0.17837043 0.16339222 -0.09830176 -0.005243942 -0.1591277 0.049199477 0.13063928 0.118475586
-0.14719829 0.038323045 0.088906914 -0.0068909973 0.17322206 0.105140865 -0.08323271 -0.10971778
-0.16911235 -0.06322168 -0.15619197 0.030759454 -0.0067248493 0.13066235 -0.11877851 -0.15266007
-0.084807985 0.1629382 -0.06432625 0.0280585 0.06707735 0.1357553 -0.10908508 -0.13507025
0.110529214 0.0047641248 0.019717142 -0.13406838 -0.054773524 0.14297736 -0.076681584 0.17927548
0.045180336 0.03074789 -0.057839416 0.13553685 -0.010698706 0.1517879 -0.010584533 0.16143474
0.053738937 -0.04404065 -0.0032695532 0.06897926 0.12711841 0.025201961 0.06238468 0.077145696
-0.10656188 0.06276408 0.10193524 -0.13581172 -0.14284426 0.105942875 0.11001927 0.12529498
-0.031039864 0.01962389 -0.057788983 0.16435799 -0.0808069 -0.12575811 -0.10265242 0.16603377
-0.018466562 0.036693186 -0.14112693 0.082027406 -0.18225077 -0.122056246 0.15064254 -0.060529687
0.17045134 0.17599437 0.041555837 -0.13119009 0.09750801 -0.028216556 -0.050798804 0.040812448
-0.13633856 0.1151813 -0.13999023 0.12948892 0.04973437 0.0040964633 0.08533239 -0.07159524
0.02754882 0.03206709 0.13195077 0.026748732 0.0033934563 -0.1537676 -0.17015573 0.0026347786
0.08630088 0.16007903 -0.08548406 -0.06440538 -0.023768872 -0.056529477 0.18033573 -0.13642411
-0.052128807 0.1160481 -0.07304157 0.12162918 0.017855644 0.09112853 0.11907107 0.14288512
0.1435467 -0.055760637 0.048938975 -0.14158392 -0.045818508 -3.6343932e-05 -0.14118294 -0.15651765
0.06478411 -0.17766811 0.0013729334 0.14473331 0.0947634 -0.023626924 -0.10592081 0.07771096
0.10435563 0.105621696 -0.10625666 0.157103 -0.087435946 0.1440224 0.14913309 0.10214141
0.15650442 0.02687487 0.0776743 -0.046392485 0.10063693 -0.14565656 -0.022702858 -0.18073618
-0.17716573 -0.08510235 0.15263006 0.13809845 -0.032385215 -0.16965832 -0.033463612 -0.10573607
0.13881305 -0.10369449 0.14519778 0.15895236 0.1748631 -0.17127806 0.16076699 0.0695028
0.16496906 -0.07351767 0.07083982 -0.11105726 -0.06651689 0.12827644 -0.18022606 0.07051441
-0.18044494 -0.02974455 -0.0208496 -0.11449203 0.17387283 -0.16009441 0.042226776 -0.053701043
0.1074056 0.018287063 0.044870228 -0.11597909 0.15854153 0.060134575 0.14443833 -0.058880195
-0.0095696 0.10550448 0.024244264 -0.032377705 -0.007364124 0.14430916 -0.012986198 -0.086929485
00000000: 6817 063e 2df8 26be 220f 2bbe 0453 4a3d
00000010: 7514 13be 746f 2e3d d8a5 c1bd 0110 24be
00000020: 51bf 24be 28a7 ba3d bf59 98bd d470 e53d
00000030: 5782 07be 80a2 3fbb 6f94 21be a888 39bd
00000040: 780c 61bd ea1e 2cbe aacc e5bd 05f2 2dbe
00000050: b0d2 ec3d c40c b53d 0c35 4d3d 7c91 5e3d
00000060: b86a 9fbc a054 33bd c88a 1e3d b0dc 553d
00000070: 100f fbbd 43e0 c7bd 76b8 bcbd 24b5 453d
00000080: c4b8 093e ec35 ff3d 3e26 3abe f0ab cdbc
00000090: 2e7c 353e b46d 363e b034 663d a093 863d
000000a0: d09b dcbc 42ab b5bd b0d4 d33c a212 00be
000000b0: 0000 7eb9 bc5c 2b3e e609 1c3e 6822 d8bd
000000c0: a48b 0a3d 2040 273c 4b1f 87bd 6075 2f3c
000000d0: 3c9c babd 107a d8bc a4ae 90bd 04a1 593d
000000e0: bda6 36be 4a50 273e 6f52 c9bd 60d5 abbb
000000f0: 5ff2 22be 6485 493d 4ec6 053e 54a3 f23d
00000100: 26bb 16be a0f8 1c3d d414 b63d e0cd e1bb
00000110: 2061 313e 1854 d73d e975 aabd b7b3 e0bd
00000120: ca2b 2dbe 5e7a 81bd caf0 1fbe 40fb fb3c
00000130: 205c dcbb 5acc 053e 2642 f3bd ec52 1cbe
00000140: cfaf adbd 46d9 263e 7bbd 83bd f0da e53c
00000150: da5f 893d 7003 0b3e 0068 dfbd db4f 0abe
00000160: 245d e23d 601c 9c3b d885 a13c 3949 09be
00000170: 345a 60bd a868 123e 3c0b 9dbd fe93 373e
00000180: 040f 393d 00e3 fb3c 06e9 6cbd 2cca 0a3e
00000190: a049 2fbc 4a6e 1b3e c06a 2dbc 264f 253e
000001a0: 5c1d 5c3d f863 34bd 0046 56bb 0045 8d3d
000001b0: 542b 023e 5874 ce3c 1487 7f3d 90fe 9d3d
000001c0: 1d3d dabd 748a 803d 6cc3 d03d 3a12 0bbe
000001d0: c445 12be 94f8 d83d c851 e13d 544d 003e
000001e0: 5047 febc 48c2 a03c 24b4 6cbd 764d 283e
000001f0: 177e a5bd bcc6 00be 6f3b d2bd c204 2a3e
00000200: 3047 97bc 984b 163d 9483 10be fcfd a73d
00000210: f29f 3abe a0f8 f9bd 0a42 1a3e faed 77bd
00000220: cc8a 2e3e de37 343e 7436 2a3d b256 06be
00000230: 48b2 c73d 6826 e7bc 6812 50bd f42a 273d
00000240: 569c 0bbe 2ce4 eb3d 9959 0fbe be98 043e
00000250: 44b6 4b3d a03b 863b c0c2 ae3d 86a0 92bd
00000260: 10ae e13c c858 033d 1a1e 073e 2820 db3c
00000270: c064 5e3b 4175 1dbe 4e3d 2ebe 40ac 2c3b
00000280: 84be b03d c2eb 233e 4412 afbd f8e6 83bd
00000290: f0b6 c2bc 748b 67bd eea9 383e c3b2 0bbe
000002a0: 0485 55bd a0aa ed3d d296 95bd b818 f93d
000002b0: 0046 923c 98a1 ba3d 88db f33d 7a50 123e
000002c0: e8fd 123e 4465 64bd 3c74 483d 60fb 10be
000002d0: 30ac 3bbd 0070 18b8 4392 10be 2a46 20be
000002e0: 88ad 843d a1ee 35be 00f4 b33a f834 143e
000002f0: 5013 c23d 408d c1bc 02ed d8bd ec26 9f3d
00000300: 68b8 d53d 3050 d83d 179d d9bd 9cdf 203e
00000310: 9e11 b3bd 9c7a 133e 58b6 183e 842f d13d
00000320: b242 203e b028 dc3c b413 9f3d 0c06 3ebd
00000330: bc1a ce3d fe26 15be 58fb b9bc e812 39be
00000340: ef6a 35be 244a aebd 0e4b 1c3e ae69 0d3e
00000350: 5ca6 04bd e9ba 2dbe 2411 09bd 278c d8bd
00000360: 0225 0e3e c75d d4bd baae 143e 68c4 223e
00000370: 500f 333e 8463 2fbe 1aa0 243e 7c57 8e3d
00000380: a6ed 283e 6f90 96bd 7814 913d fd71 e3bd
00000390: 023a 88bd e65a 033e 2e8d 38be dc69 903d
000003a0: 8fc6 38be d8aa f3bc c8cc aabc cc7a eabd
000003b0: b80b 323e caef 23be fcf5 2c3d a0f5 5bbd
000003c0: 78f7 db3d c0ce 953c d8c9 373d 7286 edbd
000003d0: b658 223e ac4f 763d a4e7 133e 5c2c 71bd
000003e0: d0c9 1cbc bc12 d83d e89b c63c 7c9e 04bd
000003f0: c04e f1bb c8c5 133e 10c4 54bc 1608 b2bd

fc5.bias f4 [15]
0.003798768 0.10792124 0.08784181 -0.008384228 0.122172594 -0.003714189 -0.0046895593 0.05999741
-0.11017703 0.1763081 -0.11638426 0.003834933 -0.06548055 -0.028386697 -0.06788466
00000000: c0f4 783b d005 dd3d 68e6 b33d 005e 09bc
00000010: a035 fa3d c069 73bb e0aa 99bb d8bf 753d
00000020: 7fa4 e1bd 1c8a 343e df5a eebd 8053 7b3b
00000030: ab1a 86bd 388b e8bc 1d07 8bbd

fc6.weight f4 [8, 15]
0.052844256 -0.009340033 -0.13120572 -0.07534054 0.14420724 -0.22093922 -0.20548254 -0.09653562
-0.015135035 0.22921357 -0.17197949 -0.012009844 0.19631577 0.018298537 -0.14382195 -0.15178202
0.15700582 -0.11703263 -0.037137777 0.18296978 -0.13170947 -0.1521386 -0.019309402 0.23977521
-0.0701306 -0.077441216 -0.10441394 -0.16796055 -0.2088685 0.052731454 0.026988983 0.1379998
0.20048329 -0.2229738 0.1705167 -0.10697013 0.16368961 0.045061886 -0.23559494 -0.020677134
-0.24078004 0.0077544153 0.24505857 0.11267507 -0.12864584 0.25306806 0.07625356 -0.24128252
-0.2151539 -0.08891614 0.07542887 0.011592507 -0.025557682 -0.083612636 0.089410156 -0.048413485
-0.12778817 0.08149639 -0.009236276 -0.030557051 -0.19158699 -0.070133224 -0.155072 -0.22004268
0.24033284 0.1636835 0.1401026 -0.0017279088 -0.2231445 0.16732177 0.22088754 0.060109526
0.085151196 0.123477906 -0.05475512 0.048272848 -0.10099909 -0.04247251 -0.059747532 -0.13569856
-0.23749277 -0.10825764 0.017372906 -0.05469942 -0.08726773 0.124705166 -0.21290457 0.179871
-0.12745054 -0.21733895 -0.25025234 -0.096674904 -0.0029913187 -0.22028956 -0.18418634 0.043192744
-0.22176267 -0.13638091 -0.121941715 0.25291565 0.017584026 0.25797877 -0.12552866 -0.021128476
0.013264298 0.078428864 0.19064814 -0.10167174 -0.22290592 0.22084635 0.089620024 0.06898308
-0.10298517 0.16209507 -0.031168729 0.093587846 0.07773095 0.04792723 -0.16428658 0.1022366
00000000: 3873 583d f006 19bc cb5a 06be 244c 9abd
00000010: 10ab 133e e43d 62be 046a 52be 78b4 c5bd
00000020: f0f8 77bc f6b6 6a3e 641b 30be f0c4 44bc
00000030: 0007 493e d0e6 953c 1046 13be bf6c 1bbe
00000040: 22c6 203e ceae efbd c81d 18bd 6e5c 3b3e
00000050: d9de 06be 39ca 1bbe c02e 9ebc a287 753e
00000060: a2a0 8fbd 8099 9ebd fad6 d5bd dafd 2bbe
00000070: a0e1 55be f0fc 573d 0018 dd3c d24f 0d3e
00000080: 7e4b 4d3e 3e53 64be ee9b 2e3e 2813 dbbd
00000090: 409e 273e d092 383d cd3f 71be 1863 a9bc
000000a0: 0b8f 76be c018 fe3b a2f0 7a3e 30c2 e63d
000000b0: bcbb 03be 2392 813e d42a 9c3d c412 77be
000000c0: 4e51 5cbe aa19 b6bd 747a 9a3d 80ee 3d3c
000000d0: 585e d1bc 1a3d abbd ac1c b73d 384d 46bd
000000e0: e7da 02be 94e7 a63d c053 17bc c852 fabc
000000f0: 612f 44be 02a2 8fbd 32cb 1ebe de52 61be
00000100: d019 763e a69c 273e 0e77 0f3e 007b e2ba
00000110: fe7f 64be 6656 2b3e 5830 623e 6835 763d
00000120: c063 ae3d fce1 fc3d e846 60bd c0b9 453d
00000130: 9cd8 cebd a8f7 2dbd d4b9 74bd 90f4 0abe
00000140: 4e31 73be 2eb6 ddbd a051 8e3c 800c 60bd
00000150: 6cb9 b2bd 6c65 ff3d a803 5abe 1a30 383e
00000160: 6582 02be 1a8e 5ebe 1321 80be 7efd c5bd
00000170: 000a 44bb 9693 61be 589b 3cbe e0ea 303d
00000180: c115 63be 70a7 0bbe 94bc f9bd 297e 813e
00000190: 600c 903c cb15 843e 968a 00be a015 adbc
000001a0: 8052 593c 509f a03d 4439 433e 4639 d0bd
000001b0: 7341 64be 8c25 623e b48a b73d 0047 8d3d
000001c0: e4e9 d2bd 40fc 253e 9055 ffbc fcaa bf3d
000001d0: 6831 9f3d 584f 443d be3a 28be 6c61 d13d

fc6.bias f4 [8]
0.11860639 0.0068663955 -0.21222207 -0.1887723 0.21405473 -0.0025659502 -0.013817877 -0.14843181
00000000: e8e7 f23d 80ff e03b be50 59be 874d 41be
00000010: 2a31 5b3e 8029 28bb 6064 62bc 82fe 17be

fc7.weight f4 [4, 8]
-0.2930893 0.26517507 -0.12536328 0.34460822 -0.29619545 0.07113689 -0.08332127 0.18513212
0.27651277 -0.09977651 -0.046432227 -0.24183095 0.108584106 -0.17720588 0.24004671 -0.30916905
0.0664365 -0.14040518 0.024305403 -0.1148255 -0.042440146 -0.10396199 0.009128332 -0.2741507
-0.24521509 0.12662059 -0.2169493 0.32306066 0.31017533 -0.023654848 0.27530852 -0.292625
00000000: cd0f 96be 07c5 873e 3b5f 00be 7d70 b03e
00000010: eea6 97be 38b0 913d 58a4 aabd 4693 3d3e
00000020: 1593 8d3e a057 ccbd b82f 3ebd 88a2 77be
00000030: 5861 de3d 7575 35be cece 753e 684b 9ebe
00000040: dc0f 883d 60c6 0fbe 201c c73c a229 ebbd
00000050: b8d5 2dbd 06ea d4bd 008f 153c 7b5d 8cbe
00000060: aa19 7bbe d4a8 013e f527 5ebe 3568 a53e
00000070: 4dcf 9e3e d0c7 c1bc 3df5 8c3e f2d2 95be

fc7.bias f4 [4]
-0.27660227 -0.117840484 0.31892952 -0.3337253
00000000: d09e 8dbe 5a56 f1bd bb4a a33e 0bde aabe

fc8.weight f4 [30, 4]
0.023748815 0.06955576 0.39271182 -0.46387017 0.20497149 0.42056394 -0.2998318 -0.084049046
0.18403494 -0.10436839 -0.49373233 -0.20748603 -0.33394152 0.10804361 0.319067 -0.43295515
-0.42359155 0.02604723 -0.29805773 0.047716558 -0.40199113 0.31056422 -0.1047259 0.22121352
-0.06296462 -0.45655245 -0.14916784 0.37089467 0.39156026 0.36839718 -0.25794965 0.35813528
-0.4917624 0.4927094 -0.3957016 -0.10005969 0.10287511 -0.37424976 -0.15796119 0.2021625
0.13789165 -0.020197392 -0.13718104 0.4770127 -0.33781826 0.2569905 0.07909584 0.14638239
-0.029708087 -0.0078808665 0.45793152 0.46216035 -0.2176876 -0.32458144 0.23030901 0.20297164
-0.3920731 0.33960944 -0.38295847 -0.18213522 0.28917563 -0.37247324 0.30471838 -0.29376435
0.25265718 0.3033132 0.09393829 -0.4331314 0.16889101 -0.38271612 0.47934413 -0.37972784
-0.11983675 0.4202155 -0.4985553 0.4624626 0.365856 -0.08494526 0.03978461 -0.024234712
-0.19104254 -0.27494323 -0.03308767 0.110221624 0.3832509 -0.28173137 -0.11573058 -0.39351523
0.18800002 -0.19804609 -0.29235464 0.25955778 -0.45226783 -0.49337012 0.31702662 -0.14399105
0.3810916 0.1590969 0.16273803 -0.2935741 0.29716712 0.060342908 0.42773372 0.38652188
-0.38275558 -0.08486408 -0.4649017 -0.20372301 -0.036118627 -0.01685816 -0.31781578 0.35836625
-0.3943041 -0.16227776 -0.16068977 0.30009282 0.009034157 -0.48740244 -0.48041427 0.40973192
00000000: e08c c23c 4073 8e3d 8611 c93e 6480 edbe
00000010: 0ce4 513e 2854 d73e 8e83 99be e821 acbd
00000020: a873 3c3e 18bf d5bd 7cca fcbe 3877 54be
00000030: 62fa aabe f845 dd3d c05c a33e 4cac ddbe
00000040: fee0 d8be 0061 d53c 069b 98be 7072 433d
00000050: c8d1 cdbe 4602 9f3e 887a d6bd cc85 623e
00000060: 98f3 80bd 3ec1 e9be 74bf 18be e8e5 bd3e
00000070: 967a c83e 8e9e bc3e fa11 84be 825d b73e
00000080: 48c8 fbbe 6844 fc3e 6699 cabe 18ec ccbd
00000090: 30b0 d23d aa9d bfbe 94c0 21be b003 4f3e
000000a0: 7833 0d3e 0075 a5bc 3079 0cbe 023b f43e
000000b0: 84f6 acbe 4294 833e 00fd a13d 44e5 153e
000000c0: 605e f3bc c01e 01bc 0076 ea3e 48a0 ec3e
000000d0: 80e9 5ebe 8a2f a6be 20d6 6b3e ccd7 4f3e
000000e0: cebd c8be 4ae1 ad3e 2213 c4be a881 3abe
000000f0: d40e 943e d0b4 bebe 0c04 9c3e 4868 96be
00000100: 485c 813e de4b 9b3e b862 c03d 66c3 ddbe
00000110: c4f1 2c3e 5ef3 c3be 986c f53e b06b c2be
00000120: f86c f5bd 7c26 d73e a442 ffbe e6c7 ec3e
00000130: 7a51 bb3e c8f7 adbd 30f5 223d e087 c6bc
00000140: a8a0 43be 5cc5 8cbe f086 07bd e0bb e13d
00000150: 7639 c43e 183f 90be 2804 edbd d47a c9be
00000160: 1483 403e 98cc 4abe 82af 95be c2e4 843e
00000170: a68f e7be 029b fcbe 5051 a23e 6472 13be
00000180: 701e c33e 4cea 223e cca4 263e 584f 96be
00000190: 4a26 983e 202a 773d eaff da3e 32e6 c53e
000001a0: 8af8 c3be 38cd adbd 9807 eebe c49c 50be
000001b0: 20f1 13bd 201a 8abc c0b8 a2be c87b b73e
000001c0: 3ae2 c9be 242c 26be dc8b 24be c4a5 993e
000001d0: 0004 143c d08c f9be dcf8 f5be 62c8 d13e

fc8.bias f4 [30]
0.43045348 0.07462269 -0.33689463 0.14885348 0.13434583 -0.30921125 0.10920924 -0.05980891
-0.41594326 -0.10093498 0.12599432 -0.1869269 -0.08019674 -0.18218482 0.45824564 0.19682133
-0.26913792 -0.105186224 -0.30855894 -0.111771464 -0.00091832876 -0.11605495 0.052357197 -0.2083394
0.43557477 0.43803763 0.2792179 0.24288887 0.31521308 -0.19069588
00000000: 6664 dc3e c8d3 983d 747d acbe 0c6d 183e
00000010: f491 093e f050 9ebe 18a9 df3d 30fa 74bd
00000020: 84f6 d4be 00b7 cebd a804 013e c469 3fbe
00000030: 303e a4bd a88e 3abe 2c9f ea3e 888b 493e
00000040: 72cc 89be e06b d7bd 70fb 9dbe 70e8 e4bd
00000050: 00bc 70ba 38ae edbd 8074 563d ec56 55be
00000060: a803 df3e 7846 e03e a6f5 8e3e dcb7 783e
00000070: 9c63 a13e c845 43be
