30/checkpoint.pt (torch_old, 255387 bytes, 16 tensors)

fc1.weight f4 [180, 192]
000000 7c 0b 2a 3f bf fa c9 be 6a ce ff 3e 8f ec ec bd
       0.66423774 -0.39449117 0.4996217 -0.115685575
000010 a1 89 42 3e 3c fe 47 bf ee b3 5e be c0 32 df bd
       0.18997814 -0.78122306 -0.21748325 -0.10898352
000020 e7 9c 89 3d bb f9 43 3d dc 49 f9 be c0 b1 24 bf
       0.0671938 0.047845583 -0.48689163 -0.64333725
000030 38 11 00 3d 2a 6d 33 bf 54 5e 74 be 05 d4 28 bf
       0.03126642 -0.70088446 -0.23864108 -0.65948516
000040 5d f5 38 bf a6 00 fd be c4 3b ef be 9d e2 1a bd
       -0.72249395 -0.49414557 -0.46725285 -0.03781377
000050 5b e2 fd bd c6 b5 f5 3d a5 b8 9a be c1 2d b4 be
       -0.123966895 0.11997561 -0.30218998 -0.35191157
000060 12 09 e6 3d 3b b4 40 be 98 9d 88 bd 65 81 17 3f
       0.11232199 -0.18818752 -0.066706836 0.59181815
000070 4a 66 97 3e 65 f6 23 3f ca a0 c2 3e 49 40 49 3f
       0.29570228 0.64047843 0.38013297 0.78613716
000080 b5 90 86 3e 72 b9 d2 3e 14 03 b6 3e 7e 05 1f 3f
       0.26282278 0.4115711 0.35549223 0.62117755
000090 cb 06 73 3f db bb 08 3f 1a 13 0a 3e d2 a7 c4 3e
       0.9493224 0.53411645 0.13483849 0.38409287
0000a0 e6 35 45 3e f1 bb 00 3e 43 15 8c bd eb 19 81 3f
       0.19258842 0.12571694 -0.06839993 1.0086035
0000b0 20 f6 af 3d 7d eb 8b 3e 84 f3 ab be d8 dd 08 bf
       0.085918665 0.273281 -0.33584225 -0.53463507
0000c0 7c 10 ae bf 15 e2 af be 44 0c 6f bf df 29 af bc
       -1.3598781 -0.34352174 -0.9337809 -0.02138227
0000d0 69 a0 9d bf c1 d4 a4 be 25 b3 b9 bf e9 6b 20 bf
       -1.2314578 -0.32193568 -1.4507796 -0.6266466
0000e0 69 21 cc bf be 15 5e bd 8a 6d b5 bf 19 c6 75 3e
       -1.5947696 -0.054219954 -1.4174054 0.2400135
0000f0 ff 92 1e bf 80 02 04 3f 49 a0 95 bf 8e 73 33 3e
       -0.6194305 0.51566315 -1.168954 0.1752455
000100 78 dc 92 bf d4 64 9b 3c 49 a9 d8 bf fa da 20 3e
       -1.1473532 0.018968977 -1.6926662 0.15708533
000110 19 55 8d bf e8 e9 28 bc df cd 18 bf 73 15 44 3f
       -1.1041595 -0.010309674 -0.59689134 0.7659523
000120 cc 32 0c bf 40 64 a9 3e 7a 0a 5c bf 0d 72 25 3f
       -0.5476501 0.33084297 -0.85953486 0.6462715
000130 0c 78 c8 be 65 31 54 3f aa 6b 0d be 6e 43 80 3f
       -0.39154088 0.8288787 -0.13810602 1.0020578
000140 18 b7 08 bf 00 98 20 3f bb 12 bc 3e 11 67 c0 3f
       -0.5340438 0.62731934 0.3673304 1.5031453
000150 36 9f bd 3e d0 5b 89 3f f6 d6 d9 be 2a 1c 76 3f
       0.3703553 1.0731144 -0.42546815 0.96136725
000160 75 3c f7 3b 57 2f 48 3f 20 95 b4 be f7 8f fc 3e
       0.007545049 0.78197235 -0.35270023 0.49328586
000170 23 60 b1 be 56 8b e6 3e e2 d5 9b be 30 6f 8b 3e
       -0.3464366 0.4502818 -0.30436617 0.27233267
000180 3d fd e2 ba 65 14 0c 3f 32 0b e3 3d 8b 1c f2 3e
       -0.0017317903 0.5471862 0.1108612 0.47287402
000190 50 c2 49 3e b1 45 7b 3f 16 1f 3d 3e b1 c2 4b 3f
       0.1970303 0.98153216 0.1846889 0.7959395
0001a0 52 f1 96 3e ff 08 12 3f 31 fd a9 bd 02 fa 53 3f
       0.29480988 0.57044977 -0.083002456 0.82803357
0001b0 68 38 14 3f f1 86 ca 3e 65 2a 52 bd c4 19 97 3e
       0.5789857 0.39556077 -0.05130996 0.29511845
0001c0 65 bb 42 3e e0 7d ac be 92 d6 23 bf 2b 27 a1 be
       0.19016798 -0.33689785 -0.63999283 -0.31475195
0001d0 51 e0 60 be c0 c0 e4 be c8 8b 63 be a9 aa b8 be
       -0.2196057 -0.44678307 -0.22221291 -0.36067703
0001e0 d0 4b 24 bb f0 5a 83 be 21 d5 2d 3e a9 d6 02 3f
       -0.0025069602 -0.25655317 0.16975833 0.51108795
0001f0 dc d7 00 3f cc ed 90 3f 39 1d a0 3f d1 55 10 3f
       0.50329375 1.132257 1.2508918 0.56380945
000200 62 b9 b5 3f 1d 8c 98 3f 19 3d c8 3f 3d a8 c6 3f
       1.4197199 1.1917759 1.5643646 1.5520092
000210 34 6e df 3f dc b6 9c 3f 9c 65 ca 3f e6 9c 6f 3f
       1.7455506 1.2243304 1.5812259 0.93598783
000220 69 24 95 3f b0 00 1c 3f 68 22 58 3f f0 84 f1 3e
       1.1651736 0.6093855 0.844275 0.47171736
000230 60 5e c8 bf b1 19 70 bf b2 a0 7f bf 9a 9e ef be
       -1.5653801 -0.937892 -0.99854577 -0.4680069
000240 1d 59 07 bf 02 93 c2 be 72 dd 65 bf 5c 83 0a bf
       -0.5287035 -0.38002783 -0.89791024 -0.5410669
000250 82 64 21 bf 59 47 7f be 96 6b 2f bf f2 43 e1 be
       -0.6304399 -0.2492956 -0.6852354 -0.4399715
000260 11 21 ce be c1 cf a9 be 6a 9c fa be 89 1b 0a be
       -0.40259603 -0.33166316 -0.4894746 -0.13487066
000270 57 0b ab be e3 81 06 bf 15 c5 94 be 5a 49 95 be
       -0.3340709 -0.5254194 -0.29056612 -0.29157525
000280 6a 45 94 be 1a e8 b4 be 4b aa f4 be f3 24 19 bf
       -0.2895921 -0.3533333 -0.47786173 -0.59822005
000290 6f 99 df be 6f 18 27 bf bc 2d 65 be 3d 34 96 be
       -0.43671748 -0.6527166 -0.22380728 -0.2933673
0002a0 d5 88 7c be 21 0c 4e be 86 a2 c9 3d 44 f9 46 be
       -0.24661572 -0.20121814 0.09845452 -0.19431025
0002b0 1b 94 82 be b7 74 c8 be a5 90 59 be 67 96 93 bd
       -0.2550362 -0.39151546 -0.21246584 -0.07206421
0002c0 f8 9a f8 3a 9a 91 97 bd 95 af f1 bc f2 64 7c be
       0.0018967083 -0.07400818 -0.02950267 -0.24647883
0002d0 ce 06 93 be c2 95 56 3c ab 19 bc bd 5d 08 a2 be
       -0.2871613 0.0130972285 -0.09184583 -0.31647006
0002e0 6c 6b 99 be 03 a3 93 be a9 1b af be a6 81 db be
       -0.2996477 -0.28835306 -0.3420079 -0.4287235
0002f0 7d 4c 6e be ea d5 47 be ea ef 7d be 10 63 67 be
       -0.23271365 -0.19515195 -0.24798551 -0.22596383
000300 fa 34 01 c0 c2 35 ec bf be 20 ee bf 6e fa 21 bf
       -2.0188584 -1.8453906 -1.8603742 -0.6327275
000310 ec e3 78 bf 7f ca 9e be 19 bd 8d be 61 be b0 be
       -0.9722278 -0.31013867 -0.27683333 -0.34520248
000320 75 0c b8 be c5 31 3a bf 9c c4 5f bf ca d5 62 be
       -0.35947004 -0.7273219 -0.8740938 -0.22151867
000330 41 b3 78 be 21 db 1a be c4 d5 75 be 1e 3c b6 be
       -0.2428713 -0.15122654 -0.24007326 -0.3559274
000340 8e 97 1f bf 06 df 52 bf c6 d4 17 bf 25 f4 13 bf
       -0.6234063 -0.82371557 -0.5930904 -0.5779441
000350 c6 4f b9 bf 1d 6a 09 c0 4a b4 85 bf 6e e7 d7 bf
       -1.447747 -2.1471016 -1.0445645 -1.6867502
000360 85 c1 0f c0 82 44 f1 bf d3 fc 13 c0 b3 83 12 c0
       -2.2461865 -1.8849032 -2.3123062 -2.2892883
000370 dc 6a 2f c0 9f 7c 33 c0 aa 65 1c c0 79 0d 1f c0
       -2.7408972 -2.8044813 -2.443705 -2.4851973
000380 fe 75 21 c0 64 8e e9 bf 6c 1b 01 c0 32 c9 0f c0
       -2.5228267 -1.8246579 -2.0172987 -2.246655
000390 b7 2c 1c c0 39 1e 03 c0 29 b4 ce bf a8 21 81 bf
       -2.4402292 -2.0487196 -1.614873 -1.0088396
0003a0 13 50 c4 bf 58 be 79 bf d7 e5 5b bf 51 25 82 bf
       -1.5336937 -0.97556067 -0.8589758 -1.0167638
0003b0 80 f6 b4 be 68 9a 39 bf 36 ec d1 be 6f 7e b9 3e
       -0.35344315 -0.7250123 -0.41000527 0.36229274
0003c0 d7 4d 23 3f 2e 95 14 3f 09 01 d2 3e 3d d6 6e 3d
       0.6379065 0.5804013 0.41016415 0.058309782
0003d0 f4 38 50 3f 15 06 be 3e 4f 3d 45 3f 63 97 11 3f
       0.81336904 0.37114015 0.77046674 0.5687162
0003e0 e1 ce 6e 3f 6e 62 e0 3e 2b 5e 7d 3f 38 12 b3 be
       0.9328442 0.43825096 0.98971814 -0.34974837
0003f0 7b a6 7f ba 0e 8e 13 bf 8f f1 74 bd 26 a9 54 bf
       -0.00097522856 -0.57638633 -0.05980068 -0.830706

fc1.bias f4 [180]
000000 a9 cc 0b 3e a7 f1 79 be ad 21 56 bd 04 29 74 3d
       0.1365229 -0.2440859 -0.05227821 0.059609428
000010 53 ed b9 3e 79 9a 9e bd cd ed f6 bd d2 95 dc bc
       0.36313877 -0.07744307 -0.12057076 -0.026926909
000020 be 50 16 bd 4d 07 88 be 19 b4 bb 3c 80 0b e7 be
       -0.036698096 -0.2656807 0.022913026 -0.4512596
000030 8f 31 e3 3d 5b 97 8e bd ae 52 06 bd 9b a6 a2 3d
       0.11093437 -0.069624625 -0.032793693 0.07941934
000040 72 48 20 3e 93 c9 01 3f a1 75 8c 3e 6c 43 00 be
       0.15652636 0.506982 0.27433494 -0.1252572
000050 7f 06 b2 bd 87 90 81 be 8d 0a b5 3e 33 a1 66 3e
       -0.08692645 -0.25305578 0.35359612 0.2252243
000060 46 05 33 bf b3 9e 25 bf eb 56 64 be d6 d5 3e 3d
       -0.6992992 -0.6469528 -0.22298782 0.04659065
000070 e4 ba 4f bd 82 94 9b bd d0 e7 c4 be 84 0d a8 be
       -0.050715342 -0.07596685 -0.3845811 -0.32822812
000080 27 ec 01 bd d7 1f b3 3e c1 fd 42 3e 04 ef db 3e
       -0.031719353 0.3498523 0.19042112 0.42955792
000090 a5 d8 bf 3d f7 51 6d be f7 79 61 bd 21 34 bf bc
       0.093674935 -0.23175798 -0.055047955 -0.023340287
0000a0 78 ba 45 3f 59 1a af bd 14 b6 8e bc 7c 34 6d 3e
       0.77237654 -0.08549947 -0.017420806 0.23164552
0000b0 51 29 0d 3f b8 8e a6 be d1 f6 77 3e ab 92 a2 3e
       0.5514117 -0.3253076 0.24215247 0.31752524
0000c0 48 1e 09 3f 5a b8 17 3d 87 ec cc 3e a0 5e 6b bc
       0.5356183 0.037041046 0.40024206 -0.014365822
0000d0 c9 64 09 bf 83 13 4b c0 e8 0e e7 3e af 78 f7 3e
       -0.5366941 -3.173066 0.4512856 0.48334262
0000e0 71 1c 52 bf 9c 5d f7 be ee 13 7b bd cc 23 98 bd
       -0.8207465 -0.48313606 -0.061298303 -0.07428703
0000f0 9a 21 d4 bc f5 4c 35 bf 08 8f f8 3d 85 c4 aa 3e
       -0.025894929 -0.7082055 0.12136656 0.33353058
000100 96 94 0d 3e c5 b8 fc bd 22 b3 36 bd 18 b1 0c bf
       0.13826212 -0.123399295 -0.044604428 -0.54957724
000110 c1 d2 51 bd 93 aa e5 be bb ea ac 3e 67 8e d5 3e
       -0.05122638 -0.448567 0.33772835 0.41710207
000120 e6 fa 3a 3d 05 56 5c be a1 cf 5c 3e b6 79 01 3f
       0.04564943 -0.21517189 0.21563579 0.5057634
000130 dd cf 4e 3d 45 f3 30 bf 86 86 a5 bd 3b 3e 25 3e
       0.050491203 -0.691212 -0.08082299 0.1613702
000140 4e 2c d0 bf 90 c7 21 bd c6 2c b4 3e 3a 6d b2 3d
       -1.6263521 -0.03949696 0.3519041 0.087122396
000150 78 c2 26 3e a0 6a 5f 3e 22 49 02 bf 15 05 96 3e
       0.16285121 0.21818018 -0.5089284 0.29300752
000160 db 08 8e bd f8 69 e9 be cc ac b8 3e f5 79 8c bd
       -0.06935283 -0.4558866 0.36069334 -0.06859199
000170 73 c8 8e 3d eb 5e b3 3d 7f 5a a8 3c 6c f1 da bc
       0.069718264 0.087583385 0.020550964 -0.026726447
000180 33 88 34 bd 3c 7b 9f 3e c5 d5 23 3e 98 3b 9b 3d
       -0.044075202 0.31148708 0.15999515 0.07579726
000190 b5 96 38 be 8c 7b 20 bf 29 78 25 bf f5 93 d1 be
       -0.1802624 -0.6268852 -0.64636475 -0.40933195
0001a0 e4 95 19 3e f3 7d 66 be 74 43 4b bc f9 dd b1 3e
       0.14998585 -0.22508983 -0.012406219 0.34739664
0001b0 c3 93 2b 3d d3 ee 88 bf d8 92 12 3f 18 69 d8 3d
       0.041888963 -1.0697883 0.57255316 0.1056692
0001c0 3c 50 05 bd 3a 41 b7 bd 0b f2 92 bf 62 05 10 3f
       -0.03254722 -0.08947988 -1.1480116 0.56258214
0001d0 f8 e9 57 bd d9 eb 9e be 83 86 11 3f b1 5b 66 bd
       -0.052713364 -0.31039312 0.56845874 -0.056239787
0001e0 27 cb 83 3e b4 f0 c4 bf 5f be 3d 3f 38 87 91 bd
       0.2574093 -1.5385957 0.7411861 -0.07105869
0001f0 15 7e df 3d a3 13 9e 3e 32 71 b6 bd 29 ec c7 be
       0.1091272 0.30874357 -0.08908309 -0.39047363
000200 31 2a 1a be c7 52 9d bd e2 87 03 3f 68 bb 85 3e
       -0.15055157 -0.07681804 0.51379216 0.26119542
000210 2e 0b 6c 3d 2f ff aa bc b6 9b 29 bf 52 24 02 c0
       0.05762785 -0.020873634 -0.6625322 -2.0334668
000220 8f b5 bb 3d 70 cf a9 3d 2a f0 5d 3e 65 3b 62 3e
       0.09165489 0.08291519 0.21673647 0.2209297
000230 61 a2 84 3e 07 3f 1a be 75 c7 ee be 23 02 4e bd
       0.25905135 -0.15063106 -0.4663655 -0.050295006
000240 a0 b4 6f 3d 3d e6 54 bd 4a 40 50 be a8 56 1b 3e
       0.058521867 -0.051977385 -0.20337024 0.15169775
000250 09 01 8a bd 2b 73 03 bf 42 dc 6e 3d af ba 11 3e
       -0.06738479 -0.5134761 0.058315523 0.1423137
000260 44 6e 79 3d 67 0c 20 3e fe 79 20 3e c1 b3 75 bd
       0.060896173 0.15629731 0.15671536 -0.05998588
000270 b2 5b 80 bd 9b df 96 be 11 8f 29 bd 13 49 12 be
       -0.062674895 -0.29467472 -0.041396204 -0.14285688
000280 2e 5e 55 bc ed cb 17 bf 64 8a f2 3e f4 a2 04 bd
       -0.0130229425 -0.5929554 0.4737121 -0.032381967
000290 1e 7a cd 3e ad 54 97 3e a2 e4 ce 3e c4 79 c4 bd
       0.4013223 0.2955679 0.40408808 -0.095935374
0002a0 c3 1b de be 5a ee 39 bd cf 0d 2d be cf ec 04 3e
       -0.43380556 -0.045393325 -0.16899799 0.1298096
0002b0 1e ee 99 bd 57 2e 38 bf f1 5e 81 3e 9c ae b0 bd
       -0.075161204 -0.7194571 0.25267747 -0.08627054
0002c0 55 b3 6d 3e dd b7 7e bd 45 a7 85 be 9e 87 13 3f
       0.23212941 -0.062187064 -0.2610418 0.5762881

fc2.weight f4 [110, 180]
000000 c1 a6 fe 3e 96 3a 03 bf 3f 31 b3 bd 0d c2 02 3f
       0.49736598 -0.5126127 -0.08749627 0.5107735
000010 43 56 dc 3d fc 24 1a be a9 fb d7 3d 06 c1 19 bf
       0.107586406 -0.15053171 0.10546047 -0.60060155
000020 37 e8 59 be 52 57 c8 be b3 4c ee 3e 01 5a e2 be
       -0.21279989 -0.3912912 0.46542892 -0.44209293
000030 ef 76 24 be 03 63 89 be 31 88 b6 be d9 7b 34 3c
       -0.16060995 -0.26833352 -0.3565078 0.011015856
000040 0e 00 96 be 43 ee 53 3e 83 b4 05 3e de a2 d0 3e
       -0.29296917 0.20696358 0.13057141 0.40749258
000050 97 4f 8a be b4 14 1d 3f fa 2a 01 3e 76 1d b5 3e
       -0.27013847 0.61359715 0.1261405 0.3537404
000060 fe 61 27 be bb 4e 31 be 43 bc a7 3d e0 3e a0 be
       -0.16345975 -0.1731519 0.08190205 -0.3129797
000070 e4 e1 c8 be 3d 49 0f 3f a6 d1 3a 3f a9 e4 04 3f
       -0.3923484 0.5597113 0.7297615 0.5191141
000080 52 65 82 bd 56 7a 85 3e 6d 33 fb be db 99 a6 3e
       -0.063669816 0.26069897 -0.49062672 0.32539257
000090 c7 9f 1b 3f 94 da 04 3f f7 08 b2 be 8f 01 c6 bf
       0.60790676 0.51896024 -0.34772465 -1.5469226
0000a0 a6 c2 64 bc ae 21 4e 3e a3 87 65 be 01 9c 8e be
       -0.013962423 0.20130035 -0.22415023 -0.27853397
0000b0 ff 7e 5a 3e a3 52 4a 3f a5 7f 91 bc 69 3c 87 be
       0.21337508 0.79032344 -0.017761061 -0.26413277
0000c0 f3 b6 67 3e 9c b8 7c 3f 18 07 09 bf 0a 64 e4 be
       0.22628383 0.9871919 -0.5352645 -0.44607574
0000d0 4e a6 3c 3f a3 02 25 3d c5 dd c2 bd 23 18 c2 bd
       0.7369126 0.040285718 -0.095149554 -0.0947726
0000e0 87 f3 3b 3e 42 96 a2 bc 33 1a d7 3c 1e ad 1f bf
       0.18354617 -0.01984704 0.02625761 -0.6237353
0000f0 dc 64 ce be 54 68 09 3e 74 02 76 3e c6 81 02 bf
       -0.40311325 0.13418704 0.24024373 -0.5097927
000100 28 2f d9 3e c3 ae 1b be 04 ae 2d 3f 47 96 51 3e
       0.4241879 -0.15203385 0.6784365 0.20467483
000110 db fc 67 be 88 db 8d 3d 5b b2 3a bd a7 fb 6a 3d
       -0.2265505 0.06926638 -0.04558025 0.0573689
000120 27 cb e4 3e ad 0a 15 3f c8 c3 f6 3f 4e 3d a6 3e
       0.44686243 0.58219415 1.9278498 0.32468647
000130 40 0a c3 3e ff 9a dd 3e 46 ef d6 bd 30 60 89 be
       0.38093758 0.43282315 -0.104948565 -0.26831198
000140 0b bf 40 bf d7 19 48 3e b4 b9 d8 3e 75 3a 12 3f
       -0.7529151 0.19541107 0.4232918 0.5712045
000150 8b 9c ec 3c d8 6b c8 bd 3e 56 b3 3e a5 24 31 be
       0.02888324 -0.097861946 0.35026735 -0.17299135
000160 ad 7c 5d bf 9f cb 50 3f 54 05 8d be 29 46 9b bf
       -0.86518365 0.815607 -0.27543128 -1.2130786
000170 0c b1 10 3f 1d cd 38 be c9 5c 1c bf 01 eb 83 be
       0.5652015 -0.18046995 -0.6107908 -0.2576523
000180 d0 90 26 3f ba 77 bf be e4 5b 00 bf c9 66 d0 3e
       0.65064716 -0.37396032 -0.50140214 0.4070342
000190 00 9d 70 3e 21 a7 42 3f 36 02 6d bb cb 77 da 3c
       0.23497391 0.7603627 -0.0036164648 0.02666845
0001a0 2e 0a 2f be 22 9a 67 3f c9 14 50 be 66 d0 52 3d
       -0.17093727 0.90469563 -0.20320429 0.051468275
0001b0 3c 73 df 3d e2 a8 4f bf 16 27 aa bd db 75 bc 3e
       0.10910651 -0.8111707 -0.08308236 0.36808667
0001c0 35 87 6a bf 20 f8 a9 bf 2c 3a 5e 3e e6 65 7f 3d
       -0.9161256 -1.3278847 0.21701878 0.062353037
0001d0 2c 84 34 3f e3 52 42 3d d0 f8 9b be d1 e5 01 bf
       0.7051418 0.04744233 -0.30463266 -0.50741297
0001e0 df 64 1f 3f 65 bd 55 be 17 f4 56 3e 22 54 3e be
       0.6226329 -0.2087303 0.2099155 -0.18586782
0001f0 e1 6d f9 be 79 9d 46 3f 77 12 bc be 71 0b be 3e
       -0.48716643 0.77584034 -0.36732838 0.37118104
000200 f6 69 4a 3f c5 f2 12 bf fd c1 4b 3e 79 12 4d bf
       0.79067934 -0.57401687 0.1989822 -0.8010631
000210 01 9e 84 3d 75 61 51 3e 50 4d 2e 3d ad e2 08 bf
       0.06475449 0.20447333 0.0425542 -0.5347088
000220 4c d8 ba bf 86 f9 19 bf 3a c7 24 bf 45 da 06 bf
       -1.4597259 -0.6014637 -0.64366496 -0.526768
000230 48 ba bc 3e 88 5f 97 3f 81 a5 4c be d4 c4 1a bf
       0.3686087 1.1826029 -0.1998501 -0.60456586
000240 1f 2f 51 bf e9 b3 0c be de 2b aa 3e f9 34 53 be
       -0.81712526 -0.13740505 0.33236593 -0.20625676
000250 84 0c 11 be d1 0d 1d 3f 88 73 71 bf e8 c5 82 be
       -0.1416493 0.6134921 -0.9431691 -0.25541615
000260 32 6a a2 3d dd c1 60 3d 60 fa dd bd f2 4d 17 3f
       0.079304114 0.054872382 -0.10838771 0.5910331
000270 80 9d 98 be 50 24 a1 3e 3d 34 5c 3d dc fc c5 3e
       -0.29807663 0.31473017 0.053760756 0.3866948
000280 f5 f5 7d 3e 6d ad ec 3e b6 6f aa 3e bd 26 13 be
       0.24800856 0.46226063 0.33288354 -0.14370246
000290 54 c9 22 3f 20 32 eb 3c 1e 75 f5 be 05 e4 02 3e
       0.6358845 0.028710425 -0.47940916 0.12782295
0002a0 95 fc 0e 3c 55 0f b8 bd e2 83 78 3e 18 1a 8a 3e
       0.008727212 -0.08987299 0.2426906 0.26973033
0002b0 19 94 4d bf e5 e0 dc 3e 99 99 06 bf 43 2d 85 bf
       -0.80304104 0.4314033 -0.5257812 -1.0404438
0002c0 69 98 bf bd 8c 99 00 3f da 81 4b 3f d5 c8 4e 3e
       -0.09355242 0.50234294 0.7949501 0.20193799
0002d0 d5 99 fd be 16 09 4a 3e 91 6b 81 bf 87 fa b0 3e
       -0.49531427 0.19730029 -1.0110952 0.34566137
0002e0 83 0c b3 bd e8 4e ad bf 73 77 cb 3e 48 93 2c bf
       -0.08742621 -1.3539705 0.3973957 -0.67412233
0002f0 7c 1d a2 3e 51 e0 8b 3d f6 0e dc be eb a8 93 bd
       0.3166312 0.06829894 -0.42980164 -0.07209953
000300 2d 28 30 bf f9 a7 57 bf aa 5b c5 3e 02 65 49 3e
       -0.68811303 -0.8424068 0.38546497 0.19667438
000310 b6 e8 b6 3e 12 7d 11 bf 7b a9 b4 3b ec 56 8c 3d
       0.3572442 -0.5683147 0.0055133677 0.068525165
000320 4f 0c a3 bf b2 5e b2 3e e0 c6 cf 3e 09 d0 4b be
       -1.2738131 0.34837872 0.40581417 -0.19903578
000330 7b 9c 75 3e a1 98 df be e5 21 3a 3f 75 44 07 3e
       0.23985474 -0.43671134 0.7270797 0.13209708
000340 64 11 59 bf df 81 ed 3e 3d 96 dc 3e 8c a2 ec 3e
       -0.8479216 0.46388146 0.43083373 0.46217763
000350 0f 9c a3 bf c5 2e 7d be c2 16 be 3e f3 43 cb 3d
       -1.2782 -0.24724872 0.37126738 0.0992507
000360 42 bf 56 bf cf 04 0a 3f df ca 8c bf 64 84 42 bf
       -0.83885586 0.5391359 -1.0999411 -0.7598326
000370 13 fb 0e 3f ce 01 77 bf b9 93 f6 3d ec e2 a8 be
       0.5585186 -0.9648713 0.120398946 -0.32985628
000380 27 78 d8 bd cd e1 49 3f 62 0d 75 be 60 a0 28 bf
       -0.10569792 0.7886017 -0.23930886 -0.6586971
000390 7b 89 b9 3c bf d3 08 bf ca 9d 9c 3e ad ea 64 3e
       0.022648564 -0.534481 0.30589134 0.22355147
0003a0 78 22 c6 3d 6e b0 7b bc 63 f6 cb be 55 2a 06 3e
       0.09674543 -0.015361888 -0.39836416 0.13102086
0003b0 da 80 2d 3f 31 a8 c1 be f8 e5 7f bf 23 d1 5c bf
       0.67774737 -0.37823632 -0.9996028 -0.8625662
0003c0 78 6f 88 bf ec 00 cf 3e 3d 28 7d 3c 0b dc 0d bf
       -1.0659018 0.4043039 0.015451488 -0.55413884
0003d0 01 72 3f 3c 55 64 5b ba ab 29 27 bf 7f e0 0c be
       0.0116848955 -0.00083691376 -0.65297955 -0.13757513
0003e0 cd fc 92 bf f7 f7 03 3d c5 2d 3a be ca e1 cb be
       -1.1483399 0.0322189 -0.18181522 -0.398207
0003f0 6f 20 e5 be ac c4 47 3f 1e 02 ec 3e 43 4b 80 be
       -0.44751307 0.7803447 0.46095365 -0.2505742

fc2.bias f4 [110]
000000 65 33 df be c5 7f 8a bf 95 25 68 3e 44 ff 29 bd
       -0.43593898 -1.0820242 0.22670586 -0.041503206
000010 75 ca cb be 21 e7 9d be 10 bf 93 3c 38 a9 d7 3d
       -0.398029 -0.308404 0.018035442 0.10530323
000020 b3 8a 34 bf 77 ee cd bc 42 c8 5a bf 29 f1 19 3e
       -0.7052414 -0.025138123 -0.8546182 0.15033402
000030 c2 c2 26 3e 93 f1 ce 3d a0 8d ae be 2b 6e 1f 3e
       0.16285232 0.101046704 -0.34092426 0.1556937
000040 f6 60 71 bf dc 40 af be 54 72 b3 be 82 f9 0b c0
       -0.94288576 -0.3422917 -0.35048163 -2.1871037
000050 04 10 cc bb 7c bd 3f 3e 39 43 05 be 21 29 eb 3e
       -0.006227495 0.18724626 -0.13013925 0.45929816
000060 de 13 06 bf c5 10 8f 3b c7 50 70 3d 75 71 ba bf
       -0.52374065 0.0043660128 0.058670785 -1.4565874
000070 39 ac 85 3e 94 3f 18 bf c4 46 b2 3c 40 59 7f bf
       0.26107958 -0.5947201 0.02176226 -0.9974556
000080 6b c6 3f 3e 40 06 7a 3e 4a 1d f7 be 3e 79 02 be
       0.18728034 0.24416447 -0.48264533 -0.12741563
000090 dc a3 16 be 74 a5 c9 3e a4 e9 23 3d bb 4c 82 3c
       -0.14710945 0.39384043 0.04001774 0.015905729
0000a0 a4 45 f5 be 5b 36 86 be 04 03 ac 3e 02 bf 91 3e
       -0.47904694 -0.26213345 0.3359605 0.2846604
0000b0 c7 db 5a bf cc 9f 26 bf 6a f5 b6 bd 9b f7 ad 3d
       -0.85491604 -0.6508758 -0.08933528 0.084944926
0000c0 94 83 ed 3c f5 05 11 be 38 cc 9f be d5 ba d9 3d
       0.028993405 -0.14162429 -0.31210494 0.106313385
0000d0 bb 1b 43 be 61 c6 98 3e 06 7f dd bd a1 ce fd 3d
       -0.19053547 0.2983885 -0.108152434 0.12392927
0000e0 43 78 c8 be 53 bf 4a bf 96 e5 11 bf 91 fe eb 3d
       -0.39154252 -0.7919819 -0.56990945 0.11523164
0000f0 a0 05 e2 be 78 5b 88 3d 4d 7e 6f 3d d6 ce 31 be
       -0.44144917 0.06658071 0.05847006 -0.17364058
000100 55 cb f5 bd 03 30 a4 be e7 21 e4 3d fb 32 94 3e
       -0.12001673 -0.3206788 0.11139279 0.28945145
000110 b9 96 b8 3d e9 ac 96 be e5 f3 3d 3e fd d7 dc 3e
       0.09013123 -0.29428795 0.1855007 0.43133536
000120 cc 20 70 3d b7 28 74 3e 5e 44 e8 be 82 e1 63 3d
       0.058625028 0.23843656 -0.4536466 0.055634983
000130 d7 94 62 bf 83 8a f5 bd 46 77 0e bf 22 e8 19 bf
       -0.8850836 -0.1198931 -0.55650747 -0.6011983
000140 61 7c b9 3e b9 4d 9b be 52 d0 90 bf 17 f7 53 3d
       0.36227706 -0.30332735 -1.1313574 0.051749315
000150 e7 7b bf bf 0c da b5 be 57 db 6e 3e 41 12 3a 3e
       -1.4959687 -0.3551792 0.23325859 0.18171026
000160 d0 96 69 bf 64 19 5a bd 95 5e e0 bf 3c 76 2e be
       -0.91245747 -0.05324687 -1.7528864 -0.1703729
000170 e2 c3 81 3e b3 54 80 3d ac 13 a6 be 6c 74 9a be
       0.2534476 0.06266155 -0.32436883 -0.30166948
000180 b6 ee 33 bf 72 c3 08 bf a4 9a 41 bf 2d 81 80 3d
       -0.7028612 -0.53423226 -0.7562659 0.06274638
000190 79 de 0e bf 0b db 0e 3e b5 af 0a bf fc db a9 bf
       -0.55808216 0.13950746 -0.5417436 -1.3270259
0001a0 59 15 18 bf 27 e9 69 3d 46 c6 7c 3e 3f 22 5c 3e
       -0.59407574 0.057107117 0.2468501 0.21497439
0001b0 71 4b 11 bf 18 08 b7 3e
       -0.5675574 0.35748363

fc3.weight f4 [55, 110]
000000 a5 84 2e bd 52 3d 95 3d 63 df 4a 3c 66 ca 8c 3d
       -0.04260697 0.072870865 0.012382361 0.06874542
000010 af 19 d8 bc 3c ca ef bb 55 55 b7 3b 87 b9 8d bd
       -0.026379434 -0.0073178094 0.005594889 -0.06920152
000020 be c9 bb 3d f2 e6 d1 3c f9 9d 05 3e c9 4b 8b bd
       0.09169339 0.025622819 0.13048543 -0.06801564
000030 c8 4a 62 bc 31 32 06 be 5c 45 29 3e 47 b2 3b 3e
       -0.013811775 -0.13105084 0.16530365 0.18329726
000040 65 64 c7 bd 93 79 d0 bd 71 b8 6c be 96 8f 47 3e
       -0.097359456 -0.101794384 -0.23117234 0.19488367
000050 54 5b bd 3d b2 92 73 bd c4 70 f2 3e 60 79 38 be
       0.09245935 -0.05946607 0.47351658 -0.18015051
000060 3d 2b b7 3d de 31 54 bd b9 2a a0 be 46 c4 27 3d
       0.08943794 -0.05180537 -0.31282595 0.040958665
000070 34 91 18 3d 7a d9 8b bd 2d d8 8f bd 77 95 ed 3d
       0.03724785 -0.0682859 -0.07023654 0.11600774
000080 a6 44 9c 3d 6b cb 7d bd 64 3b a0 bd 05 7a 81 3e
       0.07630281 -0.061961573 -0.07823828 0.25288406
000090 ac e5 d9 bd ce 4e 86 bf a7 a4 04 be f7 fd 79 3e
       -0.106395096 -1.0492799 -0.12953435 0.24413286
0000a0 87 1d ec bd 49 89 dd bd 11 ca 64 3d ac 02 33 3e
       -0.115290694 -0.10817201 0.055856768 0.17481488
0000b0 8e 42 98 3b a8 85 5a bd fd dd e7 bd 4d fc a0 bd
       0.004646606 -0.05335012 -0.11321638 -0.078606226
0000c0 29 df ed 3d 61 a0 2d be 4a 63 65 3e 0a 1f 32 be
       0.1161483 -0.16955711 0.22401157 -0.17394653
0000d0 a2 a6 34 bc af 87 cd bf 6b a4 1b 3b a5 fd 15 3d
       -0.0110260565 -1.6057032 0.0023749124 0.036618847
0000e0 1d 9b 6c 3e fb 0a 50 3e 31 f6 36 3d 97 af 0d 3f
       0.23106046 0.20316689 0.04466838 0.55346054
0000f0 a1 a4 b0 bd 31 7e 9b 3a 12 dd e1 bc 14 3e b8 bd
       -0.086251505 0.001186317 -0.027571235 -0.089962155
000100 d0 9a 50 3c eb ad 39 3c dc 1d 5d bd f8 69 38 be
       0.012732223 0.011332969 -0.053983554 -0.18009174
000110 b2 13 60 bc ff 65 af bc e2 35 04 3e 14 0a 88 be
       -0.013676571 -0.02141094 0.1291118 -0.2657019
000120 05 f4 30 be 31 21 81 3e 5c bd 93 3c 7e da 1a be
       -0.17280586 0.25220636 0.01803463 -0.1512241
000130 78 b9 69 3e 9c 2a cb 3d a9 00 4c 3d 31 96 6d 3e
       0.22824657 0.099202365 0.049805317 0.23201825
000140 d9 64 00 3d 2e 83 37 bd 54 99 96 bc 10 09 1e bd
       0.031346176 -0.044802837 -0.01838366 -0.03858286
000150 03 05 90 3d 96 51 9a bd 8b 06 d4 3d fe 97 cf 3d
       0.07032206 -0.075350925 0.103528105 0.10136412
000160 b1 59 c8 bd ab b1 e2 bd b4 29 18 bd e6 18 9b 3d
       -0.09782732 -0.11069044 -0.037149146 0.075731084
000170 a9 b3 aa be 4f 02 62 3d 96 02 8c bb bc 19 81 bd
       -0.33340195 0.055177983 -0.004272769 -0.063037366
000180 4e ce 24 3e 54 3d c1 bd eb e8 1d 3d d6 25 f3 3d
       0.16094324 -0.094355255 0.038552206 0.11872451
000190 c2 d7 88 3e 4a 54 4f be 24 04 99 3d 47 04 e2 3c
       0.2672711 -0.20246997 0.07471493 0.02758993
0001a0 04 0a 07 be 80 3d ad bd 50 c9 87 3e 95 d6 b1 bc
       -0.13187414 -0.08458996 0.26520777 -0.021708766
0001b0 ee b4 58 be 05 60 2e bd 84 46 2e 3d 72 60 0e 3d
       -0.21162769 -0.04257204 0.042547718 0.034759946
0001c0 55 20 87 bd e9 b1 1c bd cb b7 a5 bd 0c 07 26 3d
       -0.06597964 -0.038255606 -0.08091696 0.040534064
0001d0 1c da 30 3e 51 fd 2b bf 70 66 46 3e 5b 62 d3 39
       0.17270702 -0.67183405 0.19375014 0.00040318337
0001e0 3e 45 85 be 4b e0 a2 3c fe a8 da b9 8c a6 11 3d
       -0.2602939 0.019882342 -0.0004170611 0.035559222
0001f0 b0 41 a7 be 77 c0 99 3d c4 b5 fa 3d c0 ef 78 3c
       -0.32667303 0.07507413 0.122417 0.01519388
000200 92 2d 05 bc 52 86 2e be c9 13 b3 bd 0f b5 7e 3e
       -0.008128541 -0.17043427 -0.08744008 0.24873756
000210 c5 aa b9 3b be cb b9 bc e8 14 8e 3c 78 c0 81 3c
       0.0056661093 -0.02268016 0.017343953 0.015838847
000220 c7 53 84 bd e7 dd 46 be 3a 35 f5 bb 8c 2b 09 be
       -0.06461292 -0.19420587 -0.0074831517 -0.13395518
000230 ea 4f 65 be 36 3a dc bd 36 76 e4 bd ba d0 51 bc
       -0.22393766 -0.1075329 -0.111553594 -0.012806112
000240 c9 e4 ff bb 74 72 26 bc 50 6b 6e bc e4 29 f8 bc
       -0.0078092557 -0.010159124 -0.0145519525 -0.030293413
000250 6f c0 8a 3d 28 c1 28 be fe 64 e1 b9 f4 08 61 3e
       0.06774985 -0.16479933 -0.0004299059 0.21976072
000260 b4 f0 e3 3d 06 71 a3 be 53 a5 a5 bd 5a 2b 63 3d
       0.11129895 -0.31922168 -0.08088174 0.055461265
000270 12 f7 0c bc 94 41 9a bc 23 6f a1 3d 35 d7 32 bd
       -0.008603828 -0.018830098 0.07882526 -0.04366227
000280 6c b8 93 be 8c ca 35 bc 3b de d6 3d a5 e0 5b 3d
       -0.2885164 -0.011095654 0.10491606 0.053681035
000290 a9 25 bf 3d ab 6f a9 bd 78 9a 75 be fe aa 79 be
       0.09333355 -0.08273252 -0.23984706 -0.24381635
0002a0 02 73 02 bd b4 a0 2a be 06 af aa bd a7 38 18 3e
       -0.03184796 -0.16662866 -0.08334164 0.14865361
0002b0 f1 91 7f be 30 b9 02 3e b4 7c d7 bd 1e 5c f1 bc
       -0.24958016 0.12765956 -0.10521832 -0.02946287
0002c0 e2 a4 13 3e 6c d5 e1 bc 47 f9 cd bd 60 b9 f8 bd
       0.14418367 -0.027567588 -0.100573115 -0.121447325
0002d0 4c 8d b5 3e ed 23 b6 bd d0 57 02 3e 37 da 4d be
       0.35459363 -0.08893571 0.1272881 -0.20102774
0002e0 30 bf 05 3d 66 3f 98 bd b9 7c e5 3c 15 92 7e bc
       0.032653034 -0.07433967 0.028013574 -0.015537758
0002f0 f5 48 7b 3d 23 a1 a3 3b 74 bb df 3d 9d 88 ff bd
       0.061348874 0.004993574 0.10924426 -0.12477229
000300 45 46 3f 3b 93 03 14 bc a7 48 70 be a0 00 a0 3d
       0.002918617 -0.009034055 -0.23465215 0.07812619
000310 5c 2a 76 3d ad 97 bc bd c9 7e e9 bd be 69 cb bc
       0.06009899 -0.09208617 -0.114011355 -0.024830695
000320 dc d3 fa bd 4a 8d a2 3d 71 51 22 3d b3 4f c7 bd
       -0.1224744 0.07937105 0.03962845 -0.09731998
000330 e1 6a f6 bc da 7d de 3d dc 8b 17 3d c5 3b f9 bc
       -0.03008026 0.10863848 0.036998615 -0.030424008
000340 f8 d7 d3 3d e4 03 57 be af 3a 96 3d 00 75 69 bd
       0.10343927 -0.20997578 0.07335412 -0.056996346
000350 a9 29 81 3d 74 54 92 bd 9c 35 6c bd d5 3f d9 bd
       0.06306774 -0.071450144 -0.057668313 -0.10607878
000360 01 a2 93 bd fa e8 45 bd 42 b8 31 bd 24 5f c9 3c
       -0.07208634 -0.048317887 -0.043388613 0.0245815
000370 50 46 07 bf 35 3f 14 be b6 0c b0 3f e3 0a 0b 3e
       -0.52841663 -0.14477237 1.3753879 0.13578372
000380 bc 38 8b be 8c 80 c2 bf e3 22 7c 3e 06 f7 ed 3e
       -0.27191722 -1.5195479 0.24622683 0.46477526
000390 78 36 64 bf fd e6 37 40 8c 31 b3 3d c6 b0 85 be
       -0.8914561 2.8734734 0.08749685 -0.2611143
0003a0 54 86 9e be 42 38 6e 3e 47 c4 c0 3f 69 6a a5 be
       -0.3096186 0.23263648 1.5059899 -0.32307747
0003b0 97 fe 69 3f 99 56 b6 bf ad a0 21 bf c0 6f 15 40
       0.914041 -1.4245178 -0.63135797 2.3349457
0003c0 19 a8 44 3e 98 79 92 3e 90 d3 53 be 4d 08 a3 3d
       0.19204749 0.28608394 -0.20686173 0.079605676
0003d0 e1 31 ad 3e 27 ae 77 be ec 8a 1f 3e 3c a4 28 3e
       0.33827117 -0.24187528 0.15580338 0.164689
0003e0 79 0f 67 3f c6 3f f6 be 63 23 ea 3c 86 73 3d 40
       0.90257984 -0.4809553 0.028581327 2.960176
0003f0 2d af a2 bd a4 93 9f bf 92 c0 d5 bf 1d 91 08 40
       -0.079435684 -1.2466931 -1.6699393 2.133857

fc3.bias f4 [55]
000000 74 8e cf 3e ad 68 8b 3e e2 a6 f1 be c4 41 a7 3e
       0.4053837 0.272283 -0.47197634 0.32667363
000010 95 d5 a8 3e 11 8c 71 3e 80 81 bd 3e 36 71 a0 3e
       0.3297545 0.23588587 0.37012863 0.31336373
000020 e2 8e ae 3e b7 48 9d 3e 73 0e c5 3e 74 f5 ee 3e
       0.34093386 0.3071954 0.38487586 0.4667164
000030 19 35 5e 3f 70 17 92 3e d9 1b f2 be fe 87 43 bf
       0.8679977 0.28533506 -0.4728687 -0.7637938
000040 20 e4 69 3e 61 24 09 bf e6 ff 28 bf 88 1b f8 be
       0.22840929 -0.53571135 -0.6601547 -0.48458505
000050 a0 bb 89 3e be 69 ce 3e a1 35 a9 3e 13 71 9e 3e
       0.2690096 0.4031505 0.33048728 0.30945644
000060 68 f7 65 3e a7 47 95 3e a5 3c e4 3e e7 8c 1b be
       0.22457659 0.2915623 0.44577518 -0.15190469
000070 66 fe 49 bf 11 95 83 3e d3 ea 2b bf 54 a9 60 3e
       -0.78903806 0.25699666 -0.6715519 0.21939594
000080 e6 13 10 bf 6f 2b c1 3e eb 03 9b 3e 48 8a 89 3e
       -0.5628036 0.3772845 0.30276427 0.26863313
000090 f2 68 53 bf 08 a1 48 bf 6c ba 90 3e b5 77 16 3f
       -0.8258201 -0.78370714 0.2826723 0.5877641
0000a0 48 a6 9b 3e 7a 64 b8 3e fa 0e b3 3e 95 d5 b9 3e
       0.304003 0.36014158 0.34972364 0.36295763
0000b0 02 b0 78 3e 58 f3 a6 3e e6 5b 0b bf c7 10 b0 3e
       0.24285892 0.32607532 -0.544371 0.343878
0000c0 f6 04 1a bf 0b 01 2c bf 37 aa af 3e a4 30 85 3e
       -0.6016382 -0.6718909 0.3430955 0.26013672
0000d0 ab de 37 bf 1e 4b 54 bf 79 22 84 3e
       -0.7182414 -0.8292712 0.2580755

fc4.weight f4 [30, 55]
000000 90 16 8c bd 14 a0 7f bd e3 d4 00 bc 1b 43 9d 3d
       -0.06840241 -0.06240852 -0.007863256 0.07678815
000010 95 b4 17 bc b5 cb af 3d be e5 db 3d 93 58 07 3d
       -0.009259363 0.08583776 0.10737179 0.033043455
000020 06 c7 98 3d 41 27 b0 3c 35 94 09 bd 5e c6 43 bc
       0.07459836 0.021503093 -0.033588607 -0.01194915
000030 be 29 09 3c 46 4f c4 bd 7c ef 43 3c b2 7f 05 be
       0.0083717685 -0.09585433 0.011958953 -0.13036993
000040 e4 8c 3b 3d c0 0e fd 3d f5 7f 81 3c fe f9 1a be
       0.04578866 0.12356329 0.015808085 -0.15134427
000050 50 26 af bb 15 cb 17 bc 75 9a 6e bd 76 78 8f 3b
       -0.0053451434 -0.009264727 -0.05825277 0.0043783737
000060 f0 78 52 bd 91 c6 1d bd 60 51 dd bb 4c 74 3e 3d
       -0.051384866 -0.038519446 -0.0067540854 0.046497628
000070 89 59 80 bc 5d 31 06 3e 62 e6 4f 3e 46 72 25 3d
       -0.015667694 0.13104768 0.20302728 0.040392183
000080 9a b1 66 bd 63 64 ff bc 5d 68 0b bd b8 5f 04 bd
       -0.056321718 -0.031175798 -0.034035075 -0.032317847
000090 3d 1f bf 3d 16 82 f0 3d 47 b7 e9 3c be dd 76 3a
       0.0933213 0.11743562 0.028529776 0.00094171974
0000a0 ff 11 a1 3d 20 5f 3a be b5 17 05 3c 1a 84 78 3d
       0.078647606 -0.1820035 0.008123328 0.060672857
0000b0 76 82 9e bd c3 c7 4c bb 9f 6e c4 bd a1 2b a6 bd
       -0.07739727 -0.0031246997 -0.09591412 -0.0811379
0000c0 b8 f9 cb bc 52 f1 5d bc 48 7a 4c 3d 2f b5 32 3d
       -0.024899349 -0.013546305 0.049921304 0.04362982
0000d0 a8 03 d4 3d a8 2b 60 bd 95 81 c0 3d c4 e4 67 3a
       0.1035226 -0.054729134 0.09399716 0.00088460394
0000e0 57 16 ad bb d8 f3 48 3d 20 64 21 bc 06 fa 9e 3d
       -0.005282204 0.049060673 -0.009850532 0.07762532
0000f0 37 d1 62 3d a2 f4 df 3d d9 5e f8 bd 04 53 fb bc
       0.055375304 0.10935332 -0.12127466 -0.030679233
000100 10 15 05 bb f2 b9 a5 bc 4d bc 35 3d d1 99 e1 bc
       -0.0020306744 -0.020230267 0.04436903 -0.027539166
000110 26 e1 b2 3d 51 8a 14 bd 7c da 24 3d 2f 5a 00 3c
       0.0873435 -0.03626472 0.040247425 0.007834001
000120 1e 51 17 3e e7 11 84 bd 16 13 0d be 46 e7 c3 bc
       0.14777038 -0.06448727 -0.13776812 -0.02391399
000130 f8 f4 6a bc 44 b0 9a 3c 10 fe 45 bd 36 a3 eb bb
       -0.014340632 0.018882878 -0.048337996 -0.007191087
000140 cb 62 19 3d 04 97 5c bc d7 60 aa 3b 7f e6 71 3d
       0.037447732 -0.013463739 0.0051995325 0.05905771
000150 19 8d eb 3c 36 f9 7b 3e 0c 72 9f bc f5 db 93 3b
       0.028753804 0.24606785 -0.019463561 0.004512305
000160 c9 68 05 bc a6 8a b0 bc 0b 1e 80 bd c5 ee 31 be
       -0.0081426585 -0.021550488 -0.0625573 -0.1737624
000170 2d 96 3d bd dc 7e cc bd 81 8b ea bb 33 95 bd 3b
       -0.046285797 -0.09985134 -0.0071577434 0.005785608
000180 8e fb 1c 3e 0d 89 c4 bc 56 9b d5 3c 19 88 55 bd
       0.15330335 -0.023991132 0.026075047 -0.052131746
000190 b9 c9 56 3c ad 93 cf be aa 9d f5 3c db 6d fb bd
       0.013109618 -0.40542355 0.029982407 -0.12276813
0001a0 62 b3 1d be 53 88 b4 bd 90 be 16 3e 05 c3 d4 3e
       -0.1540046 -0.08815064 0.14721131 0.41555038
0001b0 8f 65 77 3d c3 16 3d bd 72 b7 c7 3c bd f6 03 bd
       0.06039959 -0.046164285 0.024379466 -0.03221773
0001c0 47 69 92 bb 78 49 96 3c 00 46 24 bd db 66 46 be
       -0.0044681164 0.01834558 -0.04010582 -0.19375174
0001d0 55 d7 1a bd fa b9 1e bd 9a 38 75 3e 02 75 60 3c
       -0.037803013 -0.03875158 0.23947373 0.013699772
0001e0 10 98 a4 3c 33 b3 11 3c 77 9f b4 bb c6 a5 b5 3c
       0.02009204 0.008892822 -0.0055121738 0.022173773
0001f0 96 8b 4c 3c 2b 2a 1e bd c9 8a 36 ba f2 78 3b be
       0.012484452 -0.038614433 -0.00069634296 -0.18307856
000200 83 7e fe bd e9 30 59 be 92 94 21 bc 96 b8 c7 ba
       -0.12426474 -0.21210064 -0.009862082 -0.0015237506
000210 1f 61 08 3c e5 de c7 3c 76 9b 6f 3d 45 45 18 3c
       0.008323937 0.024398277 0.05849787 0.009293859
000220 9f 0e 4f bc b3 db f1 bb db ca d4 bc 3f 7e aa bd
       -0.012637763 -0.0073809265 -0.025975635 -0.08324861
000230 85 f8 ed bd 11 2a 97 bd fe 83 ae bc 0d a9 27 3d
       -0.11619667 -0.073810704 -0.021303173 0.040932704
000240 d6 40 02 3c 09 a5 2c 3e a2 fb 6f 3d 03 24 3e 3d
       0.007950028 0.16859831 0.058589585 0.046421062
000250 fb 7b 0b be f6 c6 a6 3b 83 62 5a bc c0 e7 69 bd
       -0.13621514 0.005089636 -0.013329151 -0.05710578
000260 9c b6 1a 3d 21 55 a5 3c a1 f8 f4 bc be 6e d9 bc
       0.037771806 0.020182194 -0.029903712 -0.026542064
000270 07 64 5c 3d 5a 9f 09 be 2e 90 bb 3d 7d 1b 29 3d
       0.05380633 -0.13439694 0.091583595 0.04128598
000280 78 12 35 bd 98 27 20 3d 88 62 8e bd 13 65 f9 3d
       -0.044207066 0.03910026 -0.06952387 0.121774815
000290 25 88 48 3c 88 9b b2 bd 4b 13 c4 3c c5 f5 06 be
       0.012239491 -0.087210715 0.02393498 -0.13179691
0002a0 0e 0b 3e bc 11 8e 01 3d a9 fc 46 3e c9 d2 c3 bd
       -0.011599315 0.031629626 0.1943232 -0.095616885
0002b0 da d3 e2 3c 47 3b 67 bc 58 0e 1b bc e9 0e 4b bc
       0.02768891 -0.014113254 -0.009463869 -0.012393692
0002c0 16 fa e3 bd a3 a7 d6 3c 24 79 be 3c 22 a7 48 3e
       -0.111316845 0.026202982 0.023251124 0.19595006
0002d0 a6 a0 b7 bd 10 01 10 3d a8 f8 33 3e d2 07 10 3e
       -0.08966188 0.035157263 0.17575324 0.14065483
0002e0 c2 11 82 3e 9b cd 8b bd 93 29 19 3b a1 f8 26 bd
       0.25404173 -0.068263255 0.0023370727 -0.040764455
0002f0 e2 a8 6c bc 67 51 3e bd b3 c6 04 bc 38 51 f3 bd
       -0.014444562 -0.04646435 -0.008104014 -0.118807256
000300 27 e3 4a bd b1 15 ba 3d a7 0c e7 3b 7d 02 64 3d
       -0.049533036 0.090861686 0.007051069 0.055666436
000310 e6 94 de 3b 11 da 49 3e 2a ab 64 bd bf 44 b9 3d
       0.0067926524 0.19712092 -0.055827297 0.090463154
000320 2e b4 02 3e e5 c4 84 bc 14 bf 05 3e a7 ec 80 bd
       0.12764046 -0.016207168 0.13061172 -0.06295138
000330 90 6f ba 3b 09 9f 67 bd ae bf ed bc 21 93 1a 3c
       0.005689569 -0.056548152 -0.029022064 0.009434492
000340 47 b3 3c 3d 37 7c 5b 3d 1b 39 b9 bc 64 ac d4 3d
       0.04606941 0.053585257 -0.022610238 0.103844434
000350 51 5e 2c bd ef 4e be bd 02 d3 1b 3e 66 6f 2c 3d
       -0.042082135 -0.09292399 0.15217212 0.042098425
000360 cb b0 4d 3a de 4b e4 3d ed 12 21 bd a9 e9 40 3e
       0.00078464736 0.11147283 -0.03932469 0.18839134
000370 5c 04 b9 3d 75 eb d8 bc 56 89 28 bc b2 7c 0d 3d
       0.090340346 -0.026479462 -0.01028665 0.034542747
000380 79 80 2f be b3 1e fe bb 52 ad 5b ba 2e bd 17 3c
       -0.17138852 -0.0077551245 -0.0008380014 0.009261413
000390 c9 ec 23 bc 8e 18 e2 bc bf e2 30 bd 3b 34 da bc
       -0.010005184 -0.0275996 -0.043184992 -0.026636234
0003a0 f1 b0 8c bb c0 b0 e4 3c 56 b4 fa 3c 33 d6 4c be
       -0.004293554 0.027916312 0.030603569 -0.20003586
0003b0 3b e9 1a 3d 89 f3 27 3d 83 e6 99 bd df db 44 3d
       0.037820082 0.041003738 -0.0751467 0.048061248
0003c0 af 63 86 bd 49 57 d3 bc bc 94 d0 bd dc 6b 84 3b
       -0.06561982 -0.025798457 -0.10184619 0.004041178
0003d0 1c b9 32 3c 0a 7e 90 bc e5 e4 54 bc e8 4f de 3b
       0.010908391 -0.017638225 -0.012994026 0.006784428
0003e0 06 89 e4 3c df 72 06 3d 9c ff 56 be 93 0b 32 bd
       0.02789737 0.032824393 -0.20995945 -0.04346807
0003f0 15 a4 82 3e 65 c0 85 bd 16 f0 17 3d 43 31 0b be
       0.2551581 -0.06530837 0.0370942 -0.1359301

fc4.bias f4 [30]
000000 9b 2a 06 be 7c 10 84 bd 02 91 64 bd 60 b1 d9 bb
       -0.1310219 -0.06448457 -0.055802353 -0.006643459
000010 2a 59 88 3d c0 e7 05 bb 70 4e 0e bd 18 48 a2 bd
       0.06657632 -0.0020432323 -0.034742773 -0.07923907
000020 50 59 f8 bd 80 e9 d8 ba 60 61 92 bc be 56 8c 3d
       -0.1212641 -0.0016549081 -0.017868698 0.06852482
000030 30 3a 6b 3d 8d 9b 9a bd 38 09 9e 3d 16 86 e3 bd
       0.05742854 -0.075492 0.07716602 -0.11109559
000040 6e e3 a8 bd 4c 95 b7 3d d6 c2 8f 3d b8 8f 60 bd
       -0.08246504 0.08964023 0.07019584 -0.05482456
000050 58 74 71 bd 90 c5 2f 3d ea f5 b4 bd a0 da 89 3c
       -0.058948845 0.04291302 -0.08835967 0.016827881
000060 f0 01 6d bd 5d 84 a1 bd e2 1c 64 bd 64 63 50 3d
       -0.057863176 -0.078865744 -0.055691607 0.050876036
000070 52 91 b7 bd 24 ec b2 3d
       -0.089632645 0.087364465

fc5.weight f4 [15, 30]
000000 74 24 1a be 4d 9f 96 bd 6b 59 d8 bd 90 dd 05 3c
       -0.15052968 -0.07354603 -0.1056393 0.0081705
000010 cf 90 ce bd 00 34 81 3c 4b a0 a3 bd 5a 2a 19 be
       -0.10086214 0.015771866 -0.07989558 -0.14957562
000020 0e 96 2d 3e c0 03 68 bb a8 3e 01 be 2a 33 37 3e
       0.16951773 -0.0035402626 -0.12621558 0.17890611
000030 88 b7 2a bd c8 fe c2 bd 26 3b 12 be 6c 58 c3 3d
       -0.041678935 -0.09521252 -0.14280376 0.095383495
000040 18 23 3f 3d ab 12 fa bd 98 23 dd bc e4 40 bf 3d
       0.046664327 -0.12210592 -0.026994511 0.09338549
000050 13 96 be bd f0 65 bf 3d 4a b2 08 3e 7c 5e 1f 3e
       -0.09305968 0.09345615 0.13349262 0.15563387
000060 00 cc f4 39 c8 8e 3a 3d 4b af ba bd 58 01 7e bd
       0.00046691298 0.045546323 -0.09115466 -0.062013
000070 4c 90 c2 3d 2c c1 5f 3d fe 84 c1 bd 2b 30 e9 bd
       0.09500179 0.054627582 -0.09449194 -0.113861404
000080 8e 00 26 3e 9c fa 37 3e 98 16 cd 3d b0 25 07 3c
       0.16211149 0.17966694 0.10014075 0.0082487315
000090 f8 02 c7 bc 08 35 0d 3e 60 63 99 3d 50 98 2d 3c
       -0.024293408 0.13789761 0.074896574 0.010595396
0000a0 48 d5 31 3e 89 f7 30 be 74 c9 ab bd ca 43 03 be
       0.17366517 -0.17281927 -0.083880335 -0.12818828
0000b0 58 2e 2f 3e 24 44 cd 3d e4 28 04 3d 46 03 1b 3e
       0.17107522 0.100227624 0.03226556 0.15137967
0000c0 7a 83 1b be 00 85 97 bb 58 ff 41 3d 62 7a d0 bd
       -0.15186873 -0.004624009 0.047362655 -0.10179593
0000d0 19 f2 04 be d4 0b 16 bd 8c 50 05 be 78 59 ab bc
       -0.12982978 -0.036632374 -0.13019007 -0.020916685
0000e0 42 9f 1a 3e b4 a8 b6 3d b0 23 2d 3c f8 a0 a9 3d
       0.15099815 0.08918896 0.010567591 0.082826555
0000f0 d7 79 a1 bd 44 a1 02 3e 2a 47 26 3e c0 88 72 3c
       -0.07884567 0.1275683 0.16238084 0.014803112
000100 c7 fc 05 be ce 48 26 3e d0 a2 e9 3d 40 03 52 3c
       -0.13084708 0.1623871 0.11408007 0.012818158
000110 68 a9 17 be b0 52 9a 3c 98 98 84 3c b0 91 68 bc
       -0.14810717 0.018838257 0.016186044 -0.014194891
000120 70 00 a6 3d 70 7e 39 be a4 71 f7 bd 98 fd 58 3d
       0.08105552 -0.18114638 -0.12082222 0.05297622
000130 ce 2d 76 bd e2 5b 2a be f9 aa 25 be b8 09 f6 bd
       -0.060102277 -0.16636613 -0.16178502 -0.120135725
000140 f3 e9 00 be ac a2 d6 bd f0 df e3 3d 90 a4 d5 3c
       -0.12589245 -0.10480246 0.11126697 0.026079446
000150 9a ba 07 3e b7 e1 bd bd 70 b8 85 bc d0 6a 13 3e
       0.13254777 -0.09271567 -0.016323298 0.14396214
000160 7c 7d 91 3d b1 07 e5 bd f0 22 f8 bc 70 83 b9 bc
       0.07104012 -0.11183108 -0.030290097 -0.022645682
000170 20 c0 35 be 73 12 da bd 40 04 0e 3d aa b1 89 bd
       -0.17749071 -0.1064805 0.034672022 -0.0672334
000180 00 bf f4 3c c0 8a 38 3e 25 11 cb bd fe 60 36 3e
       0.029876232 0.18021679 -0.099153794 0.17810437
000190 00 93 5b ba d0 d6 df 3d c0 21 81 3b cc 62 4f 3d
       -0.0008376092 0.10929644 0.003940791 0.05063133
0001a0 40 ae 92 bc c1 e7 ec bd cc d2 93 3d 90 fe cc 3c
       -0.017905354 -0.11567641 0.07217941 0.025023729
0001b0 ea 92 f7 bd f7 ec 21 be ec 52 10 3d 96 c1 cc bd
       -0.120885685 -0.15813051 0.03523533 -0.09997861
0001c0 c2 7b 12 3e f0 00 9d 3d 78 5d 07 bd d5 21 09 be
       0.14305022 0.076661944 -0.033048123 -0.13391812
0001d0 84 78 1e be 75 cb 14 be 2c ba 06 3e cf 68 1e be
       -0.1547566 -0.14530738 0.13156956 -0.15469669
0001e0 e3 9f 2a be 79 af eb bd 51 bf 9b bd 14 33 0d 3e
       -0.16662554 -0.11508078 -0.0760485 0.13789016
0001f0 c8 bc e9 3c 2c 58 0f bd 90 8e 29 be 9e 07 06 3e
       0.0285324 -0.034996197 -0.1655829 0.13088843
000200 c4 97 7e bd d8 00 b9 3d dc 6d c6 3d 3c da 53 3d
       -0.062156454 0.09033364 0.09688923 0.051721796
000210 74 7e 66 3d 8f 0e b7 bd b8 f0 f7 3d 70 00 09 bc
       0.05627294 -0.08938324 0.1210646 -0.008361921
000220 00 88 b9 b9 1c db dd 3d 5b cc 33 be c3 a9 9c bd
       -0.00035387278 0.108328074 -0.17558424 -0.07649567
000230 8c c9 fa 3d 32 b3 04 3e 50 81 b1 bc 34 73 c0 3d
       0.12245473 0.12958983 -0.021668106 0.09396973
000240 20 54 30 be 08 4c 15 3e 18 47 b8 bd 15 49 1d be
       -0.17219591 0.14579785 -0.08997935 -0.1535991
000250 c0 21 34 3d 78 ca d5 bd a6 56 08 3e 34 52 d5 3d
       0.0439775 -0.104390085 0.13314304 0.104160696
000260 a0 9a f6 3c 04 a3 af 3d 90 bf 09 3e 2f 34 f0 bd
       0.030103028 0.08576015 0.13451982 -0.11728703
000270 42 99 05 be 60 09 58 3c 70 ad 00 3e 2e af 0f be
       -0.13046744 0.013185829 0.12566161 -0.1403167
000280 b2 c6 11 3e 58 63 59 bd 2d dc 23 be bc bb 3a bd
       0.14235952 -0.053073257 -0.16001959 -0.045589194
000290 05 c8 8d bd 3c 87 86 3d 48 7e 37 3e 80 57 39 be
       -0.06922916 0.06568763 0.17919266 -0.18099785
0002a0 7e 41 39 be 04 e6 01 be b0 8a 91 bc c5 a1 1e be
       -0.1809139 -0.126854 -0.017766327 -0.15491398
0002b0 48 1d ed bd 98 d4 64 bd 8c a0 15 3d 42 07 1b 3e
       -0.115778506 -0.055866808 0.036530063 0.15139487
0002c0 f0 f3 0a 3d 40 48 76 bc 0c 5f b3 3d 7c ca 26 bd
       0.033924043 -0.015031874 0.08758363 -0.040720448
0002d0 09 02 bc bd e0 c7 8a bc 81 50 9f bd 40 f9 e5 bb
       -0.09180076 -0.016941011 -0.07779027 -0.0070182383
0002e0 2c 21 b7 3d 4c 69 35 be 69 64 06 be c4 5a 72 3d
       0.08941874 -0.17715949 -0.13124241 0.059168592
0002f0 79 51 cc bd c0 5c 5d bd 42 a7 1e be 9c 8d 1c 3e
       -0.09976477 -0.05404353 -0.15493491 0.15288395
000300 ad f7 26 be cc 1d 63 3d 90 1d 25 be 70 d6 1c 3d
       -0.16305418 0.05544834 -0.16124558 0.03829044
000310 5c bf 3a 3e a0 a3 bd 3b 68 d8 d8 3d 33 11 bc bd
       0.1823706 0.005787328 0.10588151 -0.09182968
000320 88 d0 20 bd 1c 4c 32 3e c4 92 f0 3d e0 91 21 3e
       -0.03926137 0.17411846 0.11746743 0.15778303
000330 f8 d6 2c be d0 9f 86 3c 3a 77 d5 bd b0 8d 75 3c
       -0.16878879 0.016433626 -0.10423131 0.014987394
000340 52 fc ea bd 00 08 fe 3c c8 95 95 bc 9e 9a 33 3e
       -0.114739075 0.031009674 -0.018259898 0.1753945
000350 e8 10 aa 3d 48 db 8e 3d 32 da 24 3e e2 df 22 be
       0.08304006 0.06975418 0.1609886 -0.15905717
000360 40 7b db 3b c8 96 13 3e 54 b8 df 3d 40 41 46 3c
       0.006698042 0.14412987 0.1092383 0.012100518
000370 7b a3 ac bd 70 a8 69 bd f8 2c dd bc 90 a7 c7 bc
       -0.08429619 -0.0570454 -0.026998982 -0.024371892
000380 24 cf 9b bd 6c 29 04 bd d9 74 de bd 72 b3 0f 3e
       -0.07607868 -0.032266065 -0.10862131 0.14033297
000390 d8 c0 e9 bc bb 3f db bd f0 cd 6e 3c 00 e8 2a 39
       -0.028534338 -0.10705515 0.0145754665 0.0001629889
0003a0 64 55 04 bd 1c 3a b5 3d 6a f8 04 be d6 62 0f be
       -0.032307997 0.08848974 -0.12985387 -0.14002547
0003b0 56 46 22 3e ac 25 66 bd b3 ce c6 bd 10 33 30 be
       0.15847144 -0.05618827 -0.097073935 -0.17206979
0003c0 f0 ea 13 be c0 cd a2 3c 08 02 3c 3d 08 88 2e 3d
       -0.1444509 0.0198735 0.045900375 0.0426102
0003d0 a9 7a 1e be c2 5f 12 be 92 22 04 3e 1e 98 8d bd
       -0.15476479 -0.14294341 0.12903813 -0.0691378
0003e0 cc 10 2d 3d 0c eb 19 3e df e7 38 be 7c 5f 11 be
       0.042252347 0.1503107 -0.18057202 -0.1419658
0003f0 16 8b 21 3e d0 fa d0 3d f0 15 e4 3d 33 cf a2 bd
       0.15775713 0.10204089 0.11136997 -0.07949676

fc5.bias f4 [15]
000000 94 7f 4f 3d 70 3f 44 bd d0 d6 73 3c a0 71 15 bc
       0.050658777 -0.04791206 0.014882758 -0.009121329
000010 58 cc fd 3c 5c a4 34 3e 88 66 c0 bd 74 42 f5 3d
       0.030981228 0.17640823 -0.09394556 0.119755656
000020 80 ab 25 3c 29 19 b4 bd e8 03 d6 bc 68 dd 37 be
       0.01011169 -0.087938614 -0.02612491 -0.17955554
000030 22 d0 27 be 90 4b 55 3d 6c 6c f9 bd
       -0.1638799 0.052074015 -0.12178883

fc6.weight f4 [8, 15]
000000 f2 b0 e7 bd 3a 73 8f bd f0 c8 a3 3d 88 8a ce bd
       -0.113130465 -0.070043996 0.0799731 -0.100850165
000010 50 05 60 3d e8 8b 1e 3e 0c 77 11 3e 84 b5 67 be
       0.054692566 0.15483057 0.14205569 -0.22627836
000020 e6 44 16 3e a0 dc c7 bc 7c d6 75 be 80 03 94 3d
       0.1467472 -0.024397194 -0.240076 0.0722723
000030 1a c1 31 3e 8c 53 ff bd 18 de e3 bc 9e 7a 12 be
       0.17358819 -0.12467107 -0.027815863 -0.14304587
000040 35 1e 3c be e0 b1 8c 3c 18 8b cd 3d fc 5b 10 3e
       -0.18370898 0.017174661 0.10036296 0.14097589
000050 70 7c d1 bc e0 7c 38 3c 18 87 b6 3d 00 2e 82 3a
       -0.025572032 0.011260241 0.08912486 0.0009931922
000060 58 31 59 3d 48 95 85 bc ca 98 69 be 42 6a 09 be
       0.053025573 -0.016306534 -0.2281219 -0.1341944
000070 90 c1 41 3e a0 54 31 be 40 3e 60 3d 2a 68 5b 3e
       0.18921494 -0.17317438 0.054746866 0.21426454
000080 46 cc 5d be 48 d3 29 3e 74 2f 55 3e 4a 4e 16 be
       -0.21659955 0.16584504 0.20818883 -0.14678302
000090 bc ae 02 bd 6b bd 17 be e0 31 ec 3c 7a 0e db bd
       -0.03190492 -0.14818351 0.028832376 -0.106961206
0000a0 b8 cc e1 bc c0 6a 74 bd e0 64 b6 bc 17 44 1d be
       -0.027563438 -0.059672117 -0.022264898 -0.15358005
0000b0 ca 0f 75 3e ec b2 46 be 08 1f 9f 3d 2a d7 56 be
       0.23931804 -0.19404191 0.077695906 -0.20980516
0000c0 58 e7 28 3d 4a 9b a8 bd 58 f8 1a 3d 64 56 74 be
       0.04123625 -0.08232744 0.037834495 -0.2386108
0000d0 9a 1a 81 bd 74 3d df bd 96 95 b6 bd 90 3d e6 3c
       -0.06303902 -0.10900393 -0.0891525 0.028105527
0000e0 40 94 50 be 76 42 7e be 28 b0 8f bd 5c 08 13 3e
       -0.20369053 -0.2483004 -0.07016021 0.14358658
0000f0 b2 ca f1 bd d8 3c 99 3d 3c 2f e6 3d b8 17 c0 3d
       -0.11806239 0.07482308 0.11239478 0.09379524
000100 ca 8b c9 bd 80 17 a1 3b 0a 8d c3 bd 80 04 16 bc
       -0.09841116 0.0049161315 -0.095483854 -0.009156346
000110 48 49 24 3e 90 5d 7f 3d 8b 3e 39 be bc 90 dd 3d
       0.1604358 0.062345088 -0.18090264 0.108186215
000120 b8 4b 57 3e 25 3f 40 be 76 57 3a 3e 80 e4 57 3d
       0.21024978 -0.18774088 0.18197426 0.05270815
000130 a8 28 e3 bc df d5 71 be ee c6 3a 3e 44 6a 85 3d
       -0.027729347 -0.23616742 0.18239948 0.06514409
000140 64 76 d1 bd 74 6d 14 3e 00 ee 75 be 9c 95 b1 bd
       -0.10227659 0.14494878 -0.24016571 -0.08671114
000150 7f f4 6c be 92 68 1c be c0 1a c3 3d 93 35 23 be
       -0.23140143 -0.15274265 0.095265865 -0.15938406
000160 72 86 41 3e a0 75 ec 3c 74 11 f8 bd 82 c2 c1 bd
       0.18898943 0.028864682 -0.12112704 -0.094609275
000170 ee d3 34 3e 50 ea aa bc 58 71 e7 3d 8a c4 96 bd
       0.1765897 -0.020863682 0.113009155 -0.073617056
000180 2a 75 42 be 88 47 7b 3d 4b c0 7a be 88 c3 91 bd
       -0.18990007 0.061347514 -0.24487416 -0.07117373
000190 9e d6 27 be 50 d7 91 3d 80 ee 70 be 68 96 51 bd
       -0.16390464 0.07121146 -0.2352848 -0.05116883
0001a0 c4 37 03 3e 40 e0 5a 3d cb 6b 80 3e ec 67 a9 bd
       0.12814242 0.053436518 0.2508224 -0.08271775
0001b0 66 bf 58 3e f8 25 5a bd 1c 92 9a bd 80 c5 d0 bb
       0.21166763 -0.053258866 -0.075473994 -0.0063712
0001c0 94 b9 b8 bd 3c b4 bc 3d b2 3a 93 bd a8 b6 70 bd
       -0.09019771 0.092140645 -0.071889296 -0.058767945
0001d0 56 d1 97 bd 90 14 bd 3d d4 92 df 3d 14 5d 09 3e
       -0.074129745 0.092324376 0.10916677 0.13414413

fc6.bias f4 [8]
000000 74 17 0e bd 40 b8 e3 3b 46 b8 2b 3e 14 59 7e bd
       -0.034690335 0.0069494545 0.16769513 -0.06209667
000010 14 df 85 bd 9c e0 5c 3e 30 4d 14 3d d0 16 63 3e
       -0.065366894 0.21570057 0.036206424 0.22176671

fc7.weight f4 [4, 8]
000000 43 c2 12 be a4 47 6b be d1 5b 85 3e 30 d5 79 be
       -0.14331917 -0.22976547 0.26046613 -0.24397731
000010 1e d0 a7 be 44 bd cc bd e0 09 27 be 24 04 87 be
       -0.32775968 -0.09997037 -0.16312361 -0.26370347
000020 ba e7 91 be 98 c0 8b be dd 3d 9f 3e 0f c7 9f 3e
       -0.28497106 -0.27295375 0.31101885 0.31206557
000030 99 ef a1 be 00 5e 87 bb 38 ce 92 3d 3c 2c a9 bd
       -0.3162811 -0.0041310787 0.07168239 -0.0826039
000040 ec 54 58 be 54 2f be 3d a8 4f 4e bd 19 fd 9f 3e
       -0.21126145 0.09286371 -0.050368935 0.31247786
000050 a0 f8 aa 3d 70 9c 4a be ae a1 93 be 52 6b 5f 3e
       0.08348203 -0.19786239 -0.2883429 0.21818283
000060 00 87 6e be c8 94 de bd 08 9a 1d be 30 6e 5b 3d
       -0.23293686 -0.108682215 -0.1539079 0.05357188
000070 28 ca 45 3d 12 a9 26 3e 46 e8 78 3e e8 de 06 3d
       0.048288494 0.16275433 0.24307355 0.032927424

fc7.bias f4 [4]
000000 2a e6 d7 bd 84 98 c9 3d 02 41 5b 3e 56 4e 61 3e
       -0.10541947 0.09843543 0.21411517 0.22002539
