lib/30/checkpoint.pt (torch_old, 248907 bytes, 16 tensors)

fc1.weight f4 [180, 183]
000000 71 bc 43 3f ca 3e 62 3f 25 33 da 3f 29 f9 dc 3e
       0.76459414 0.8837706 1.7046858 0.43158844
000010 0a 5b e1 3e 14 e6 97 bd b1 79 15 3f d8 c3 66 be
       0.4401477 -0.07416931 0.5838881 -0.22535646
000020 d4 98 09 be 2c 55 75 bf 92 09 b3 be 96 4d 5f be
       -0.13437206 -0.95833087 -0.3496824 -0.2180694
000030 9e e3 02 bf f3 62 85 bf ce 20 14 bf f9 71 91 bf
       -0.51128566 -1.0420822 -0.57862556 -1.1362907
000040 4c 7f bd be dd 23 26 bf d4 6c f9 bb e0 3a 2b bf
       -0.37011182 -0.64898473 -0.0076118503 -0.6688671
000050 df 00 0c ba b7 f2 91 be 35 57 b1 3d de ad a4 be
       -0.0005340706 -0.2850549 0.086592115 -0.321639
000060 97 1b 81 3f 2f f9 2f 3e 7c 55 42 3f 33 b2 29 3f
       1.0086545 0.171849 0.7591169 0.66287535
000070 b1 eb 91 3f 45 67 84 3f bd b2 c4 3f c4 0e 2a 3f
       1.1400052 1.0344015 1.5367047 0.6642878
000080 7f 8e c1 3f 39 95 81 3f 89 20 c1 3f 7f 76 8a 3f
       1.5121611 1.0123664 1.5088054 1.0817412
000090 3a f3 0c 40 d6 7f a1 3f 58 3b 33 3f 91 ae 4b 3e
       2.2023454 1.2617137 0.70012426 0.1989081
0000a0 45 75 14 3f 66 76 79 3e 26 0e 43 3f 78 3e 68 be
       0.5799144 0.24361572 0.76193464 -0.2268008
0000b0 8e 1a 1b 3f 01 8d bb be 53 ed c2 3e f8 a6 87 3d
       0.60587394 -0.36631015 0.3807169 0.06623644
0000c0 de 84 dd be bd a3 7e bf 90 ef 06 be 2a a3 53 bf
       -0.43265432 -0.99468595 -0.13177323 -0.82670844
0000d0 4a b3 1f bf 8c e6 93 bf 5d 50 96 bf 91 2b b9 bf
       -0.6238295 -1.1554732 -1.1743275 -1.446642
0000e0 67 09 75 bf 27 42 bd bf bf a6 9d bf ae f0 c4 bf
       -0.9571747 -1.4785813 -1.2316512 -1.538595
0000f0 26 0a 91 bf d7 70 da bf 33 7d 7f bf c0 db 8a bf
       -1.1331222 -1.7065686 -0.99800414 -1.0848312
000100 ad 96 58 bf 0b 2e e0 bf 49 5b aa bf 7f 66 be bf
       -0.84604913 -1.7514051 -1.3309108 -1.4875029
000110 5a 06 b6 bf 21 2d cf bf a5 98 1d bf f7 e7 9f bf
       -1.4220688 -1.6185647 -0.6156104 -1.2492665
000120 5c a4 0f bf fc b1 85 bf 63 08 61 bf a8 4c b8 bf
       -0.5611017 -1.0444942 -0.8790342 -1.4398394
000130 ee cc a3 bf 65 fc a2 bf c9 57 24 bf 45 8d 94 bf
       -1.2796915 -1.2733275 -0.6419645 -1.1605612
000140 64 99 3b bf 4c c5 74 bf 12 bf 10 bf 06 c7 9c bf
       -0.7328093 -0.9561355 -0.5654155 -1.2248237
000150 48 c9 27 bf a1 82 0e bf 45 e4 28 bf fc 79 7d bf
       -0.65541506 -0.55668074 -0.6597331 -0.9901426
000160 9f 31 64 be b2 dd 1e bf 81 f2 b0 be 97 f7 54 bf
       -0.22284554 -0.6205703 -0.34560016 -0.8319029
000170 96 d8 cb be 70 99 03 bf bd d7 e5 3d 9b 4c 5d 3e
       -0.3981368 -0.51406 0.112227894 0.21611254
000180 66 7d 77 3e d5 0d fe 3e 7e 64 28 3f 39 ca 0e 3f
       0.2416893 0.49619928 0.6577834 0.5577732
000190 0a 3c 99 3f 44 8b 82 3e bb 69 26 3f 3a b2 76 3f
       1.1971447 0.25496876 0.6500508 0.963657
0001a0 52 1f c4 3f fe 47 c0 3f 03 5a fe 3f 95 f6 c6 3f
       1.5322058 1.502197 1.9871219 1.5544001
0001b0 cf c5 fe 3f 43 7d 0a 40 c3 88 fe 3f 80 6e f1 3f
       1.9904116 2.1638954 1.9885486 1.8861847
0001c0 66 0f 07 40 96 45 b8 3f 41 58 c3 3f 05 18 a0 3e
       2.1103148 1.4396236 1.5261308 0.31268325
0001d0 35 28 cd 3d 1b 72 09 be 5f 60 21 be 23 c5 27 bf
       0.100174345 -0.13422434 -0.15759419 -0.6553518
0001e0 ca f0 32 bf e9 b5 aa bf 5b 12 80 bf 85 0e c4 bf
       -0.69898665 -1.3336765 -1.0005602 -1.5316931
0001f0 88 27 92 bf 0f bd 95 bf eb 63 60 bf 2b 42 59 bf
       -1.1418314 -1.1698321 -0.8765246 -0.8486659
000200 9b 70 03 bf 46 4a 8a bf cc c2 09 bf fa 5a 23 be
       -0.513437 -1.0803916 -0.5381286 -0.15952674
000210 50 98 89 be 5e c7 f4 be ce 76 56 be 12 9b cd be
       -0.26874018 -0.47808355 -0.20943758 -0.40157372
000220 97 c7 ab 3e b0 d4 ba be 56 c3 14 be 87 ef 96 be
       0.33550712 -0.36490393 -0.1452764 -0.2947962
000230 58 1b 33 bd 07 ae d2 bd 98 3b 81 bc d5 d9 e5 bd
       -0.04372725 -0.10287099 -0.015775487 -0.11223189
000240 92 6e 31 3e 73 dd da 3e 1b 18 12 be 1e c5 08 ba
       0.17327335 0.42747077 -0.14267008 -0.0005217361
000250 95 15 8f be 69 ab bc 3d 95 25 56 be 72 41 8f 3b
       -0.27946153 0.092123814 -0.20912774 0.0043718154
000260 d4 b0 85 bd 29 23 82 3e 7b 60 1f be 79 b6 25 3d
       -0.06527868 0.2541745 -0.15564148 0.040457223
000270 bb 31 e5 3d d3 fc 09 3e db 2c aa bd 0e 19 0c 3e
       0.11191126 0.13475351 -0.08309337 0.13681433
000280 14 68 bd bd cd 73 77 3d 1e 5a a1 3e 85 59 a4 3e
       -0.09248367 0.06041317 0.31514066 0.32099548
000290 d1 31 6d 3e 40 ed 90 3e 32 08 bc 3e 88 43 5f 3e
       0.23163535 0.28306007 0.36725003 0.21803105
0002a0 eb cc 99 3e 57 54 ca 3d 56 bc d2 3d bc 9e 78 3d
       0.30039153 0.09879368 0.102898285 0.060698256
0002b0 38 d3 0c 3f 75 ee 9a 3e 16 1f a5 3e 2c 43 e3 3d
       0.55009794 0.30260053 0.3225028 0.110967964
0002c0 fb f7 de 3e 67 d4 69 3d 21 26 14 3e 91 af 42 3e
       0.4354857 0.05708733 0.1446767 0.19012286
0002d0 d6 4f 41 3e 4a c0 25 3d 2f 46 80 3e f8 2b 64 3f
       0.18878111 0.040466584 0.25053546 0.8912959
0002e0 90 1d 8c bf 48 36 4a 3e 73 fb 54 bf 5b ef b6 bf
       -1.0946522 0.19747269 -0.8319618 -1.4291795
0002f0 a6 d4 c6 3d ba f4 48 bd bc fc 48 bf 90 6d 6a 3e
       0.09708528 -0.049061514 -0.7851064 0.22893357
000300 e3 e9 ee bf 16 90 99 bf 0d bd 98 3d c3 2e d6 be
       -1.8665127 -1.1997097 0.074579336 -0.4183255
000310 2f 77 6d be 0f 96 c5 bf aa 44 4e bf 34 a6 b7 bf
       -0.23189996 -1.5436419 -0.80573523 -1.4347596
000320 85 c6 85 bc a3 2a 1f bf d7 a7 4e bf 86 4f 75 bf
       -0.016330013 -0.62174433 -0.80724853 -0.9582447
000330 57 7c 4e bf 28 b1 6e 3c 21 23 c3 bc c5 b2 ae bd
       -0.8065848 0.0145686045 -0.023820462 -0.08530191
000340 12 4a 35 3f 9c a4 28 bd 20 5b 24 3f a3 99 17 bf
       0.7081615 -0.04117261 0.64201546 -0.59218806
000350 ed 34 7b be e9 ff 58 3f 37 d6 8e 3f 41 99 05 40
       -0.24531908 0.8476549 1.1159123 2.0874789
000360 58 80 cd 3f c7 7f 0b 3f f6 ad f6 3e d5 f3 a8 3f
       1.6054792 0.5449185 0.48179597 1.3199412
000370 28 15 11 40 3d c6 ef 3f 31 db dc 3f 7c 23 98 3f
       2.2669163 1.8732373 1.7254392 1.1885829
000380 3d 6c bf 3f 57 da e9 3c 88 90 63 3d 64 1c 93 3d
       1.4954907 0.028546495 0.055557758 0.071831495
000390 39 02 31 be a3 58 70 3f 43 60 b3 3f b5 18 12 3f
       -0.17286004 0.9388525 1.4013752 0.5706895
0003a0 1d 2e 7d 3f e0 90 49 bf 00 33 e0 be 11 46 12 bf
       0.9889849 -0.78736687 -0.4378891 -0.5713816
0003b0 7a 2f ea bc 32 6e 85 be ff 87 60 3f 92 70 ae 3e
       -0.028587092 -0.26060635 0.87707514 0.3407026
0003c0 93 09 d0 bc 7d 2d c3 be 49 b5 51 bd 47 1b be bf
       -0.02539519 -0.38120642 -0.051198278 -1.4852074
0003d0 c1 25 4e bf bc 33 0f bf 81 86 0c 3e 93 a4 49 be
       -0.8052636 -0.55938315 0.13723184 -0.19691686
0003e0 b8 80 64 bd 66 2c 12 bf 64 06 f7 3c 94 a9 63 bf
       -0.05578682 -0.57098997 0.030154414 -0.8893063
0003f0 df 89 e8 be 13 d7 28 bf 2e b7 59 bf 0e ce 3d bf
       -0.45417687 -0.6595318 -0.85045135 -0.7414254

fc1.bias f4 [180]
000000 2f 4e 2a be aa b9 2d 3e e5 8f 19 be 3f 3a 59 be
       -0.16631387 0.16965356 -0.14996298 -0.21213625
000010 a6 ff 65 3e 62 3a 43 3d a5 86 87 be ee 48 8d bd
       0.22460803 0.0476631 -0.26469913 -0.06898676
000020 47 38 31 be 71 88 1d be b3 27 21 be 93 88 55 bd
       -0.17306624 -0.1538408 -0.157378 -0.0521322
000030 47 ef 35 be ac b5 e6 ba 22 05 06 be de 3c c3 3b
       -0.17767058 -0.001760175 -0.13087896 0.0059581837
000040 ba 48 ad 3d 79 7f 82 3d ca 2d 3a be 45 4e ed 3d
       0.08461137 0.0637197 -0.1818153 0.11587194
000050 41 e9 6e 3d 77 ba 0d be 0b 0c 90 3d 06 3a 31 be
       0.058327917 -0.13840662 0.07033547 -0.1730729
000060 c3 d9 c7 bd 24 e4 7c bd c1 ca 64 be 8f a9 e8 bd
       -0.097583316 -0.06174101 -0.2234297 -0.11360466
000070 29 1b 52 bc d2 32 b3 bd 4d 20 73 bd 40 66 92 bd
       -0.012823858 -0.087499276 -0.059356976 -0.07148409
000080 3c dc ec bc 02 bd db bd 95 a4 37 3a 35 80 bc bd
       -0.02891361 -0.1072941 0.00070054206 -0.09204141
000090 5d 6d 0d be d7 2c a3 bd 13 cc e8 bd f2 cf ad bd
       -0.1381125 -0.07967537 -0.11367049 -0.08486928
0000a0 2b 2c 1b 3e ca 85 8b be 12 1c 4a 3e bb 27 8c bd
       0.15153567 -0.2725051 0.1973727 -0.068435155
0000b0 bf f7 b0 bd 0d 14 9e be 1b 0b 60 3e 9e 25 58 be
       -0.08641004 -0.30874673 0.21879236 -0.211081
0000c0 82 13 cf bd 8e 50 c0 bd 41 d3 07 be 2b c7 a0 bd
       -0.10111143 -0.093903646 -0.1326418 -0.07850488
0000d0 d5 a5 c7 3d 6d f4 61 bd 05 ed 74 be 34 c6 7c 39
       0.09748427 -0.055164743 -0.23918541 0.00024106429
0000e0 f8 83 9a be 98 ed ae 3d d3 de 2f be 10 6c d9 bd
       -0.3017881 0.08541411 -0.17174844 -0.106163144
0000f0 10 20 02 bd 27 5a 55 be 66 54 65 be 2d 6c fe bd
       -0.03176886 -0.20835172 -0.22395477 -0.12422977
000100 54 90 54 be 47 f1 97 3c b4 ba e3 ba 91 d8 13 3e
       -0.20758182 0.018547667 -0.0017374367 0.14438082
000110 55 b2 a1 bd 74 83 b6 bc cb 80 6a be bf 4f fc 3c
       -0.07895342 -0.022279479 -0.22900693 0.030799745
000120 6e 2d 2b 3e 4c ec 8b be dc 07 e9 bd ce 85 12 bd
       0.16716549 -0.27328718 -0.11378452 -0.035772137
000130 cd 28 68 bd 66 bd 5a be 47 f3 48 be 2c a3 10 3e
       -0.056679536 -0.21361312 -0.19624053 0.14124745
000140 ff c8 c3 bd f7 de cc bd fb a5 7e bd f4 e3 8c be
       -0.09559821 -0.10003465 -0.06217001 -0.27517664
000150 86 98 8a be 21 98 97 bd f5 7b 85 bd 17 24 f9 bd
       -0.2706949 -0.07402063 -0.065177836 -0.12165087
000160 8b 32 9e bd ec 23 92 bd 67 4b fe bd f9 a0 c4 bd
       -0.07724484 -0.07135758 -0.124167256 -0.096010156
000170 4a c6 4d 3d 0a 1f a3 bd 2f bb 6f bd 6c 3d 21 bd
       0.05023793 -0.079649046 -0.05852812 -0.039365217
000180 d6 11 2a be 64 6d ea 3d 08 9d 85 be d6 f4 0f be
       -0.16608366 0.11446646 -0.26096368 -0.14058241
000190 cd 0f 75 bd a9 d5 23 be 2c 19 73 bd 0c 77 d3 bd
       -0.059829522 -0.15999474 -0.059350178 -0.10325441
0001a0 62 d7 ec 3c e7 39 68 3d 09 8c 1a be ff 22 2e 3e
       0.028911296 0.056695845 -0.15092482 0.17005537
0001b0 17 99 32 3d 99 67 98 3e 3f 0b 7e be b8 1e f2 bd
       0.04360303 0.2976654 -0.24808978 -0.118222654
0001c0 ae 47 0d be 1f dd 2c bc 54 ab 1b 3e 2b f0 30 be
       -0.13796875 -0.010550766 0.15202075 -0.17279117
0001d0 44 76 d4 bd 59 73 06 bb 80 71 4f be df 2c a2 bb
       -0.1037412 -0.002051553 -0.2025814 -0.0049491967
0001e0 bc 80 9e bd da da 47 3e da 30 a3 be 1b c2 f3 bd
       -0.07739398 0.19517079 -0.31873208 -0.11902257
0001f0 63 6d 43 be ec 10 44 be 41 fc c3 bc c5 57 35 be
       -0.19084696 -0.1914708 -0.023923995 -0.17709263
000200 be 44 02 be 69 ed 37 be 11 36 41 be 87 8d b6 bc
       -0.12721536 -0.17961659 -0.18868281 -0.022284282
000210 8a e9 0c bd 20 2c 8b bd 35 d6 1d be ab 04 92 bd
       -0.034402408 -0.067955256 -0.15413745 -0.071297966
000220 2b fa 27 be 75 d9 0a be 9a ff 89 bd 6d c1 9c 3e
       -0.16404025 -0.13559516 -0.06738205 0.30616322
000230 78 e4 fc bd a7 98 53 bc f2 71 f5 bd 6d 4f 36 bd
       -0.123482645 -0.012914813 -0.11984624 -0.04450934
000240 c7 c1 9b 3d 37 97 05 be f8 ef 0a be 42 c2 89 bd
       0.076053195 -0.13045965 -0.13568103 -0.06726505
000250 c3 46 1e be d7 61 0f bd c7 2b ce 3d a1 a1 63 bd
       -0.15456681 -0.035005417 0.100669436 -0.055574063
000260 38 85 21 3e 76 e8 19 be 75 f7 c3 bd 41 86 0e be
       0.15773475 -0.15030083 -0.09568683 -0.13918401
000270 38 da 80 3c c2 c4 f6 bd aa 3e 5b bd 3c 1a 95 bc
       0.015729055 -0.12049247 -0.053526558 -0.018200986
000280 12 1a 99 be 11 b0 ef bd a9 f9 3b be d2 cc 24 3d
       -0.29902703 -0.11703504 -0.18356957 0.040234394
000290 e4 18 b1 3e 59 0e 78 be 48 77 82 3e 61 b2 19 be
       0.34589303 -0.24224223 0.2548163 -0.15009452
0002a0 86 fb cd bb a4 76 90 bd c0 dd 0d be 57 56 f5 bd
       -0.0062860874 -0.07053879 -0.13854122 -0.11979359
0002b0 b8 c9 d7 3c 60 dc 10 be df 24 6b be 12 c1 4e be
       0.026341304 -0.14146566 -0.22963284 -0.20190838
0002c0 bb ae fa bd 62 4c d4 bd ca de 9d bd b9 22 0a 3e
       -0.122403584 -0.10366131 -0.07708509 0.13489808

fc2.weight f4 [110, 180]
000000 36 e1 a1 bf 36 68 46 bf fe 5c 11 bd aa 1c 43 bf
       -1.2646854 -0.77502763 -0.035489075 -0.7621561
000010 84 5d 84 3e cb ca 95 be e2 07 14 bf 58 b5 32 bf
       0.25852597 -0.2925628 -0.5782453 -0.6980796
000020 a0 95 c0 3e 61 3f aa bf 09 22 87 bf c9 75 9e bf
       0.37614155 -1.3300592 -1.0557262 -1.2379695
000030 25 a3 55 bf b2 7b 3c 3f bd ef d0 be 2c 71 97 3e
       -0.83452064 0.73626244 -0.40807906 0.2957853
000040 93 a4 0b bf 6a 45 74 3e 0b 48 c1 3e cf b8 40 be
       -0.54547995 0.23854604 0.37750277 -0.18820499
000050 84 0f 36 be fe 31 06 bf 77 42 01 3e 7f bb ab 3e
       -0.17779356 -0.5242003 0.1262301 0.33541486
000060 23 24 90 3f 9f 7a 98 bf 67 59 e8 3e 16 ca 2b bf
       1.1261028 -1.1912421 0.4538071 -0.67105234
000070 87 74 37 bf 5a ef 2a bf c0 6a 0a c0 34 58 d1 3e
       -0.7166218 -0.6677147 -2.1627655 0.40887606
000080 45 96 a8 bf 22 ca 25 bf fd 57 0d 3f 92 4a 73 bf
       -1.3170859 -0.64761555 0.55212384 -0.9503566
000090 56 ff eb be 36 94 0a bf 5a e4 02 40 d1 44 9d bf
       -0.46093243 -0.541324 2.0451875 -1.2286626
0000a0 58 59 83 bf 3a 79 94 3f ee c3 35 bf 9e 89 ab be
       -1.026164 1.1599495 -0.7100209 -0.3350343
0000b0 9c 88 8a 3e 50 98 05 40 20 ac a5 3d b5 9c a7 3f
       0.2705735 2.0874214 0.08089471 1.3094698
0000c0 be 43 69 bd 9e 7a fc be e0 09 3c bf 19 54 38 3d
       -0.05694937 -0.493123 -0.7345257 0.045002077
0000d0 5d e2 59 bf 24 db fc 3e da 92 06 40 65 b2 21 be
       -0.8511103 0.4938594 2.102713 -0.15790708
0000e0 46 81 f5 3f 8b 3d a2 bc 49 c4 20 3f 4d da 3e 3e
       1.9180076 -0.019804737 0.6279951 0.18637963
0000f0 1d 9b 02 c0 a4 02 c3 be 6f 95 37 40 95 d8 c9 be
       -2.0407174 -0.38087952 2.8684957 -0.3942305
000100 11 29 d3 3f 70 12 89 bf f0 b7 50 bf ae 39 08 bf
       1.6496907 -1.0708752 -0.81530666 -0.5321301
000110 c1 d1 1c bf 94 74 d7 3e 02 a7 30 3e df 8d 84 3d
       -0.6125756 0.4208113 0.17251208 0.06472372
000120 40 73 23 bf 39 02 90 3e ca b0 00 be 31 4c 15 3e
       -0.6384773 0.28126696 -0.1256744 0.14579846
000130 51 a0 a9 be 56 f6 06 40 c4 18 d5 3f d6 6c 93 be
       -0.33130124 2.1087852 1.6648183 -0.28793973
000140 bc ef fb 3d 79 16 f1 bf 12 f2 8c be a4 08 ff 3f
       0.12301585 -1.8834983 -0.27528435 1.9924512
000150 e4 46 89 3f 4d a3 0d bf e1 f2 8f bf 46 44 b0 bd
       1.0724759 -0.553273 -1.1245996 -0.08606772
000160 da 6c be bd a5 7e 4b be eb 1b ac 3e 5e 55 ad be
       -0.092981055 -0.1987253 0.3361505 -0.33854192
000170 dc 16 48 3e 2a cf 2a 3f fd 8e a0 bf 18 cc 1e be
       0.1953997 0.6672236 -1.2543637 -0.15507543
000180 c9 f4 c4 bf fd 83 70 3c 52 bf 1b 40 d0 8f e9 bf
       -1.5387203 0.014679906 2.4335523 -1.8247013
000190 78 0e 18 3f 2a 86 a6 3e b8 e3 77 bf 79 76 be bd
       0.5939708 0.32524234 -0.96831846 -0.092999406
0001a0 3e e4 bb bf d7 a8 d9 bf d9 89 79 bf 1a 7b 0a 3e
       -1.4679029 -1.7004651 -0.97475964 0.13523522
0001b0 75 89 c1 be 83 eb 37 bf 01 81 ee 3f e7 22 02 c0
       -0.37800184 -0.7184374 1.8633119 -2.0333803
0001c0 fd 34 4a bf af 0f 7c be 77 d1 10 c0 fc 1b f6 be
       -0.78987104 -0.24615358 -2.2627847 -0.48068225
0001d0 95 d4 78 bf 35 d7 c2 3b 63 d3 f1 bf dc b4 c9 bf
       -0.97199374 0.005946065 -1.8892635 -1.5758319
0001e0 e4 99 b4 bd d1 36 bd bf 65 c0 a8 3f 5a 94 57 3f
       -0.08818415 -1.4782354 1.3183714 0.8421074
0001f0 c4 9f 15 3e 9d d5 14 3e e0 2e e0 bf cb 19 06 bf
       0.14611727 0.14534612 -1.7514305 -0.52383107
000200 5b 4b 5c 3d ee dd 2e 3e d6 08 c8 3d 33 0a 5e bf
       0.053782802 0.17076847 0.0976731 -0.8673431
000210 14 78 a3 bf 0c 81 96 bf 8f 7c 5c 3f 41 ec 05 bf
       -1.277102 -1.1758132 0.8612756 -0.5231362
000220 67 62 f6 be 9f f7 c6 bf 3b 8a e3 bf 24 97 55 3f
       -0.4812195 -1.5544318 -1.777656 0.8343375
000230 9b 79 0b bf 85 aa ed 3d e1 38 a2 3e a2 c5 c9 3e
       -0.5448243 0.1160479 0.3168402 0.39408594
000240 69 99 06 c0 f2 b0 c0 be 5d 21 ba be 23 bf 1c be
       -2.1031134 -0.37635 -0.3635358 -0.15307288
000250 3b 4b 9c 3e 1f 52 33 3f 3a 84 cd 3e d5 ea 91 be
       0.30526146 0.7004718 0.40139943 -0.28499475
000260 d4 33 8d 3e 3d 7e cd 3c c7 b7 54 bf eb da 8e bd
       0.27578604 0.02508461 -0.8309292 -0.06975349
000270 47 e6 1e 3f b4 00 21 bf 29 43 8d bf f5 f5 2b c0
       0.62070125 -0.628917 -1.1036121 -2.686887
000280 6f b8 e5 3f 5b c5 8a bf 94 84 88 be f9 11 9b bf
       1.794691 -1.0841478 -0.2666365 -1.211486
000290 01 e9 b2 bd c6 91 10 40 ca 56 b5 bf ba ec 3a 3e
       -0.08735848 2.2588973 -1.4167111 0.18254367
0002a0 46 f5 ea bd fc ed ed be f4 53 fb 3e 0e 44 ef be
       -0.114725634 -0.4647063 0.4908749 -0.4673161
0002b0 d0 7d 60 3d 50 13 4a be db 3a 1c 3f 67 51 a9 3e
       0.054807484 -0.1973393 0.61027306 0.33069918
0002c0 55 b5 bf bd 52 b2 8c be fc cb bb bf e6 0b 81 bf
       -0.09360758 -0.27479798 -1.4671626 -1.0081756
0002d0 76 b0 ee 3f 09 7a 03 be 36 e9 22 be 64 27 45 be
       1.8647602 -0.12839521 -0.15909275 -0.19253308
0002e0 d2 cd f3 be 08 68 d8 bf 39 96 de 3f f6 2a 6d 3d
       -0.47617966 -1.6906748 1.7389594 0.0579023
0002f0 bb e5 3c bf b5 b8 95 3f c9 92 92 bf ff 8c e6 3f
       -0.7378804 1.1696993 -1.1451045 1.8011779
000300 f5 91 56 be 2c 29 31 3f cf 01 ce 3f ff 0f 2e bf
       -0.20954116 0.6920345 1.6094302 -0.6799316
000310 23 28 0f bd 56 01 9f be 9b 5a 85 bd 9b 8e 83 bf
       -0.034950387 -0.31055707 -0.06511422 -1.0277895
000320 02 f1 b2 bf 2b ac 52 3f 1f ca 1a bf 21 6d fc 3f
       -1.39798 0.8229396 -0.6046466 1.9720803
000330 81 c1 c3 3f 02 a7 f3 3f 74 86 63 bd 1e f7 b9 3f
       1.5293428 1.9035342 -0.055548146 1.4528539
000340 dc b8 ed 3d 94 a6 ad 3f 76 8d 93 be 38 f9 80 be
       0.11607525 1.3566461 -0.28818864 -0.2519014
000350 55 60 44 3f 4a 84 f0 3f 8f 7a e4 be 8f 74 57 3e
       0.7670949 1.8790371 -0.44624755 0.21040557
000360 cc 61 98 3f 81 77 13 40 f9 c7 c4 3f 16 46 1d 40
       1.1904845 2.304169 1.5373527 2.4574027
000370 a4 38 85 bf 55 cf b4 3f 50 ed 33 be 3e 43 f0 bc
       -1.040791 1.4125773 -0.17570996 -0.029328939
000380 58 d4 6a 3d 8a a8 9f 3f f8 2d 17 3e 79 56 d8 3f
       0.057331413 1.2473309 0.1476363 1.6901389
000390 c5 95 86 3f 1f ab 3a 3f 5d e1 9b 3f 47 75 42 be
       1.0514456 0.7291736 1.217815 -0.1899005
0003a0 74 df 2d 3f 03 ad d1 bd 26 c4 05 40 84 8c 7c 3e
       0.6791909 -0.102380775 2.090097 0.24662977
0003b0 5c 59 3b 40 93 d7 f5 be 7c 40 01 bf b0 e8 b0 3f
       2.927329 -0.48016033 -0.5048902 1.382101
0003c0 8c 7c dc be 6b 06 5e 3e 75 f6 17 40 57 13 38 bd
       -0.43063772 0.21682136 2.3744175 -0.04494032
0003d0 1c ab cd 3f b4 8f 45 bf d2 25 63 be f6 93 62 bf
       1.6067843 -0.771724 -0.22182396 -0.8850702
0003e0 5d e3 d6 3e 31 a3 c7 bf c2 b0 ab 3f c2 f3 be be
       0.4197034 -1.5596677 1.3413317 -0.37295347
0003f0 c4 33 02 bf 2b cb e7 3f 03 95 e2 bf ec b8 ba be
       -0.5086024 1.8108877 -1.7701725 -0.3646921

fc2.bias f4 [110]
000000 90 1e 00 bf 70 22 02 3f 83 a6 42 3e b3 fe 8d bc
       -0.50046635 0.508338 0.19008832 -0.017333364
000010 a3 d5 4c 3e 8c 28 0f 3d 27 db b3 3b 62 cf 8c 3e
       0.20003371 0.034950778 0.0054887715 0.2750197
000020 d0 06 58 3e 15 31 89 be c3 c3 83 3e 04 c2 6d 3e
       0.21096349 -0.2679526 0.25735292 0.23218542
000030 8a d6 28 bf 7a df 80 be f0 6e ec bd a5 f3 ef 3c
       -0.6595236 -0.251705 -0.11544597 0.029290983
000040 50 2f fd 3d da 87 f4 3d c8 d5 a6 3e 59 6d 0e 3d
       0.1236254 0.11939974 0.32584977 0.03477225
000050 78 c4 ca bc 5e f8 1f 3e 6d 85 13 be c1 08 0f 3e
       -0.024751887 0.15622088 -0.14406367 0.13968183
000060 0c d2 52 3e a4 b5 5e 3e 0a 1b 16 bf 0f 5b 78 3e
       0.20587939 0.21748978 -0.5863501 0.24253486
000070 09 54 0f 3f d8 1e 08 bf 40 91 6c be 6f 52 8f bc
       0.559876 -0.53172064 -0.23102283 -0.017495362
000080 14 2b d6 3e db 10 fe 3d 53 b3 4e 3d ed 0a 01 3f
       0.4182974 0.12405559 0.050463986 0.50407296
000090 d6 66 ba 3e 0b 68 3b bf 0a 6a 2e 3e 49 44 22 3f
       0.36406583 -0.7320563 0.17032638 0.63385445
0000a0 f2 04 87 3e 17 aa 24 bf 8b 0e b6 3d 22 e0 17 bf
       0.2637096 -0.64322037 0.088894926 -0.59326375
0000b0 a2 75 12 be 30 0c 03 3f 3b af 82 3d 21 5d 56 3e
       -0.14302686 0.5119047 0.06381079 0.20933963
0000c0 ae 43 99 3e 54 7f 9f be 05 3f 2c bf f1 d9 90 bd
       0.29934448 -0.3115183 -0.6728366 -0.07072819
0000d0 ed 1a 27 3e 37 45 a2 3e 1c 6d ca 3e 8f 78 6e 3e
       0.16318865 0.31693432 0.3953637 0.23288177
0000e0 16 bf 1b bf f2 2d 4e be eb 11 b2 3e 78 4f 26 3e
       -0.6083845 -0.20134714 0.34779295 0.16241252
0000f0 e9 3b 48 3e cb da d2 3e 2d a7 03 3f 57 b3 f9 bd
       0.19554104 0.4118255 0.51426965 -0.121924095
000100 b8 ca a8 3e 84 18 ee be bb f3 fa 3e e9 a6 11 3f
       0.32967162 -0.4650308 0.49014077 0.5689531
000110 0e ae 39 bc 0d e4 88 3e bf 26 35 3e 08 e3 48 3e
       -0.011333002 0.2673649 0.17690562 0.19617856
000120 31 dc 03 3e 01 80 e0 3d ea 41 98 be 85 36 fc bd
       0.12876965 0.10961915 -0.29737788 -0.12315086
000130 9d ed 39 3d 0e d7 dd bf 24 06 14 3f d4 e5 a1 bf
       0.04539262 -1.7331254 0.5782187 -1.2648263
000140 c5 06 25 3f c2 7e 2e 3f 7f 15 b0 bf 97 e9 86 be
       0.64463454 0.6816217 -1.375656 -0.2635009
000150 76 a6 34 be 54 2c 84 3e 9f e4 0a bc df a3 b5 3d
       -0.17641625 0.2581507 -0.008477359 0.088691466
000160 d4 c8 16 3f 21 58 2f 3e 98 03 b3 be f9 11 39 3f
       0.5890019 0.17123462 -0.3496368 0.7229305
000170 99 6b dc 3e c6 b9 65 3e 18 1c 2f 3d 49 0e 34 3e
       0.4305084 0.22434148 0.0427514 0.17583574
000180 57 eb b1 3e de f7 2b be 7a 60 6f 3e 7e 76 ef bd
       0.34749863 -0.16793773 0.23376647 -0.116925225
000190 d6 c0 fc bd 16 cd 04 bd b8 d0 bf bc 06 74 89 be
       -0.12341468 -0.032422148 -0.023414955 -0.2684633
0001a0 73 d5 54 3e ec cd 02 3f ee 83 14 be 8e b4 5e bf
       0.2078455 0.5109546 -0.14503452 -0.86994255
0001b0 95 7b a5 3e d1 6a da be
       0.32320848 -0.4265962

fc3.weight f4 [55, 110]
000000 94 57 59 be 48 48 df be 9d af 06 c0 f2 93 12 3d
       -0.21224815 -0.43609834 -2.1044686 0.035785623
000010 b6 98 eb 3d 29 50 91 bd 70 e0 30 bd 33 c8 ca 3e
       0.11503737 -0.070953675 -0.04318279 0.39605865
000020 f1 d6 16 bd aa 70 8c be 76 96 ca bf d5 1e 68 3c
       -0.036826078 -0.27429706 -1.5827167 0.014167507
000030 68 8c 9a be 43 de 57 bd 35 be 3f 3e 6f c5 44 3f
       -0.30185246 -0.0527022 0.18724902 0.7686376
000040 96 3a bf 3e bf c3 4a bf ab 98 92 bf e4 ba 43 40
       0.37349385 -0.79204935 -1.145284 3.058282
000050 1b 95 02 bc 25 fa fb bc e8 b4 1d 3e 70 81 52 bf
       -0.00797012 -0.030758927 0.15401042 -0.82228756
000060 02 a2 ad 3e 90 7b 15 40 0e c8 72 3d 09 f6 c9 bf
       0.33912665 2.3356667 0.05927282 -1.5778209
000070 fb fd 26 c0 a5 e8 3c 3f 3a d3 6a 3f fd e7 80 3f
       -2.6092517 0.7379249 0.91728556 1.0070797
000080 f5 4c 91 bc 14 95 c5 3c f4 06 19 be c5 54 b8 bb
       -0.017736891 0.024118938 -0.14944059 -0.0056253397
000090 df 06 43 bf 5c 8d 51 be 9f e3 5c 3e 78 5d 72 3f
       -0.7618236 -0.2046408 0.21571206 0.9467387
0000a0 71 cc 0f 3f 0a 7d 0a 40 02 0f df 3d 69 7c 90 be
       0.5617133 2.1638818 0.108915344 -0.28219917
0000b0 51 68 91 3f 30 ea 07 3f 84 2c 31 3f 99 08 27 3e
       1.135996 0.53091717 0.6920855 0.16311873
0000c0 38 22 5f be e4 ce 3b 40 a8 d6 04 40 7a 41 d7 bd
       -0.21790397 2.9345026 2.0756016 -0.105105355
0000d0 42 f8 2f 3e a2 39 ae 3f a2 ae 3b 3f 6e db 53 3f
       0.17184547 1.3611338 0.73313344 0.827567
0000e0 3c ae 57 3f f9 46 2b 3c 13 ef 46 3f 7d 02 77 40
       0.84250236 0.010453933 0.7770855 3.8595269
0000f0 38 0c 99 3e 35 03 8d 3d 5a b6 11 bf 02 62 8f 3d
       0.29892135 0.06885377 -0.5691887 0.070011154
000100 4f 80 9d 3e 67 c2 cb 3f 3a ae 79 3f 86 3a e4 be
       0.30761954 1.5918702 0.97531474 -0.445759
000110 26 d3 da bf 5e f0 18 3f 9e e5 a4 3f ab 5e 11 40
       -1.7095687 0.5974177 1.2882574 2.271403
000120 d4 90 88 3e 05 ea 4c 3e 4f 76 02 bf e9 03 00 bf
       0.26672995 0.20011146 -0.50961775 -0.50005966
000130 29 6a a7 3e f8 e6 17 40 62 aa 0b be c7 7d 0f 40
       0.3269818 2.3734722 -0.13639215 2.2420518
000140 51 d3 67 be 81 39 df 3e b5 9c 37 40 cc 8a 2a 3e
       -0.22639205 0.4359856 2.8689396 0.1665451
000150 71 34 53 3f b6 e7 ad bf 21 da ea bb d9 91 56 40
       0.82501894 -1.3586338 -0.0071671163 3.3526518
000160 7b 92 c0 3e ec ef 13 3f fa 0b 26 bf 50 e3 cd 3d
       0.37611756 0.57787967 -0.64862025 0.10053122
000170 5a 46 83 3f 9c a9 88 3e 13 08 cd 3e 04 7d 83 3b
       1.0255845 0.26691902 0.40045223 0.0040127058
000180 43 e2 f4 3e 94 73 6a 3d 19 2d f9 3e 18 76 bd be
       0.47828874 0.05723913 0.4866722 -0.3700416
000190 b1 d3 3f 3f a5 2b 90 be e4 21 6a bf 70 82 23 3f
       0.7493239 -0.28158298 -0.91457963 0.63870907
0001a0 ed c9 46 40 3d 66 f6 be e5 de 43 bf 12 e4 a6 3d
       3.1060746 -0.48124877 -0.76511985 0.0814897
0001b0 56 8a 2f bf d9 47 b0 be dc c5 4f bd 5f c9 84 3e
       -0.6857046 -0.34429815 -0.050725803 0.25934884
0001c0 f9 c5 5a 3d dd 8f 41 bd e8 d7 f4 bb 9d b1 c9 3b
       0.053411458 -0.04725634 -0.007472027 0.0061552064
0001d0 1f 2d 12 3d 3d 5e 14 3c 2c cc c1 bc fe 47 4f be
       0.035687562 0.009055671 -0.023656927 -0.20242307
0001e0 19 02 be be bb f6 62 bd 5f c5 78 be 40 52 37 be
       -0.37110975 -0.05541108 -0.24294041 -0.1790247
0001f0 e9 aa a7 3d 64 d2 d7 3e cc 11 a5 3d 4d 55 16 bc
       0.081868954 0.42152703 0.08060035 -0.009175611
000200 70 79 9c be 1d ab bf 3e 6a 9a df be 99 a9 3f bd
       -0.305614 0.37435237 -0.43672496 -0.0467926
000210 51 66 af be 02 d7 eb bd 38 2d 53 3d c3 84 1e 3e
       -0.3425775 -0.11515619 0.051556796 0.15480332
000220 9e 40 ad be 8a bf d3 bc 40 fb 4e be 84 4b 53 3d
       -0.33838362 -0.025848169 -0.20213032 0.05158569
000230 2e a3 39 3e 87 d4 c4 3e 4d 6f 1e 3e 0c 31 13 3d
       0.18128654 0.38443395 0.15472145 0.035935447
000240 ae d6 93 bd d8 58 6e 3c 6d 40 71 3e e4 ef 90 be
       -0.07218681 0.014547549 0.23559733 -0.28308022
000250 9c bd 04 3e 28 06 a3 bd b9 e5 6f bd 4c 79 12 be
       0.12962955 -0.079601586 -0.05856869 -0.14304084
000260 1d f7 30 be 17 79 84 bb d3 a5 4c 3f a4 28 47 be
       -0.17281766 -0.0040427553 0.7994053 -0.19449097
000270 74 c2 f5 3d bb 64 fb bb 16 f5 20 3d 3c da 6f 3e
       0.119999796 -0.00767192 0.039296232 0.23423094
000280 33 0e 3c 3e 4d e7 e8 3c 9f 08 05 3c 9d 1c f2 3c
       0.18364792 0.028430605 0.008119731 0.02955466
000290 62 d4 41 3d eb 48 c9 bc 05 7e af 3d c4 c9 d9 bd
       0.047321685 -0.024570903 0.08568958 -0.10634187
0002a0 81 6b 81 bd dd c8 98 3e 0b db 3a be 7a 38 3f 3d
       -0.06319333 0.29840747 -0.18247621 0.04668472
0002b0 07 c5 92 3e f0 e0 00 bf 90 df 93 3c da b2 df bd
       0.28665945 -0.5034323 0.018050939 -0.10922785
0002c0 6b cf e0 bd a4 8a 38 3e a6 55 e6 bd 23 12 02 3e
       -0.10977062 0.18021637 -0.11246805 0.12702231
0002d0 5d c5 22 3e dc 8e 83 3e 76 1a fd be ee b3 7c bd
       0.158956 0.2569493 -0.4943425 -0.06169503
0002e0 e8 f1 c0 be f9 56 b6 be 25 27 07 3d c3 ff f5 3e
       -0.3768456 -0.3561323 0.032996316 0.48046693
0002f0 bf 8b 0d 3e 20 88 fb 3e 34 d1 6b 3d a9 8e b8 bd
       0.1382284 0.49127293 0.05757256 -0.09011585
000300 d9 f7 21 3e b4 66 41 3e 8d 14 53 be 7b 8b 89 be
       0.15817203 0.18886834 -0.20613308 -0.26864228
000310 66 e4 e2 39 c5 f4 d4 3e 68 84 00 3d 20 03 44 be
       0.0004327625 0.41592994 0.031376272 -0.19141817
000320 9f be 14 bd fd 4a d2 3d 16 17 e4 3c 83 07 80 3c
       -0.036314603 0.10268209 0.02784304 0.015628582
000330 d3 f6 37 be ec 3c 41 3c 5b e5 29 3e 11 c7 28 3d
       -0.1796525 0.01179431 0.16591398 0.04120547
000340 5d d2 b9 3c 99 a8 74 be 4f a4 53 3e fe e9 bc be
       0.022683317 -0.2389244 0.20668148 -0.36897272
000350 0d ac 60 be 92 d3 a2 bd 33 f6 dc 3e d9 78 86 3e
       -0.21940632 -0.0795051 0.43156585 0.26264074
000360 d3 99 9f bd cb 39 a9 be 06 fb 9e be e1 ce 76 be
       -0.077930115 -0.33051905 -0.3105089 -0.24102356
000370 b3 f7 a2 bd 8c 00 2b bd 3b 2e 5a 3d 48 95 1d be
       -0.07957401 -0.04174857 0.053266745 -0.15388978
000380 c6 3b 9b bc 68 fd 45 bd 83 36 ad 3c d1 fe cf 3b
       -0.0189494 -0.04833737 0.021144157 0.006347515
000390 bd 37 57 3b 3e 18 ec bc 38 5e 29 bc 15 93 1b 3e
       0.003283962 -0.028820153 -0.010337405 0.15192826
0003a0 46 cd 5c be 3c 66 cb bb 9e 3b 42 bd c1 77 b3 bd
       -0.2156268 -0.0062072556 -0.047420137 -0.087630756
0003b0 55 c2 f8 ba 72 00 b7 bd 66 2f f1 3d be fc 6d 3d
       -0.0018978814 -0.08935632 0.11776619 0.05810236
0003c0 e1 7a fe bd 92 22 4c be b3 78 16 3b 70 5f e0 bf
       -0.12425781 -0.19935063 0.0022960126 -1.7529125
0003d0 0f 0f d5 3d 86 ba 4d 3d 28 fb 59 3e a6 cd 39 bd
       0.10403263 0.05022671 0.21287215 -0.045362137
0003e0 0a cf 48 3d c1 a7 ca 3c fe 08 c2 bd 7d e6 33 be
       0.049025573 0.024738194 -0.094743714 -0.17568393
0003f0 ca fd 8c bc 8a 1a 86 be 57 2c 69 bd 87 76 dd bc
       -0.01721086 -0.26192123 -0.05692705 -0.027034057

fc3.bias f4 [55]
000000 84 d8 fd bf 23 12 93 3e 94 95 84 3e d6 49 b2 bf
       -1.98317 0.28724775 0.2589537 -1.3928783
000010 69 c8 90 3e d6 72 4a 3e 47 e7 83 3e 76 a7 a2 bf
       0.282779 0.19770369 0.25762388 -1.2707355
000020 91 9e 34 c0 84 dc b5 3e b5 ca 79 be 00 56 91 3e
       -2.8221781 0.35519803 -0.24393733 0.28385925
000030 bf ea f8 bf 08 1c a7 3e 24 96 85 3e 97 74 97 3e
       -1.9446639 0.32638574 0.2609111 0.29581138
000040 e3 46 d2 3e e6 17 8c 3e d7 c2 0c c0 02 d8 36 c0
       0.41069707 0.27361983 -2.199392 -2.856934
000050 57 05 84 3e 7a 73 4d 3e 24 dc 2e c0 a2 35 7f 3e
       0.25785324 0.20063582 -2.7321863 0.24922803
000060 f9 fd 00 c0 54 2d a1 3e 0f 53 76 3e 71 ef 9c 3e
       -2.0155013 0.31479895 0.24055122 0.3065143
000070 1b f7 a2 3e c9 98 0a c0 43 fc d1 3e f1 a0 a3 3e
       0.31829152 -2.1655753 0.41012773 0.31958726
000080 1e f8 91 3e 62 d7 9a 3e 51 9b 6d bf 00 d6 a9 3e
       0.2850961 0.3024245 -0.9281512 0.33171082
000090 88 64 03 c0 ae 30 84 3e 72 a2 42 3e e5 c9 74 bf
       -2.053011 0.2581839 0.1900728 -0.95620567
0000a0 c7 ed 31 c0 51 49 35 3e 75 79 bd 3e 9d 77 b2 3e
       -2.7801378 0.17703749 0.37006727 0.34856883
0000b0 77 d2 6f bf 42 5d 05 c0 d9 e0 82 3e 5e bd a2 bd
       -0.9368052 -2.083817 0.2556217 -0.07946275
0000c0 5d 75 96 3e e1 71 c3 3e d9 d5 6c 3e 1a b8 9f 3e
       0.29386416 0.3817282 0.23128451 0.31195146
0000d0 30 ad 93 3e a7 eb 83 3e af 60 c2 3e
       0.2884307 0.25765726 0.3796439

fc4.weight f4 [30, 55]
000000 bd d1 1c 3e bb c9 ac bc e5 b8 f3 b9 83 85 ad 3b
       0.15314384 -0.021092286 -0.0004648633 0.005295457
000010 69 6d 59 3b b6 09 cc bd 42 24 c8 3c 6a 95 ef 3d
       0.0033176786 -0.0996279 0.024431352 0.1169842
000020 e2 22 86 bd ca d1 fd 3b 49 a7 c4 bc 5d 3f cc bd
       -0.06549622 0.007745956 -0.024005549 -0.09973023
000030 31 0b bc 3d ad 02 7d 3c 42 fb f4 bd 96 bc 8a bd
       0.09181822 0.0154425325 -0.11961986 -0.06774251
000040 e4 7f 1f 3a 65 23 b0 bd de bd f0 bd 3d a1 37 bc
       0.0006084426 -0.08600501 -0.11754964 -0.011207876
000050 4c 3a 8e 3d 90 6c d2 bd ff 91 bf 3d ac ed d8 3d
       0.06944713 -0.10274613 0.093540184 0.10592207
000060 d6 50 36 be a2 fc 57 bd 52 d1 b4 bc d5 b8 97 3d
       -0.17804274 -0.052731164 -0.022072468 0.07408301
000070 32 2d 30 3d a6 40 95 bd 86 a1 96 ba 81 14 a7 bc
       0.04301185 -0.07287721 -0.001149223 -0.02039552
000080 7b 4b 16 bc 5c 7a 09 3c 35 c6 02 3e 10 2b 69 3c
       -0.009173269 0.008390989 0.12770922 0.014231458
000090 a5 a4 b9 3c c0 c4 f5 3b 89 7a 68 3c 47 e8 70 bd
       0.022661516 0.007500261 0.014189371 -0.058815267
0000a0 f3 a6 86 3d c4 0d 12 bc c9 12 05 be 70 88 25 3e
       0.06574812 -0.008914415 -0.12995447 0.16165328
0000b0 15 cb 84 be 6b f7 91 bd 83 db 0d bd 43 d5 b3 3c
       -0.2593619 -0.07127269 -0.03463317 0.021952277
0000c0 c1 00 2c 3e 1a 93 65 3c 6b d4 ec 3c b9 a8 ac 3d
       0.16797163 0.0140121225 0.028909883 0.08430619
0000d0 b3 6f bf 3d cd c5 b0 3d a9 8b 55 3d 7c 41 28 3e
       0.09347477 0.086314775 0.052135143 0.1643123
0000e0 7b 9e c9 bb 6f 24 a2 bd c3 85 13 be 6e 28 0a 3e
       -0.0061529255 -0.079171054 -0.14406495 0.13491985
0000f0 d9 db d5 3d 9f 00 a4 bd 03 96 86 bd 26 3d 40 be
       0.10442323 -0.08007931 -0.06571581 -0.18773326
000100 b5 97 15 3d 93 8b 85 3a 03 78 0d 3d f1 c5 95 be
       0.036521632 0.0010188691 0.03453828 -0.2925258
000110 e1 4e f4 3d cd 81 ec 3c de 57 0d 3d f3 ac 8a 3c
       0.119291075 0.028870488 0.034507625 0.016928172
000120 43 a6 6f bd 89 31 e3 3d 60 89 23 3e a6 15 a2 3c
       -0.05850817 0.110934325 0.15970373 0.019785713
000130 85 47 0a 3d 5e c4 bf bd e9 88 01 bc af e4 dd bc
       0.033759613 -0.09363626 -0.007906177 -0.027086584
000140 a9 e6 71 3d ea 50 4b bd 8f 59 34 be 86 6c f7 bb
       0.059057865 -0.049637713 -0.17612289 -0.007550779
000150 93 b0 04 3e 8e 5d 55 bd 0d 19 86 bd 3c 36 2f bd
       0.12957983 -0.052091174 -0.06547747 -0.04277633
000160 86 89 28 bd d7 95 1f be ba a6 80 3c 1d 72 f4 be
       -0.041146778 -0.15584503 0.015704501 -0.47743312
000170 10 1c d6 bc dc 18 5a 3d 4a be b5 bd b8 73 15 3e
       -0.026136428 0.053246364 -0.088741854 0.14594924
000180 47 aa 29 bd 75 bc b7 bd 4a d3 19 3e 39 22 d3 3d
       -0.041422155 -0.08971492 0.15022007 0.10309262
000190 42 e8 98 3e b5 fa 8f bc eb 2d 20 3d 30 d8 0b bc
       0.298647 -0.017575601 0.03910629 -0.00853543
0001a0 16 a7 56 3d f2 e9 96 3d 47 fa 8c bd b1 e3 98 3d
       0.05240544 0.0736884 -0.06883674 0.07465304
0001b0 46 f6 b5 3d 13 b8 77 bd 30 07 c9 be 50 3f 44 bc
       0.088848636 -0.06047828 -0.39263296 -0.0119779855
0001c0 29 b6 f2 bc 59 f9 69 3c 11 a2 9a bc bc d9 3d bd
       -0.029627876 0.0142806405 -0.018876107 -0.046350226
0001d0 42 ac 14 bb 5a e0 a8 3e 4c 00 85 3e 5f 18 85 bc
       -0.0022685681 0.32983667 0.2597679 -0.016246973
0001e0 2e c0 0c bd f8 e6 bb 3d 6d 43 96 3c c3 89 08 3e
       -0.034362964 0.09174913 0.018342698 0.13333802
0001f0 a6 60 ac 3d 6d cd d5 3d fc 0e 81 3b f4 30 52 3d
       0.08416872 0.104395725 0.003938554 0.051316217
000200 d6 b0 70 3e fa 54 14 3e 46 87 24 be 4e d0 21 bd
       0.23504958 0.14485541 -0.16067228 -0.039505295
000210 15 06 53 be d0 51 73 3d 97 85 a2 3e 8e fe 89 3d
       -0.20607789 0.059404194 0.31742546 0.067380056
000220 df 1c df 3d 0f b8 24 bc f8 71 3e be cd d4 32 be
       0.108941786 -0.010053649 -0.18598163 -0.1746399
000230 dc 1e e4 bc 40 59 89 3c 1c e6 a3 bd e3 6c 17 3d
       -0.027846746 0.01676619 -0.08002874 0.036969077
000240 25 b8 17 be bf 49 5f be 21 f0 ca 3e 3c 46 1d 3b
       -0.1481634 -0.21805476 0.3963633 0.0023998162
000250 e4 40 16 bd 0e ac 6c 3e cb 30 94 be a6 5d 2e bd
       -0.03668298 0.23112509 -0.28943476 -0.04256978
000260 7e 72 01 be 8e 66 50 3d 69 ec 4b bb c2 2a 80 be
       -0.12641332 0.050879054 -0.0031116253 -0.25032622
000270 70 b8 b0 bd a1 8d 8e 3d 26 ee a1 3d ff 84 f2 bc
       -0.08628929 0.06960607 0.07906751 -0.029604433
000280 a7 15 ae bd 7a 1a 21 bb 04 c8 16 3d 2e ee a3 3d
       -0.085002236 -0.0024582432 0.036811844 0.080044135
000290 10 df aa bb f7 03 bb 3c ac c5 cc 3a c5 8c fc 3d
       -0.0052145794 0.022829039 0.0015622876 0.12331537
0002a0 db 8e 35 3e e9 1e 9f bc 8e 58 d0 3c 53 f9 6a be
       0.17730276 -0.019423919 0.025432851 -0.22946672
0002b0 aa 38 e9 bd 22 50 e0 3c 94 83 ae bc 9d d4 86 3c
       -0.11387761 0.02738196 -0.021302976 0.016458804
0002c0 75 14 1c bd 54 4f a0 3c 40 0f 39 3e 18 e9 1b 3e
       -0.038105447 0.019569077 0.18072224 0.15225637
0002d0 32 cb 7e bc 46 1d 40 bd b6 b9 bd 3d 05 14 92 be
       -0.015551375 -0.046902917 0.09263937 -0.285309
0002e0 19 07 24 be 2f 4f 71 bc ba eb e1 bc 31 28 cf bd
       -0.16018333 -0.0147283515 -0.027578223 -0.10115088
0002f0 a4 77 17 bd c0 9c 07 3e 04 4b 70 bd 22 38 63 3d
       -0.036979333 0.13243389 -0.05866529 0.055473454
000300 2f 8b 2d bc 98 be db bc 0b 6b f6 3c 23 d7 3f 3c
       -0.010592266 -0.02682428 0.030080339 0.011709007
000310 5d 1c ea bc db 7a 01 be 00 d0 17 bd 5e df 65 3e
       -0.028577978 -0.12644522 -0.0370636 0.22448489
000320 2a 2e eb 3c 67 c8 df 3d 13 51 26 3c 05 7a 0e bc
       0.028708536 0.109268956 0.010151166 -0.008696084
000330 c1 e1 da 3d b7 ca 90 bd ef c1 ef bc 65 32 35 bd
       0.106875904 -0.07069915 -0.02926728 -0.044237513
000340 1f a9 7e bd 8e 9f ea 3c 87 91 8a bd 35 53 7d bd
       -0.062173005 0.028640535 -0.067660384 -0.06184693
000350 9b d4 05 3c 39 2f 20 bd 98 71 ab bc 09 dc ff 3d
       0.008168365 -0.039107535 -0.02092819 0.1249314
000360 65 0f 82 3d 22 09 e8 3c 74 ac 2d bd 42 00 86 bd
       0.063505925 0.028324667 -0.042400792 -0.06543018
000370 23 40 46 be 90 0b 17 3d 76 c9 ae bc fd 98 dd 3d
       -0.19360404 0.03687626 -0.021336298 0.10820196
000380 21 08 ce bd 0c d3 b9 3c 80 77 40 3d 59 8a 23 be
       -0.10060144 0.022683643 0.046988964 -0.15970744
000390 4d e0 c9 3d dc fe 50 3c a2 3e 8e bc 34 b4 e8 3c
       0.09857235 0.012756076 -0.01736385 0.02840624
0003a0 2e e4 21 3e 49 9f e3 3c 7d be b4 3c 63 8d 52 3d
       0.158097 0.027785914 0.022063488 0.051404368
0003b0 ec 34 22 bd ba 74 98 bc 0e e8 b7 bc e4 98 71 bd
       -0.03960125 -0.018610347 -0.02244952 -0.0589837
0003c0 bf b0 f3 3d 4b 52 05 bd fb ef 60 be 4f 5e f9 bc
       0.11898946 -0.032549184 -0.21966545 -0.030440478
0003d0 7a 2e 82 3e 49 8a 2b 3d a8 f5 e2 bd c2 6d 9b 3d
       0.25426084 0.041879926 -0.110820115 0.07589294
0003e0 63 a4 ba 3d da 2d 3a 3e fe ea 78 3c 62 56 f1 bd
       0.091133855 0.18181553 0.015192745 -0.11784054
0003f0 09 28 22 bd a5 d5 b3 3a 07 73 2b be 05 61 b3 3d
       -0.03958896 0.0013720287 -0.16743098 0.087587394

fc4.bias f4 [30]
000000 58 a8 13 bd a4 54 41 bd 72 be 96 3d b8 60 65 3d
       -0.036049217 -0.04719986 0.07360543 0.05600044
000010 13 0b 88 bd 64 f2 5b 3d 00 cc ac bc 68 1f 4f bd
       -0.06642737 0.05369796 -0.021093369 -0.05056706
000020 da c3 fa 3d 80 19 b3 3a d8 16 3a 3d 91 9c 09 3e
       0.12244387 0.0013664216 0.04543194 0.13438632
000030 cb fc f9 bd 46 9d f2 3d 96 6b a0 bd 6f d1 d5 bd
       -0.122064196 0.11846404 -0.078330204 -0.10440337
000040 a4 d0 a9 bd a4 98 da 3d 6c 69 b0 bd 10 70 e7 3c
       -0.08291748 0.10673645 -0.086138576 0.028251678
000050 80 f9 f0 bb 80 01 fe 3b 38 ea f9 3c c4 07 de bc
       -0.0073539615 0.0077516437 0.030507192 -0.027103312
000060 4a f4 ef 3d 9d 69 c4 bd fa c0 d1 3d 90 91 a7 3c
       0.11716516 -0.09590457 0.102418855 0.020455152
000070 4e 30 66 bd 66 17 37 bd
       -0.05619841 -0.04470005

fc5.weight f4 [15, 30]
000000 e4 56 14 3e e2 3d 13 be f6 e5 1f be e4 40 ca 3d
       0.14486271 -0.14379075 -0.15615067 0.09875658
000010 2c cb 2a 3e 6c ea bc 3d 8e 30 d8 bd e0 d2 6d 3d
       0.16679066 0.092244 -0.10556136 0.058062434
000020 78 c5 e5 3d 10 c8 29 3d 76 69 09 3e 70 b5 00 be
       0.11219305 0.04145056 0.13419136 -0.12569213
000030 89 a2 32 be 77 fd 26 be a0 93 19 3e 7f ce a7 bd
       -0.17444815 -0.16307627 0.1499772 -0.08193683
000040 8e ce 01 be 00 0d 01 ba 98 d1 8c 3c 08 24 f2 3c
       -0.1267645 -0.00049228966 0.017189786 0.029558197
000050 e8 74 ef 3d cc 17 b4 3d bc 28 35 3d 2b da d8 bd
       0.1169222 0.087936014 0.0442283 -0.10588487
000060 fc 32 23 be 32 45 33 3e c6 31 0d be df 43 0d be
       -0.15937418 0.17506865 -0.13788518 -0.13795422
000070 5e 26 2b be 3c 65 30 3e 25 4c 12 be 90 09 46 bc
       -0.16713855 0.17226118 -0.1428686 -0.012087241
000080 e0 68 9e bd 84 be d3 3d 8e 63 8f bd b0 eb cf 3c
       -0.07734847 0.10339072 -0.070014104 0.02538094
000090 c6 23 1d 3e 00 b1 60 bd 26 7b bb bd b8 c9 70 bd
       0.15345678 -0.0548563 -0.09154348 -0.058786124
0000a0 04 9e 58 bd d5 6f 16 be cc d2 15 3e 1e ff ff bd
       -0.05288507 -0.14691098 0.14631194 -0.124998316
0000b0 dc 42 5a bd 54 1a be 3d 26 54 29 3e 34 a9 0a be
       -0.05328642 0.092823654 0.16536006 -0.13541108
0000c0 e8 a7 cd 3c b0 63 d4 3d 50 85 db 3d b8 bf 90 bc
       0.025104478 0.103705764 0.10718787 -0.017669544
0000d0 00 22 d3 bb 25 2c 93 bd c0 03 96 bd 26 aa 9f bd
       -0.006443262 -0.07186154 -0.07324934 -0.07796125
0000e0 80 cc 24 bc ca cb c9 bd a4 4e e2 3d 47 f3 1c be
       -0.010058522 -0.09853323 0.11050156 -0.15327178
0000f0 04 ee bf 3d cc b9 5f 3d 2c 93 d5 bd 30 54 9a bc
       0.0937157 0.05462055 -0.104284614 -0.018838972
000100 00 37 10 3e 88 82 2f be 4c 65 07 be 60 75 f8 3b
       0.14083481 -0.17139637 -0.13222235 0.0075823516
000110 b8 98 91 3d c4 4d f6 bd 74 e2 b5 3d df cc f7 bd
       0.07109207 -0.12026551 0.08881083 -0.12099623
000120 4a 84 7c bd 18 aa 2b 3e ec d1 22 3e a8 e8 f7 3d
       -0.0616496 0.16764104 0.15900391 0.121049225
000130 18 ff 28 3e 9a f0 02 be 60 ce d3 bc 46 ee 2d 3e
       0.1650356 -0.12787095 -0.025855243 0.16985425
000140 ef 97 b0 bd 68 9a f2 bc e4 5f 06 be d3 88 cf bd
       -0.08622729 -0.029614642 -0.13122517 -0.10133519
000150 60 e7 6a bd 6c e6 86 3d ef 9c 32 be 90 ad 68 bc
       -0.057349563 0.06586918 -0.17442678 -0.014201537
000160 c8 98 fe 3c d0 d3 c5 3d f0 77 09 3e 30 68 c3 3d
       0.031078711 0.09659541 0.13424659 0.095413566
000170 a8 b4 e8 bd 80 9f 93 ba 40 27 36 3c b0 66 b1 bc
       -0.113625824 -0.0011262745 0.011117756 -0.02165541
000180 c2 9c 30 3e 44 33 ee 3d 64 d3 42 bd cc 36 3d bd
       0.17247298 0.11630872 -0.04756488 -0.046194836
000190 48 59 93 3d c4 5d 20 3d a0 d6 00 bd 42 52 00 be
       0.071947634 0.039151922 -0.031454682 -0.12531379
0001a0 4c cf 1f bd e6 0b 0f be 55 63 37 be 04 af 58 3d
       -0.039016053 -0.13969383 -0.17908986 0.052901283
0001b0 4e c3 0d be 10 d9 fb 3d fd 88 c6 bd e0 2d 6f bc
       -0.13844034 0.12297261 -0.09694097 -0.01459834
0001c0 bc 83 8f 3d 7c 1e 08 be 11 2b 03 be 16 ce 2b 3e
       0.07007548 -0.13292879 -0.12809397 0.16777834
0001d0 8c 0c 5b bd 7f 08 1d be 76 5b 2f be 2a 37 06 3e
       -0.053478763 -0.15335272 -0.17124733 0.13106981
0001e0 2c 32 55 3d a0 22 0b bd 68 51 c0 3c 3e 1b 10 be
       0.0520498 -0.033968568 0.023476318 -0.14072892
0001f0 a8 01 e2 bd 3c 77 01 3e a0 53 f0 3d 5b 08 15 be
       -0.11035472 0.1264314 0.117347 -0.14553969
000200 d8 11 33 be 74 43 c7 bd bc 25 04 be 7e 29 10 3e
       -0.17487276 -0.097296625 -0.1290502 0.14078328
000210 42 2e 16 3e 00 2a 08 3d c4 01 02 bd a0 b1 1a 3e
       0.14666083 0.03324318 -0.031739965 0.15106821
000220 df 13 35 be 78 5c a0 bd a6 23 8d bd ac 12 13 be
       -0.17683361 -0.07830137 -0.06891565 -0.14362592
000230 81 7e df bd b0 95 12 3c 80 d2 e7 bb 95 cc 36 be
       -0.109128006 0.008946821 -0.007074654 -0.1785148
000240 94 c1 5f 3d cc 49 9f bd 0c 6a 08 3e 6c 5d 8d 3d
       0.05462797 -0.077777475 0.13321704 0.069025844
000250 08 9c ee 3c 1d 4e 1f be d4 16 0d bd f8 cb 21 3e
       0.029127136 -0.15557142 -0.0344456 0.15800464
000260 c6 48 34 3e 78 9f 14 3e d4 5a ff 3d 5c 8a f9 3d
       0.17605886 0.14513958 0.12468496 0.12184593
000270 b0 25 f3 bd cf 6a d8 bd 33 85 b4 bd 70 61 66 bd
       -0.11872423 -0.10567247 -0.08814468 -0.056245267
000280 7a 3f 24 3e 97 04 98 bd fb 92 ef bd b2 53 18 be
       0.1603984 -0.074227504 -0.11697956 -0.14875677
000290 16 30 22 3e 46 b2 7a bd c0 5d 41 bb 70 2e 9e 3d
       0.15838656 -0.06120517 -0.0029505342 0.07723701
0002a0 a8 33 dc 3d 8c 85 ec 3d 04 7e 24 3e 10 0a 71 bc
       0.1075204 0.115489095 0.16063696 -0.014711872
0002b0 80 1b 2f 3b b4 19 13 be e8 50 06 3e 20 c5 11 be
       0.0026719272 -0.14365274 0.13116801 -0.14235353
0002c0 f0 d3 aa bc a4 bb 1c bd d2 86 19 3e 29 80 35 be
       -0.020853013 -0.038264886 0.14992836 -0.1772467
0002d0 c0 25 b1 3c e8 85 d9 3d 00 88 91 ba 80 03 b4 3d
       0.021624446 0.10621244 -0.0011103153 0.0878973
0002e0 3c 78 e2 3d 09 07 8b bd f5 33 1e be ec 01 f2 3d
       0.11058089 -0.06788451 -0.15449508 0.11816773
0002f0 a5 f5 d8 bd fc 3e 96 3d 38 bb 52 bd fc 09 d4 3d
       -0.10593728 0.07336232 -0.051448077 0.10353467
000300 90 0a fb bc fc cf 34 3e 4c 0f dc bd 30 04 67 3c
       -0.030644685 0.17657465 -0.10745105 0.0141001195
000310 e7 9e 88 bd 78 8d dc 3d 94 a0 12 be 60 55 cb bb
       -0.06670933 0.107691705 -0.14319068 -0.006205246
000320 f8 d2 4f bd c4 99 5d 3d 6c ff 83 3d da 15 15 be
       -0.050738305 0.05410172 0.06445202 -0.14559117
000330 47 4d 2e be dc 40 6a bd 74 8a e8 3d 3e a5 21 3e
       -0.17021666 -0.05719076 0.11354533 0.15785691
000340 10 c2 ff 3c ec e3 0f 3e 9f 7e e3 bd 96 4e 35 be
       0.031220466 0.14051789 -0.111081354 -0.1770576
000350 4c 49 74 3d 76 51 b7 bd 6c 6b 38 3e 80 36 7f bb
       0.059640214 -0.08951084 0.18009728 -0.0038942397
000360 44 4f 57 bd 90 68 61 3c 20 4b 0e bc cc 7a 38 3e
       -0.052565828 0.01375784 -0.008684903 0.18015593
000370 70 ee 44 bd 0e 42 17 be 64 c2 bc 3d 81 78 29 be
       -0.048078954 -0.14771292 0.092167646 -0.16549875
000380 8c 03 38 be 67 2f fb bd c2 4d 6d bd b0 bf b4 3d
       -0.17970103 -0.12264901 -0.057935484 0.08825624
000390 38 05 a5 3d 18 26 ae bd b0 0c 7c 3d c4 d2 1a be
       0.08057636 -0.085033596 0.061535537 -0.15119463
0003a0 9a 61 39 3e 64 23 1a 3d 20 33 ba 3d f4 41 df 3d
       0.18103638 0.037631407 0.090917826 0.109012514
0003b0 86 01 25 3e 10 db 80 3c 90 5f 04 3e e2 51 82 3d
       0.16113862 0.015729457 0.12927079 0.06363274
0003c0 dc ef cd 3d 24 ff 2e 3e d6 61 23 3e f5 fb 1b be
       0.10055515 0.17089516 0.1595529 -0.15232833
0003d0 08 a9 2b bd 3c da d4 3d 5c 85 86 bd 90 a4 32 be
       -0.041909248 0.103931874 -0.06568405 -0.17445588
0003e0 54 4e 0e be 3a 1d a3 bd bc 14 72 3d 74 30 ae 3d
       -0.13897067 -0.07964559 0.059101805 0.085053355
0003f0 bf ee e7 bd b8 f0 9f 3d 5e 90 0f be d2 b5 f3 bd
       -0.11324834 0.07809585 -0.14019915 -0.11899914

fc5.bias f4 [15]
000000 58 14 0b be 08 6a 1f 3d 91 f2 d2 bd b2 60 2e be
       -0.1358198 0.03891948 -0.10300172 -0.17029074
000010 e8 bc 3c 3d e3 9f 15 be 98 e5 07 be 5c 4f ba 3d
       0.046078593 -0.14611773 -0.13271177 0.09097168
000020 72 7a 1c be 18 fc 2d 3e 9c 7e 26 3e d8 f9 ea 3d
       -0.15281084 0.16990697 0.16259235 0.11473435
000030 c8 75 82 3d 4c ed f7 3d d4 0f c7 3d
       0.06370121 0.12105808 0.09719816

fc6.weight f4 [8, 15]
000000 40 d0 bf 3c 1a c0 3b 3e 0b e5 32 be 6a 7d a4 bd
       0.023414731 0.18335 -0.17470185 -0.08031733
000010 b0 57 8a bd 80 4d f4 bc 7c 64 6b 3e 74 15 76 3e
       -0.06755006 -0.029822111 0.2298755 0.24031621
000020 2d d3 80 3e e0 f6 29 3e 84 01 c9 3d fe c2 8b bd
       0.25161114 0.16598082 0.09814742 -0.06824301
000030 7a 2b 7d 3e 33 52 77 be 00 3b 57 3d 24 6c 0e bd
       0.24723616 -0.2415245 0.0525465 -0.0347711
000040 e8 0e e4 3d 18 f9 27 bd f8 79 28 3e 20 8e a1 3d
       0.11135656 -0.04100904 0.16452777 0.07888436
000050 9e fc 20 be 10 ed 53 3d fa 7c b3 bd 64 70 69 3e
       -0.15721366 0.051739752 -0.08764072 0.2279678
000060 f4 98 0f be ae b0 ff bd 74 f7 2c be 3e ed 2d be
       -0.1402319 -0.12484871 -0.16891271 -0.16985032
000070 40 23 53 bc 3d 31 80 3e 63 6f 80 3e 88 28 ce 3d
       -0.012886822 0.25037566 0.2508498 0.100663245
000080 a6 31 74 3e 8c 98 6b be 04 39 1f 3e 16 6e a1 bd
       0.23847064 -0.23007411 0.15549093 -0.07882325
000090 48 99 04 3d 06 71 b7 bd 80 ff 3d bc 7e 6a d0 bd
       0.032372743 -0.089571044 -0.0115965605 -0.10176562
0000a0 66 50 e3 bd 0e 37 35 3e 70 d7 da 3d d6 50 50 be
       -0.11099319 0.17696783 0.10685623 -0.20343336
0000b0 1c 0c 84 3d f0 33 62 3d 04 0a 7b be 5c 37 8f 3d
       0.06447622 0.055225313 -0.2451554 0.06992981
0000c0 28 23 5f be 0e cb 7f 3e 3a 5b a1 bd f0 c3 ef 3c
       -0.21790755 0.24979803 -0.07878728 0.029268235
0000d0 28 14 91 bc 24 1b 02 3e 08 f2 f6 bd 4a 66 e9 bd
       -0.017709807 0.12705666 -0.120578825 -0.11396463
0000e0 74 6a 88 3d 8e d8 77 3e d8 d4 4a be 22 24 29 be
       0.06660929 0.24203703 -0.19807756 -0.1651769
0000f0 fb b6 83 be 92 88 47 3e be 9a 46 3e 80 d7 04 bc
       -0.2572554 0.19485691 0.19394967 -0.00810802
000100 ce 5a 14 be d8 18 19 3e 29 41 04 be b5 e0 80 3e
       -0.14487764 0.14950883 -0.12915482 0.25171438
000110 e0 ce 21 bd 99 11 76 be b2 27 f2 bd e8 7f 12 3e
       -0.039503932 -0.2403015 -0.118239775 0.14306605
000120 4a eb e4 bd 48 08 24 3e f0 44 d6 3d 8a 82 0d be
       -0.1117769 0.16018784 0.104623675 -0.13819328
000130 28 0c 58 3e 9c be 64 3e 14 ab 75 3e e6 88 0f 3e
       0.21098387 0.22338337 0.23991042 0.14017066
000140 68 65 e3 bd e8 4c 54 3e ce ff 52 3e ac d2 38 3e
       -0.11103326 0.20732462 0.20605394 0.18049115
000150 47 82 2b be 88 cf 18 3e b0 1e 94 bd e5 ad 82 3e
       -0.16748916 0.14922917 -0.07232416 0.25523296
000160 ea 58 69 3e 48 3a 21 3d 88 ff e0 3d a4 f7 1f bd
       0.22787824 0.039362222 0.10986239 -0.039054528
000170 60 5f 86 bc 65 a4 82 3e d3 17 04 be 64 72 66 3e
       -0.0164029 0.25516048 -0.12899713 0.22504574
000180 18 0a 97 bd d2 01 1d be 8e e4 3f 3e db 24 81 3e
       -0.07374972 -0.15332726 0.1873953 0.2522343
000190 bc 51 49 3e 2c 3f c5 3d 78 7b 2c bd 54 91 20 3e
       0.19660085 0.0963119 -0.042109936 0.15680438
0001a0 9a c8 bc bd 79 57 08 be a0 19 45 3c 60 cd 52 3c
       -0.09217949 -0.13314618 0.012030035 0.012866348
0001b0 07 d1 25 be 34 aa b2 3d 50 f4 b3 bd ea 04 ec bd
       -0.16193019 0.0872387 -0.08786833 -0.11524375
0001c0 41 63 69 be e0 02 b1 bc ee df 3d 3e 4c 9d 8f bd
       -0.22791769 -0.021607816 0.18542454 -0.07012424
0001d0 28 45 9d bc fc cd ec bd b8 f8 5b 3d cc 70 91 bd
       -0.019198015 -0.11562726 0.053703994 -0.071015924

fc6.bias f4 [8]
000000 e0 b2 09 3e 85 c6 81 3e e4 f6 62 be 48 e0 3f be
       0.13447142 0.2534677 -0.22164494 -0.187379
000010 94 84 50 be 12 91 ce bd 5c 28 15 bd b8 23 0e bd
       -0.20363075 -0.10086264 -0.036415443 -0.034702033

fc7.weight f4 [4, 8]
000000 17 0d 9d be 3d b0 9e 3e 40 b9 cb bb 30 12 c9 3c
       -0.3067405 0.30993834 -0.006217152 0.024544805
000010 72 43 f8 bd b3 9e 9d 3e 60 84 45 bc d4 a9 ad be
       -0.12122239 0.3078514 -0.012055486 -0.3391863
000020 de bb 32 3e fc 51 ad 3d f8 7b 21 3d 4f 36 b4 be
       0.17454478 0.08462903 0.039424866 -0.35197684
000030 d0 17 f7 bc a6 84 3e 3e a0 27 a7 bc 2b 05 a4 3e
       -0.030162722 0.18605289 -0.020404637 0.32035193
000040 c0 03 32 bd e9 17 a7 be 8e 53 60 3e a0 cb 8e bd
       -0.043460608 -0.3263543 0.21906874 -0.06972432
000050 04 06 60 be 1e 2a 31 be 14 e9 84 bd 26 11 6d 3e
       -0.21877295 -0.17301223 -0.064897686 0.23151073
000060 b5 c9 94 3e 13 32 9f 3e 9e b8 69 3e 68 ec 0c bd
       0.2906014 0.3109289 0.22824332 -0.034405142
000070 4d bc 87 3e 58 17 78 bd 76 8a 2d 3e 10 4c 34 be
       0.2651085 -0.060569137 0.1694735 -0.1760714

fc7.bias f4 [4]
000000 e9 7e 86 3e aa bc 33 be 4a b0 22 be d3 df 97 be
       0.262687 -0.17552438 -0.15887561 -0.29662952
